LeNet5.pth (torch, 261971 bytes, 18 tensors)

weight f4 [6, 1, 5, 5]
000000 c6 2e 2b 3e 50 27 06 3d 43 56 d3 3d 99 07 f2 bd
       0.16717061 0.032752335 0.103191875 -0.118178554
000010 57 69 4f 3c 96 71 ec 3d e7 46 b3 bd 74 06 a7 3c
       0.012659392 0.11545102 -0.08753758 0.02038882
000020 e8 4b b1 ba ec cc 61 bd c6 b7 a7 3c 1f a1 14 3e
       -0.001352665 -0.05512707 0.020473372 0.14514588
000030 48 2a da bd 3d c1 96 be e9 51 cd 3d 1e 45 29 3d
       -0.10652596 -0.29444304 0.10025389 0.04132568
000040 1b 3e e0 bd c2 11 88 be e6 93 35 3d fc 8d 06 3e
       -0.10949346 -0.26576048 0.0443305 0.131401
000050 4f 6f ef bc 11 7d 52 bd df 07 7c 3d 07 d2 17 3e
       -0.02922788 -0.051388804 0.061530944 0.14826213
000060 80 a8 5b b7 f1 da bb 3d da 41 a4 3d 75 31 39 3e
       -1.3092649e-05 0.09172619 0.08020373 0.18085273
000070 fd 9c b1 3d bd 71 a5 bc 0b 35 f3 bd 3a 98 94 3d
       0.08672521 -0.020195836 -0.118753515 0.072555974
000080 50 97 2c 3d 40 77 f8 3d b8 88 eb 3d 5c f0 49 bd
       0.04213649 0.1213212 0.115006864 -0.04930149
000090 e1 22 28 be 6d 15 79 bd 35 17 63 bd 90 40 5d 3d
       -0.16419555 -0.06081145 -0.055442054 0.05401665
0000a0 88 9d c4 3c d0 bc 0a bd 0a df 1a be 4b da dc bd
       0.024000898 -0.033871472 -0.15124145 -0.107838236
0000b0 f3 4c fa 3c 1f 21 27 3d 44 b6 f6 bc c8 92 64 3d
       0.03055427 0.04080307 -0.030116208 0.055804044
0000c0 ae b0 b5 bd ee de 9b bd 9c 73 10 3e 9c e3 0b 3e
       -0.088715896 -0.0761088 0.14106601 0.13661045
0000d0 f9 fa 18 3d 95 0e d9 bc 43 82 bc bd 81 7c de 3d
       0.03734872 -0.026496211 -0.09204533 0.10863591
0000e0 94 77 09 3d 25 b4 0b bd 76 1f 9c bd c4 88 33 be
       0.033561304 -0.034107346 -0.07623188 -0.1753264
0000f0 dc d1 0f 3e bd 7c b0 bc 03 f2 a2 3d a8 f4 e4 bd
       0.14044899 -0.021543855 0.07956316 -0.11179477
000100 80 bc f4 bd d5 5b 57 bc 80 83 e6 3d b9 8b b1 3a
       -0.11950016 -0.013144453 0.112555504 0.0013545669
000110 0b 32 50 bd 2c 63 a7 bd e2 4d 68 3d f0 99 c5 3d
       -0.050828975 -0.081732124 0.0567149 0.09648502
000120 49 08 e9 bc 7a eb b6 bc e1 f1 19 be 0c 2f ca bd
       -0.028446333 -0.02232908 -0.15033676 -0.09872255
000130 53 61 20 be b5 77 9f bd b1 10 44 ba 05 ee cf bc
       -0.15662126 -0.07786504 -0.0007479294 -0.025382051
000140 20 92 30 bd ba 93 03 be 2e e8 0e be bd b6 06 bc
       -0.043108106 -0.12849322 -0.13955757 -0.008222279
000150 86 99 fd bc 16 05 85 3c 10 3a 1f be 07 73 95 bc
       -0.030956995 0.016237777 -0.15549493 -0.018243326
000160 b9 4f a4 bd 21 96 09 3e e1 1e 80 3d d1 5c 58 3d
       -0.080230184 0.13436176 0.0625589 0.05282289
000170 7c 53 ee 3c 09 1f c7 3d 3c 6e a6 3d be 29 0e 3d
       0.029092543 0.09722716 0.08126494 0.034707777
000180 db ae 41 3d 3e 9b 37 3e da 58 16 3e a8 52 e1 3d
       0.047285896 0.17930314 0.14682332 0.110020936
000190 1a 0c a4 bd c7 a0 8d bd 78 4a c6 3b 5c ee b1 3d
       -0.08010121 -0.069154315 0.006051358 0.086880416
0001a0 e7 40 d1 3a 95 6c c4 3d 52 98 ea 3b d4 0c 87 be
       0.0015964777 0.09591023 0.0071592713 -0.26376975
0001b0 0c 4c 66 bd a8 8b 19 3e 44 f9 6c 3d b5 ce 66 3e
       -0.056224868 0.14994681 0.057854906 0.2253979
0001c0 72 27 5b bd 57 46 31 be 53 04 73 3d ca 09 a4 bd
       -0.053504415 -0.17311989 0.059330296 -0.080096796
0001d0 3f 3c 0e 3e 0e 14 a5 bd aa 40 fc bd 94 3f a7 3d
       0.1389017 -0.08060466 -0.12317021 0.081664234
0001e0 73 20 41 3c dc 90 97 3d dd 19 9f bd 76 2c 75 3d
       0.011787522 0.074006766 -0.07768605 0.059856854
0001f0 6d c3 1d bd 6b 89 50 3e 33 e5 95 bb 73 99 15 3d
       -0.03851645 0.20364921 -0.004574442 0.036523294
000200 96 a3 52 3d 5f 61 3e bd 45 fd b1 3d 88 b5 8a 3d
       0.05142554 -0.04647958 0.086908855 0.067729056
000210 86 51 a3 bd 10 27 fd 3c d0 f1 07 3b f5 db bf 3c
       -0.07974534 0.030902416 0.0020743497 0.023420313
000220 f4 d9 5a bd ad 1c cd bb d5 4b ab 3d 56 73 03 be
       -0.053430513 -0.006259522 0.08364073 -0.12836966
000230 35 3a df bc b2 ff db bc ed fa cf bd cf cb 1c 3c
       -0.027249435 -0.026855323 -0.10155282 0.009570076
000240 a4 bf 5e bd 39 ac dd bc dc b8 7b bd 55 df 74 bd
       -0.05438198 -0.027059661 -0.061455593 -0.0597833
000250 45 b8 43 3c 5b 9c ae bd
       0.011945789 -0.08525916

bias f4 [6]
000000 bb ba 0f b8 33 3c ed b7 21 7f 0d 38 ae 0b 16 37
       -3.4267763e-05 -2.8280634e-05 3.3735418e-05 8.943416e-06
000010 ec 4c 2c 36 53 20 13 37
       2.5674772e-06 8.769409e-06

weight f4 [6]
000000 f5 70 f6 3e ef 86 ec 3e 69 bd 21 3f 27 88 0d 3f
       0.48133054 0.46196696 0.6317964 0.55285877
000010 be fd da 3e 6c 09 e5 3e
       0.42771715 0.4473375

bias f4 [6]
000000 7d 62 2a bd 36 5f a4 bc 7b a9 79 be f2 d4 47 3d
       -0.041597832 -0.020064931 -0.24381058 0.048787065
000010 a0 b2 e8 bd 92 c0 7f bd
       -0.11362195 -0.06243951

running_mean f4 [6]
000000 65 53 22 3d b1 50 97 3d c8 65 d3 bd ca b4 f7 3c
       0.039630312 0.073884375 -0.103221476 0.030237574
000010 f7 ba 85 bd b7 96 76 be
       -0.06529801 -0.2408093

running_var f4 [6]
000000 a8 db fe 3c 0e 9d de 3c 87 d8 1a 3e b0 c0 d1 3d
       0.0311106 0.027174499 0.15121661 0.1024183
000010 9a 26 8f 3c 1b 8a 28 3d
       0.017474461 0.041147333

weight f4 [16, 6, 5, 5]
000000 a0 5d 42 3d e5 56 0b 3d 38 a3 e1 3b e6 ad 0b bd
       0.04745257 0.034018416 0.0068859123 -0.03410139
000010 7f 36 07 bd 55 33 1d 3c 7d 24 25 3b 37 85 c2 bc
       -0.033010956 0.009594758 0.002519875 -0.023745162
000020 19 b7 94 bd 93 76 19 bd 9f ac 44 bc 9f 5a 5e bb
       -0.072614856 -0.037466597 -0.012004047 -0.0033928526
000030 ab 08 0d bd 3a 80 8a bd 23 90 7b bd 08 c9 03 bc
       -0.034432095 -0.067627385 -0.061416756 -0.008043535
000040 41 19 4b bc 88 57 f6 ba df c5 a3 bc f9 de 80 bc
       -0.012396158 -0.0018794397 -0.019991813 -0.015731322
000050 7d 3b 94 3c 7f 75 98 3c 8b db 1d 3d f5 7d cb 3c
       0.018094772 0.018610714 0.03853945 0.024840334
000060 be da 24 3d 81 e5 ca 3d 37 6b 37 3d 67 bb f3 bc
       0.04024767 0.09907056 0.044779982 -0.029752446
000070 3b ca 06 bd c1 d4 e9 bb 59 49 de 3d 64 cc e4 3c
       -0.032907706 -0.007135958 0.10853834 0.027929492
000080 ef a6 62 bd 3a ee 5a bd 04 0e b2 3c f5 cc 52 3d
       -0.05533498 -0.053449847 0.021735199 0.051464994
000090 8c 2f 19 3d dc ae 1d 3c 62 ba 2a bd 70 46 1b 3c
       0.03739886 0.009624209 -0.041681655 0.009477243
0000a0 52 ec 97 3c 95 77 de 3c 0a c0 c1 3a 86 78 8c bb
       0.018545303 0.02715663 0.0014781964 -0.0042868285
0000b0 22 14 b2 3c f7 d1 a3 bc 54 41 34 3d 58 ee 90 bc
       0.021738116 -0.01999758 0.044007614 -0.017691776
0000c0 fa 05 ba bc 8f 72 11 bc b0 c9 2e 3d a7 af b2 3d
       -0.022707928 -0.008877411 0.042672813 0.08724909
0000d0 9b f4 7e 3d b0 27 df 3c eb 19 60 bc 2c aa d8 3c
       0.062244993 0.027240604 -0.013678054 0.026448332
0000e0 91 ff 9f 3d e1 6d 35 3d 94 56 2b bd 1e d5 d4 bb
       0.07812417 0.04429424 -0.041830614 -0.006495132
0000f0 45 fe 83 3c 3f 2d 05 3d fc be a9 3c 16 ff 75 bd
       0.016112456 0.032513853 0.020720951 -0.060057722
000100 82 9a 45 bd 91 9e d3 3b ad 75 36 3d 4d b6 46 3b
       -0.048243053 0.0064581116 0.044545818 0.0030321062
000110 bf 4a d2 bc 46 37 56 bd 47 ea 62 bd 7b 0b bd bb
       -0.025670407 -0.052298807 -0.055399206 -0.005769191
000120 c4 1c 53 bd 92 67 15 bd 78 f1 18 bd 53 a3 21 3d
       -0.051541105 -0.036475725 -0.037339658 0.0394624
000130 e2 1d 88 3d fc 27 b5 bb 29 ec 07 bd 7b c5 1d bd
       0.06646325 -0.005528448 -0.033184204 -0.03851841
000140 fb 82 21 3d 11 33 d7 3c 81 8d de bc 12 db 6c bd
       0.039431553 0.026269468 -0.027167084 -0.05782611
000150 e0 cd e4 3b 2f 7c 90 bc f7 87 a9 b9 b9 f5 39 bd
       0.00698255 -0.01763734 -0.00032335494 -0.045400355
000160 94 ff 3b bd b7 ec 88 bc 4d 7a 0e bc 4e bc f9 3a
       -0.045898035 -0.016714437 -0.008696151 0.0019053312
000170 04 f6 d1 bc ba 9c 4a bb f8 96 49 3c 39 53 0a bc
       -0.025630005 -0.003091617 0.01230406 -0.008442693
000180 05 f6 e8 bc 3a ee 94 bd 8d e4 2b bd 84 c2 a9 bd
       -0.028437624 -0.072720006 -0.04196601 -0.08289054
000190 c1 5a 8f 3d 7e 01 40 3d d5 db 21 bd d8 a7 6c bd
       0.06999732 0.046876423 -0.03951629 -0.057777256
0001a0 fa 75 eb bc e7 87 32 3d 25 38 2f 3d 91 27 29 bd
       -0.028742779 0.043586638 0.042778153 -0.0412975
0001b0 90 f0 8b bd db 97 d5 bc bb 75 47 3c c9 f7 3a 3d
       -0.06832993 -0.026073387 0.012174065 0.045646463
0001c0 f4 1f bb bc ec fc 21 bd 87 00 c4 bc d7 76 79 ba
       -0.022842385 -0.039547846 -0.023926033 -0.00095163047
0001d0 2d 57 82 3b 52 52 eb bb 34 f2 2d bc 93 85 a0 bc
       0.0039776773 -0.007181444 -0.010616828 -0.019594943
0001e0 75 7d 31 3d 56 f4 dc bb 19 23 3b bc 11 f0 26 bc
       0.043332536 -0.0067429943 -0.011421942 -0.010189072
0001f0 12 4d da bc 19 57 35 3c 36 1a dc bb 79 9f fb 3c
       -0.026648078 0.011068129 -0.006716992 0.03071569
000200 95 21 31 3d df 9d 58 3d c7 22 58 bd c0 64 e1 bc
       0.043244917 0.052884933 -0.05276754 -0.027513862
000210 f2 b2 3a bc 78 53 ff 3a 66 45 bc 3c b0 b8 bb bc
       -0.011395203 0.0019479832 0.02298231 -0.022915214
000220 55 c5 e0 bc dc a1 4a bd 25 52 29 bc 60 04 5f 3d
       -0.027437845 -0.049470767 -0.010334526 0.05444753
000230 65 c1 34 3c c6 56 e3 bc b2 c3 68 bc 22 97 c8 3c
       0.011032437 -0.027751338 -0.014206814 0.024486128
000240 71 7a a9 3d 2c 9a a5 3c 35 36 ea bc 18 82 02 bd
       0.08275307 0.020215116 -0.028590301 -0.03186235
000250 ad 63 df bc 82 49 23 3d c9 fb b6 3b 64 98 79 bb
       -0.027269209 0.039865024 0.0055842143 -0.0038085217
000260 cc f7 bc 3b 79 21 40 3d 9c a1 2d 3d e9 8c bc 3d
       0.0057668444 0.046906922 0.04239045 0.09206564
000270 f4 42 46 3b 86 87 82 3b a9 65 a9 3d c9 a2 b2 3c
       0.003025231 0.003983441 0.08271343 0.021806138
000280 fb 3b 08 3d 2e ad 87 bd b8 b9 59 3d 21 f6 96 3d
       0.033260327 -0.06624828 0.05315563 0.07371164
000290 93 ca 8e 3c fe 1a 87 bc 54 c4 1c bd 79 05 ab bc
       0.01743058 -0.016492363 -0.03827317 -0.020876633
0002a0 1c 2a 63 3b ff a4 e0 3c d2 df 45 b9 2d 17 f6 bc
       0.003466255 0.027422426 -0.00018870764 -0.030040348
0002b0 f5 e6 19 bd 35 19 26 bd da 2d ab 39 90 17 af bc
       -0.037573773 -0.040551383 0.00032649824 -0.02137354
0002c0 9d d3 2e 3b 98 0c 9d bc ae 1e 81 bb 49 e8 02 3b
       0.0026676424 -0.019171044 -0.003940425 0.0019974879
0002d0 ed 62 91 bd 12 6f 44 bd fa a4 0b bd 5f 72 90 bd
       -0.07098947 -0.047957487 -0.03409288 -0.070530646
0002e0 cb 7c dc 3c 97 01 55 bd e4 3b 94 bc 83 3b cb bc
       0.026914975 -0.05200347 -0.018094964 -0.02480865
0002f0 ce b5 12 bd 44 95 40 3d c6 4c 73 bc 73 d1 3d bb
       -0.035817914 0.04701735 -0.014849847 -0.0028963953
000300 ab 37 c2 3c 82 cd fd 3c 1d 67 0c 3d b7 9b de bc
       0.023708185 0.030981783 0.034278024 -0.02717386
000310 a3 50 e0 3b cc 7c be 3c 68 6e 00 3d cd a2 d0 bc
       0.00684555 0.023252867 0.03135529 -0.025468254
000320 ab 0e ec 3b d4 0b 71 bc 36 d6 e8 bb 4a 51 de bc
       0.007203897 -0.014712293 -0.007105614 -0.027138371
000330 d6 61 19 bd 72 8a 43 3d 47 07 f1 3d f7 3a de 3d
       -0.03744682 0.047739454 0.11768966 0.108510904
000340 d6 7a 71 bc 00 8f 9b 3d 4d 85 fa 3a f6 e3 ee 3d
       -0.014738759 0.075956345 0.0019113213 0.11664574
000350 57 32 4c 3d 04 9a 0b bc 76 27 55 3d 14 93 58 bd
       0.049852695 -0.008520607 0.052039586 -0.05287464
000360 4d fb 24 bd 87 b3 ab bd ef 7e 5d bd bb 49 06 bc
       -0.04027872 -0.083838515 -0.05407613 -0.00819629
000370 8e 05 8b bd 4c f1 1b bd 8b 4b 4f bd ed 7b 47 bd
       -0.06788169 -0.038071916 -0.050609153 -0.04870217
000380 dd 8a 0b bd 63 01 20 bc 4f cc e6 3c 2a 74 cb 3c
       -0.034067977 -0.009765956 0.028173594 0.024835665
000390 ce 2c 6d bd 7a e1 3b bd 6b 1c e7 bc 6e 14 0e 3d
       -0.057904057 -0.045869328 -0.028211793 0.034687452
0003a0 9c 48 8c bc ac 8e 7d bc ad 9f 53 bd 7a d3 62 bc
       -0.017124467 -0.01547591 -0.05166595 -0.013844365
0003b0 53 31 6e 3d bc d6 46 bd 24 e9 64 3c 9f 6f a6 bc
       0.058152508 -0.04854463 0.013971601 -0.020316897
0003c0 0c 12 93 bc cf e2 81 3d eb 86 10 bd f0 79 32 3d
       -0.017952941 0.063420884 -0.035284918 0.04357332
0003d0 ba 4b a6 bc c1 d0 34 bd 99 ba f4 3c a7 9b fe bc
       -0.020299781 -0.044144396 0.029874133 -0.03108008
0003e0 e3 cf 1f bb 94 cb d6 bc e2 00 9b 3a 82 b1 6d bd
       -0.0024385385 -0.02622012 0.0011825825 -0.058030613
0003f0 9d d5 37 bd 63 1b e7 3c f6 6a 37 bc 1c 71 30 3d
       -0.044881452 0.028211301 -0.011194935 0.04307662

bias f4 [16]
000000 68 1d f1 36 b5 4b 6d b7 23 7d 0a 37 0f f9 1a b7
       7.185783e-06 -1.4143928e-05 8.254577e-06 -9.237104e-06
000010 22 2b 21 b8 52 27 d5 36 14 51 ab 37 e1 34 2e 37
       -3.842556e-05 6.352472e-06 2.0422543e-05 1.038352e-05
000020 14 5e 21 b7 7c 55 71 b6 55 ec b0 37 7d a0 8d b7
       -9.618252e-06 -3.5961557e-06 2.1090886e-05 -1.6883243e-05
000030 a0 fc 63 b6 c8 43 21 36 6c d9 95 36 e6 7a 34 36
       -3.3972683e-06 2.4030323e-06 4.4658573e-06 2.6893626e-06

weight f4 [16]
000000 ee 3f 97 3f 8b f7 8c 3f 65 1a 93 3f ce 3d 9e 3f
       1.1816385 1.1013044 1.149243 1.2362611
000010 12 dc 87 3f e4 4a 9a 3f 75 3d 8e 3f 91 06 85 3f
       1.0614035 1.2054105 1.1112505 1.0392629
000020 02 e7 8d 3f ba 58 9c 3f 26 d4 94 3f 78 56 9b 3f
       1.1086123 1.2214577 1.1627243 1.2135763
000030 d9 ec a4 3f 8c e9 a9 3f 87 4f 9e 3f b8 26 94 3f
       1.288478 1.3274398 1.236802 1.1574316

bias f4 [16]
000000 96 21 33 3d 70 fd ca 3d fb 3c 3a bd e4 15 ac 3d
       0.043733202 0.099116206 -0.04546831 0.08402613
000010 ea 1f 94 bc be 69 dc 3d cc cc a6 3d b6 36 bf 3c
       -0.018081624 0.10762356 0.08144531 0.023341518
000020 83 0d 1d 3d 18 bf be 3d 16 ec aa 3d f6 4b 67 3d
       0.038342964 0.09313792 0.08345811 0.056468926
000030 0b 4a 8e bc fa 76 7b 3d 48 95 9b 3d 21 04 c9 3d
       -0.01736929 0.06139276 0.075968325 0.09815241

running_mean f4 [16]
000000 62 c2 47 be db f1 4e bd 8e 65 4d bd 44 4e 09 3e
       -0.19507745 -0.05052362 -0.05014568 0.13408762
000010 75 97 9d bd d9 93 0c 3d c3 8b 91 bc 1a 23 0a 3e
       -0.07694904 0.034320686 -0.017766839 0.13489953
000020 ce 52 12 3e 42 da 17 be a5 b4 13 3e 6d 3a 08 be
       0.142894 -0.14829352 0.14424379 -0.13303538
000030 af 25 7b 3d a7 8e b9 bb fe f8 07 be 9c a5 89 3c
       0.061315235 -0.0056627574 -0.13278577 0.016802602

running_var f4 [16]
000000 86 79 67 3d 49 ea e8 3c ba ba 59 3d 65 ae 5c 3d
       0.05651238 0.028432028 0.053156592 0.053877253
000010 a4 08 16 3d fb 9f 2e 3d 6d 67 d2 3c 71 a0 db 3c
       0.036629334 0.042633038 0.025684083 0.026809903
000020 05 77 16 3d a9 be 6f 3d 65 42 62 3d 02 12 1c 3d
       0.0367346 0.058531437 0.0552391 0.03810311
000030 6f 9c 53 3d 47 9f 3c 3d 3a 75 76 3d 26 34 0e 3d
       0.05166286 0.046050336 0.06017039 0.0347177

weight f4 [120, 400]
000000 1d 35 5a bc ae bf c5 3d da 59 99 3d e6 fd e8 3b
       -0.013318327 0.096557006 0.07487841 0.007110345
000010 bb 48 2d bc 62 d9 7d 3b 3c ae 16 3d 9d fd de 3c
       -0.010576422 0.0038734307 0.036787257 0.027220542
000020 f7 c7 c8 3c 9c 18 d6 bb a6 18 10 3d 94 cc 35 3c
       0.024509413 -0.0065336954 0.035179757 0.0110961385
000030 ca da 81 bc f3 f7 31 3c 88 0c 3a bb e9 ad 93 3c
       -0.015851397 0.010862338 -0.0028388817 0.018027263
000040 98 24 59 bc 04 45 19 bd eb 12 29 bd fa fc 92 ba
       -0.013253354 -0.037419334 -0.041277807 -0.0011214309
000050 d1 44 85 bc 5e 11 ad bc 5c 15 d8 bc 7c 4d a2 bc
       -0.016268166 -0.021126445 -0.026377372 -0.019812338
000060 2c c8 92 bb 3f 0c ea 3b ce 36 47 3d 0b 30 c8 bc
       -0.0044794288 0.007142573 0.04863625 -0.024436971
000070 06 b1 2e bd 62 77 cf bb 50 42 a5 3d 5c c0 67 3d
       -0.04264929 -0.00633137 0.08069289 0.056579933
000080 7e 82 bc bc 58 6b c1 bc 3d e7 f2 bb 54 62 ea 3c
       -0.023011442 -0.023610756 -0.0074128197 0.02861134
000090 59 a9 d1 bc 74 36 c3 bd b6 04 d0 bc 17 29 ce 3c
       -0.025593447 -0.095318705 -0.025392871 0.025166078
0000a0 3d c1 51 bc 54 de 49 bb d5 5c 01 bd e9 ce 79 bc
       -0.012802419 -0.0030802684 -0.031582672 -0.015247085
0000b0 4a 2a 3e 3d d9 5b 00 bd 2c 94 86 bc 74 4f 65 bd
       0.04642705 -0.031337593 -0.016428076 -0.055983976
0000c0 2b 5c 0e bc 39 68 d8 3a e4 97 e3 3c 59 dd 68 3d
       -0.008688967 0.0016510553 0.027782388 0.05685172
0000d0 3c a1 5d bd fe e0 82 bc 7c 43 b8 3c 54 d3 b3 3c
       -0.054108843 -0.015976425 0.022493117 0.021951355
0000e0 db 96 9d 3b cd 8f f2 bc f0 b1 0a 3d ed 8b 8f 3d
       0.004809243 -0.029609585 0.0338611 0.070091106
0000f0 3a f5 ec 39 d2 b9 47 3c 31 4e 57 3d 60 05 32 3d
       0.00045196136 0.012190299 0.052564804 0.043462157
000100 3e dc 88 3d 47 c2 df bc a0 76 a7 3c 25 ab 3f 3d
       0.06682633 -0.027314318 0.020442307 0.046794076
000110 84 df db 3c 7e 6d ae 3d c0 47 ce bb ec 9a 65 3d
       0.026839979 0.08516978 -0.0062951744 0.05605595
000120 b6 d3 8b 3c 45 e4 1f bc ee 4e 90 3a 00 fa 0e 3c
       0.017068725 -0.009759014 0.0011009851 0.008726597
000130 c2 10 b9 bc 73 96 f3 bc ae cc da ba 2a 62 9a bb
       -0.022590999 -0.029734826 -0.0016693079 -0.004711409
000140 42 a6 06 bc 30 b6 60 bc 7d be 8a ba c8 e0 98 bc
       -0.00821835 -0.013715312 -0.0010585334 -0.018661872
000150 4e 84 eb bc 60 cf c2 3c 08 7d e8 bb c3 24 35 bc
       -0.028749611 0.023780525 -0.007094983 -0.011056128
000160 2a 9b ce 3b 3e 4d 2c 3c 6a 1f 04 3d 1c f5 b4 3c
       0.006305118 0.010516463 0.03225652 0.022089534
000170 3d 88 5b bd 44 85 12 bd aa d8 70 3b 7a f4 0f 3d
       -0.053596724 -0.035771623 0.0036750236 0.03514526
000180 09 36 97 bc 4c 3d 20 bd 01 28 eb ba dc 79 86 3d
       -0.018458383 -0.039120957 -0.0017940999 0.065662116
000190 c9 33 b8 bb 37 2d fe bc b8 5e 3d bd ab 68 bc bc
       -0.0056214076 -0.03102742 -0.04623291 -0.022999128
0001a0 26 b9 40 bc ee a4 ba bb 6a 51 03 3b cc 1d c0 bc
       -0.011762893 -0.0056959307 0.002003754 -0.023451708
0001b0 97 3e 07 bd 6d e1 80 bb 38 3d 00 3c 50 81 1e 3d
       -0.033018675 -0.003933123 0.007827096 0.03869754
0001c0 5a d0 da 3b 29 32 41 bd 0a 87 5f bc 6e 7e e9 3a
       0.0066776695 -0.047166977 -0.013643036 0.0017814168
0001d0 cf 8e e5 bc d6 c2 0e 3c c3 67 e7 3c 3f 7f fd ba
       -0.028022198 0.008713445 0.02824772 -0.001934029
0001e0 eb c1 14 3c 18 3b 3c bd a9 c4 ee bc 0d 51 1f 3d
       0.009079437 -0.045954794 -0.02914651 0.038895655
0001f0 7b 42 5a 3d 2c 48 d1 3a 16 70 14 bd fb f3 87 3c
       0.053286057 0.0015966943 -0.036239706 0.016595831
000200 de 44 5a 3d 76 ce 01 3d 98 98 a6 bc ac b2 f0 bc
       0.053288333 0.031691037 -0.020336434 -0.029382072
000210 2e 6f a7 3c da 54 10 3e 80 01 d5 3d a4 27 06 3c
       0.020438757 0.14094868 0.10400677 0.008188162
000220 8a e0 04 bb 77 3c 03 3d 26 1c bd 3c b6 0b a3 3c
       -0.0020275437 0.032040086 0.023084711 0.019903045
000230 47 33 04 bd 90 44 bf 3c 2c d3 0b 3d 0b a4 11 bc
       -0.032275464 0.023348123 0.034136936 -0.008889209
000240 64 ee 95 bc 8f 0b a9 bc 79 6a 05 3c 86 1e d6 3b
       -0.01830215 -0.020635394 0.008143061 0.0065344004
000250 91 f6 c5 ba 64 96 46 bd 43 d4 14 3d f2 6b 2b bd
       -0.001510339 -0.048483267 0.03633524 -0.04185099
000260 c0 16 6f bd 01 28 26 bd ca a3 bb 3c 74 e8 17 3c
       -0.058371305 -0.040565494 0.02290525 0.00927173
000270 e3 25 dc 3c 51 1c 65 bd 86 00 af bc a4 ab 08 3c
       0.026873535 -0.055935208 -0.021362554 0.008341704
000280 ab 9b c0 bc 2b 17 df 3c 24 52 63 bd 70 1e d9 39
       -0.023511728 0.027232727 -0.055498257 0.00041412143
000290 eb da 87 3c 82 01 04 bd 99 48 bd bb db d5 ba 3b
       0.01658388 -0.032228 -0.0057764766 0.005701763
0002a0 7e 6f bc 3c d9 fd 07 3c 83 2c 76 bc bb ff 4b bd
       0.023002382 0.008300268 -0.015025261 -0.04980443
0002b0 a5 67 c5 ba b0 34 f0 3c 34 3c b4 3b dc d3 1f 3c
       -0.0015060796 0.029321998 0.005500341 0.009755101
0002c0 4c c9 03 bc 99 4b aa bc e0 71 a7 3c d4 14 8d ba
       -0.008043598 -0.020788 0.020440042 -0.0010763654
0002d0 92 5e 49 3d b3 48 55 3d b7 07 14 3c 31 91 89 3c
       0.049162455 0.052071285 0.0090350425 0.016792865
0002e0 de 33 b2 bb 82 0a 0c 3d 53 b0 a5 3d 68 93 2a 3d
       -0.005438312 0.03418971 0.08090272 0.041644484
0002f0 23 f9 ed 3b 44 be 55 3c d1 e3 2d 3b 53 64 38 3b
       0.0072623654 0.013045851 0.0026533494 0.002813597
000300 f6 06 f7 3a a5 97 0d bd 85 53 18 bd a2 47 f1 bb
       0.0018846679 -0.034568448 -0.037189025 -0.0073632756
000310 64 ac 73 3b 3b 14 01 bd c8 18 21 bc fc b8 2f bc
       0.003718161 -0.031513434 -0.0098325685 -0.010725256
000320 0b 66 59 bd 34 85 19 bd 20 c7 5c bc 6f 20 c7 3c
       -0.05307583 -0.037480548 -0.0134752095 0.024307458
000330 0e 59 24 3d 02 8d 5b bd 61 10 f1 bc 80 6c 19 3d
       0.04012399 -0.053601272 -0.029426755 0.03745699
000340 8e 2a fc 3c fa e1 92 bb 2b 67 0d bd 13 6b ab bd
       0.03078201 -0.004482505 -0.034522217 -0.08370032
000350 b1 16 44 3c 1e 4c 42 3d 43 7f 10 bb b6 20 b2 bc
       0.011968301 0.047435872 -0.002204851 -0.021744113
000360 ec cf 82 bc 99 50 fa 3c d5 4f 19 bb e0 a9 a5 bc
       -0.015968286 0.03055601 -0.002339353 -0.020222604
000370 ea 74 19 bd af b6 36 bd f2 e4 59 bd f6 79 86 bd
       -0.037465014 -0.044607814 -0.053196855 -0.06566231
000380 62 11 c3 bc f4 54 44 3b 17 c6 b5 bc e0 97 48 bd
       -0.023812 0.0029957863 -0.022189183 -0.048972964
000390 b5 f3 fa bc 02 6f 48 bc 20 ef 51 3d 9c 6f 9e 3d
       -0.030633787 -0.012233498 0.051253438 0.077361315
0003a0 e7 6d 92 3d 5b fb 2a bc 0a 5a a9 bd cd f0 40 3d
       0.071498685 -0.010435904 -0.08269127 0.047104646
0003b0 cd 62 fc 3c 93 d1 6d 3c e2 04 01 bd 08 fc e7 bd
       0.03080883 0.014515298 -0.031498797 -0.11327368
0003c0 02 6f 55 3d 30 43 e4 bc 5e ee b6 bc d3 17 c8 3b
       0.05210782 -0.027864069 -0.02233046 0.0061063557
0003d0 75 81 b3 bc 08 5f 26 3d f8 43 69 3b 83 cf bd ba
       -0.021912316 0.040617973 0.003559349 -0.0014481399
0003e0 26 95 cd 39 f6 7f 50 bc 9d 3b 07 bc 03 49 62 ba
       0.0003921177 -0.012725821 -0.008253959 -0.00086320954
0003f0 8c 7b ef bb 4e 8c b0 3a 79 f9 9a bc a3 e7 c3 bc
       -0.007308429 0.0013469548 -0.018917786 -0.023914164

bias f4 [120]
000000 88 5a 66 3a 43 79 75 b8 33 56 d1 ba db 7d b2 3b
       0.0008787294 -5.8525486e-05 -0.0015971124 0.005447132
000010 78 aa dd b8 53 6b f4 3b 1f 2a 75 3c 76 3b 9f 3b
       -0.000105698535 0.007459083 0.014963656 0.004859383
000020 ed ca 29 3c 4b 61 0b 3c 04 60 99 b5 13 f1 25 bc
       0.010363323 0.008507083 -1.1427333e-06 -0.010128277
000030 64 dd e9 3b 0b d5 24 3c b2 79 e4 ba 7b da 07 3c
       0.0071369875 0.010060559 -0.0017431288 0.008291836
000040 ff b1 f1 3b f5 31 5f ba f0 09 78 b7 5c cc d5 3b
       0.007375955 -0.0008514219 -1.4784266e-05 0.0065246057
000050 75 13 98 3c dd f5 04 3b ce bf 62 3c f6 16 30 3c
       0.018563965 0.0020288147 0.013839675 0.010747662
000060 72 96 61 3c 2c 96 a4 3c 5b cd 05 3c 9c c1 1f 3c
       0.013768779 0.020091139 0.008166636 0.00975075
000070 32 da 4e 3c 23 1a f0 3a 37 b5 1b 3c c1 35 83 3b
       0.012625264 0.0018318336 0.009503654 0.0040042107
000080 58 ac 0a b2 9f cb 8d 3b 4a 88 7d 3c 44 99 0d bb
       -8.071844e-09 0.004327252 0.015474388 -0.0021606246
000090 9a fa a3 3b cf e2 59 39 fc 4e b1 b3 32 5c 09 3b
       0.0050042393 0.00020779225 -8.256572e-08 0.0020959494
0000a0 12 31 97 b6 71 69 91 3b 21 fa 90 3b 80 22 9a b9
       -4.505863e-06 0.0044376184 0.004424349 -0.00029398873
0000b0 7d 6d 31 b9 1c d6 61 3a 0b b7 1e bb 41 53 d2 3b
       -0.00016920823 0.00086149736 -0.0024217989 0.006418616
0000c0 76 47 f7 3b dd 9f 03 bc 76 90 f6 3a ee 3f 0b 3c
       0.0075463606 -0.00803372 0.0018811363 0.008499129
0000d0 25 2c 91 a9 16 11 92 3b f8 37 8b b5 2e 39 31 ba
       -6.4469514e-14 0.004457603 -1.0372596e-06 -0.00067605346
0000e0 9d 6b d6 3b ab ae 18 b7 0f 66 8d 3a 64 33 fc 3b
       0.00654359 -9.100574e-06 0.0010787862 0.007696556
0000f0 f1 6c 8f 3b 8a 54 b7 ba 68 f3 92 b4 57 68 ad 3b
       0.0043770005 -0.0013986987 -2.737172e-07 0.0052919793
000100 34 d0 63 bb 89 58 f2 ad 43 fc 72 3c 47 d4 fa 3a
       -0.003476155 -2.7551532e-11 0.014830652 0.001913675
000110 d3 e5 fc 3b 70 3b b3 3a 6d a6 18 3c d0 47 05 3c
       0.007717827 0.001367433 0.009317023 0.008134797
000120 09 be b9 3b d4 97 f0 b1 d8 bb a8 3b fb ba 39 3b
       0.005668406 -7.00218e-09 0.005149346 0.0028340209
000130 13 34 50 11 ae 68 37 b7 e3 e9 99 3b 30 8e 66 3b
       1.6424353e-28 -1.0932023e-05 0.004697071 0.0035179965
000140 94 24 1b 3b 5a 59 1a 3c 2f 3a 43 3c cd ad 29 b8
       0.0023672925 0.009420717 0.0119157275 -4.0454604e-05
000150 fc 46 e3 3b c5 75 cc 3b 4c 55 0e bb e2 94 b8 3b
       0.006935952 0.006239625 -0.0021718321 0.0056329826
000160 c2 88 5e 3c f7 60 d0 bb 9d 46 f0 3b b8 a5 22 3c
       0.01358241 -0.0063592154 0.0073326365 0.009927206
000170 d0 3e f1 ba 14 d2 a5 3a e9 9f 2d 3b 59 c5 6d 39
       -0.001840556 0.0012651109 0.002649302 0.00022675599
000180 a8 d3 11 3c ea aa 14 b9 73 01 1e 36 73 3e 8c 3a
       0.00890056 -0.0001417805 2.3544678e-06 0.0010699764
000190 58 c1 a1 32 f6 c2 ac bb 25 fa 26 3a 04 2b 90 bb
       1.883079e-08 -0.0052722646 0.0006369672 -0.004399659
0001a0 d6 68 4a 3c 60 dd 8a 3b 1e 4d a3 3c cd 08 31 3c
       0.012354096 0.0042378157 0.019934233 0.010805321
0001b0 4e 66 cf 37 75 b1 97 3c b7 05 57 3c 41 31 f6 3b
       2.4723962e-05 0.018517235 0.013123921 0.0075131957
0001c0 53 7a 16 3c d0 64 19 3c 37 9d f4 ba 3c 7f 9d b5
       0.009184438 0.0093624145 -0.0018662576 -1.1734442e-06
0001d0 aa 7e cb 3a 54 3c ef 3c f5 d8 a4 b7 d2 e3 72 3c
       0.001552542 0.029203571 -1.9651352e-05 0.014824824

weight f4 [84, 120]
000000 80 c3 88 bd cc 47 10 39 9d 41 c7 3a 36 02 f4 3d
       -0.06677914 0.00013759657 0.0015202049 0.11914484
000010 a2 f2 9b 39 0a 74 ce 3c 50 98 55 bd 9e ff 95 bd
       0.0002974468 0.025201816 -0.05214721 -0.07324146
000020 33 78 80 3d 65 81 e1 3c fc 47 09 b6 fd 04 20 bc
       0.06272926 0.02752752 -2.0456491e-06 -0.009766814
000030 c2 0f fc 3c f5 50 34 3b fa 8d f2 3c 6a a7 50 3d
       0.030769233 0.0027514074 0.029608715 0.05094091
000040 ec 44 13 3d 88 a3 d1 3c fd 80 97 b8 5e 51 44 bd
       0.0359544 0.025590673 -7.224267e-05 -0.04792916
000050 f6 29 0a 3d db 4c 07 3e 4a 5a 64 3c 8f c7 d2 bd
       0.033731423 0.13212912 0.013937542 -0.10291969
000060 68 1f 05 3d 5a 38 5d 3c 0e 99 b7 3d 41 30 c7 3d
       0.032500654 0.013502205 0.0896474 0.097260006
000070 bb 72 14 3d 42 e7 8c bc 74 b7 cc bd c6 5c 83 bd
       0.036242228 -0.017200116 -0.099959284 -0.064141795
000080 c0 e9 d5 b3 f5 7a 9b bc 25 e5 ee bb 97 48 9f 3d
       -9.961104e-08 -0.018979529 -0.0072904998 0.07777517
000090 37 aa 44 3c 73 72 a7 b9 ac 09 bc 36 86 3c 21 3d
       0.012003473 -0.00031937993 5.6039626e-06 0.03936436
0000a0 0a 8e fb 37 b1 e3 c2 bd 90 c8 1b 3d 15 e2 68 bc
       2.9987674e-05 -0.09516085 0.03803307 -0.014214058
0000b0 b0 1e 17 b8 1e 63 1e bc 46 6e c1 3c 38 57 4c 3c
       -3.6029785e-05 -0.009667186 0.023612153 0.012471966
0000c0 a5 fd 9a 3c 9d e0 c1 3a 38 2f 84 3c 7d 6f 81 3b
       0.018919775 0.0014791671 0.016135797 0.003950058
0000d0 12 12 29 bb 4b 53 f9 3c 03 7a 22 b5 f9 e8 e5 bc
       -0.0025798124 0.030435225 -6.0527253e-07 -0.028065192
0000e0 8b 89 66 3d cb e4 02 b7 c1 c5 ec 3d 8c 01 50 3c
       0.056283515 -7.801874e-06 0.11561156 0.012695681
0000f0 25 61 52 3c c9 19 ab 3d cf f0 a3 b7 97 51 83 3d
       0.012840544 0.083545275 -1.954325e-05 0.064120464
000100 2d e1 de 3c 53 a8 f4 ab 77 3e 59 3c be 89 f9 bb
       0.027206982 -1.7383962e-12 0.013259522 -0.007615297
000110 8a 19 a9 bc ed a8 bb ba 44 7d 01 3c a3 81 77 3c
       -0.02064206 -0.0014317312 0.007903401 0.015106591
000120 2d 93 77 3d 56 74 90 32 d6 17 f1 bc 43 b6 ee 3b
       0.060443092 1.681671e-08 -0.029430311 0.007284911
000130 2b c4 55 35 08 7b 04 38 40 6e 77 37 b6 11 aa bd
       7.9634145e-07 3.1585834e-05 1.4748017e-05 -0.08304159
000140 8a 5a da bc 4e 8b 60 3d cc d7 a0 3d 90 87 13 35
       -0.0266545 0.05482035 0.0785366 5.4959037e-07
000150 c7 5d 22 3d 39 9d 14 bd aa 6c 1f 3d d6 e9 16 3d
       0.039640214 -0.03628275 0.03892199 0.036844097
000160 d0 58 09 3e f8 80 f8 3c 79 ae c8 3d 5b aa 95 3d
       0.13412786 0.030334935 0.09798903 0.07307883
000170 0b f3 58 3d 15 e8 df 3d ad 02 9d 3c ab c0 66 3d
       0.05296616 0.10932938 0.019166315 0.056336086
000180 fb 3e d5 3c 29 9b 3f b9 0f 20 84 b2 b6 df 01 bc
       0.026031008 -0.00018272981 -1.5381401e-08 -0.007926872
000190 2f f3 c2 b3 4b 9c 1a 3c 8f 00 05 bd ec 05 71 3c
       -9.078064e-08 0.009436677 -0.032471236 0.014710885
0001a0 83 90 08 3e a1 bc 3d bc 2d 78 8b 3d 24 bd 6a bd
       0.13336377 -0.011580617 0.06810031 -0.057309285
0001b0 75 ee e7 3b 7d da 5e bd 83 56 0c 3e 07 80 29 3d
       0.007077987 -0.054407585 0.13704877 0.041381862
0001c0 3b 52 04 3e 6c 08 90 bd 11 eb b3 3b 3d d6 29 b7
       0.12921993 -0.07032856 0.0054906686 -1.0123066e-05
0001d0 b3 90 b3 3c c6 04 4b 3d 0f 78 3d b8 58 f2 6c bd
       0.021919584 0.0495651 -4.5172925e-05 -0.057848305
0001e0 ca 99 ac 3d c6 5c d7 b8 8d 43 9e 3a 09 f5 08 bd
       0.084277704 -0.00010269279 0.0012074575 -0.03343681
0001f0 b0 38 59 3a 91 42 77 bc 59 9d ce 3b 4c d4 b1 39
       0.000828634 -0.015091554 0.0063053784 0.00033918244
000200 4b d5 67 3e 8a e5 39 3c 1e 88 6e 35 57 f5 a4 3a
       0.22639959 0.01134623 8.8859986e-07 0.0012585324
000210 4c eb e6 bc 31 8b 65 3c 6d ac 35 3b ed d4 74 bd
       -0.02818837 0.014010237 0.0027721182 -0.059773374
000220 e9 5c 08 3d 48 f8 66 3d f8 01 93 38 cb 2b 86 3a
       0.03329173 0.056389123 7.009873e-05 0.001023644
000230 41 2c 4f 3d 7b 93 29 3d d6 72 25 bd 2c 65 4b bc
       0.050579313 0.041400414 -0.04039272 -0.012414258
000240 61 be 5b 3c d9 46 bd bc d7 e0 42 bd ad 6c be 3d
       0.013412089 -0.023105072 -0.047577705 0.09298072
000250 2f bd 85 3c 34 c2 f1 3d 4c 89 e2 3b ea 7f fe 3c
       0.016325561 0.118046194 0.0069133397 0.031066854
000260 75 4e 46 33 a4 67 7f bc b6 8a b0 3c db 05 84 3d
       4.6171824e-08 -0.015588675 0.021550518 0.06446429
000270 77 b7 25 3d 2d 23 7d ba 14 f1 5c b7 27 58 26 3d
       0.04045817 -0.00096564257 -1.3169152e-05 0.040611412
000280 84 fd 21 38 77 cc 7e bd 81 23 04 3b 30 57 f5 3a
       3.8621496e-05 -0.06220671 0.0020162764 0.0018718
000290 65 0d fd b8 76 0c 80 3d d0 a7 d2 bc e0 19 39 bc
       -0.00012066475 0.06252377 -0.025714785 -0.011297673
0002a0 70 35 0a bd c7 7a fa 3d 93 8f 08 3e 43 64 2c bd
       -0.03374237 0.12230449 0.13336019 -0.042087805
0002b0 2e 18 eb 39 c3 e7 1e 3d f7 97 0d b8 b0 2b 3b 3c
       0.00044840708 0.038795244 -3.3758548e-05 0.01142399
0002c0 78 7b 11 3e 8a b6 1d b8 eb 67 a7 3c c6 14 3c bc
       0.14207256 -3.760172e-05 0.020435294 -0.011479562
0002d0 d8 27 92 3a 96 cf 76 bc 94 9d ba 38 26 90 cd 3c
       0.001115079 -0.015064141 8.898522e-05 0.02509315
0002e0 a4 0f dd 3c 43 22 2f 2d 26 3f 3b 3d 81 f7 28 3a
       0.026984997 9.955206e-12 0.04571452 0.00064455724
0002f0 99 39 0c bc ed 56 13 3d cf fa 88 3d 0a 76 22 bd
       -0.008558654 0.03597157 0.06688463 -0.039663352
000300 fa d2 05 bd d3 8c 4a b3 fb 78 1b bd 98 4b 80 3d
       -0.032671906 -4.715987e-08 -0.037957173 0.06264418
000310 e7 a5 71 37 11 3d 72 39 c2 a6 40 3d 38 05 ff 3a
       1.44033465e-05 0.00023101667 0.047034033 0.0019456511
000320 74 f2 64 3d 26 bb 96 bc 14 83 d1 3b 70 b2 30 3b
       0.055895284 -0.018399786 0.0063937996 0.0026961826
000330 b6 7d c1 bb 34 63 c1 3a a1 d2 23 3d 27 a2 97 bb
       -0.0059048785 0.0014754296 0.039995793 -0.0046274844
000340 69 0b 69 bd b9 af 24 3d e3 38 19 3d 6b 2d 5e bd
       -0.056895647 0.040206645 0.037407767 -0.054242533
000350 e3 1b 29 bd 32 9b 36 3c ed 5c a7 3c 8c 7a cc bc
       -0.04128636 0.0111454 0.020430053 -0.024960779
000360 05 5c 6a bb ce 45 a0 b9 11 a0 8c 35 bc 67 30 bc
       -0.0035760414 -0.00030569587 1.0477398e-06 -0.01076692
000370 18 f6 c1 34 54 4a 9c 3b ca e8 83 3d 69 12 ba 3c
       3.6128108e-07 0.004769603 0.06440885 0.022713857
000380 38 8b 0b bd 50 32 de bc be 32 80 bd df 36 d4 3b
       -0.034068316 -0.0271236 -0.06259678 0.0064762677
000390 13 41 70 bd c0 f2 aa 3c 96 ae 12 bd c5 87 31 bd
       -0.05865581 0.020867705 -0.03581103 -0.04334237
0003a0 36 be bf bd 86 90 1a 3c c5 2e 7f 3d 64 c7 da 36
       -0.09362452 0.009433871 0.062300462 6.5201184e-06
0003b0 e9 2c a7 3d 8c 08 24 bd f6 89 6e b8 1e 73 7b bd
       0.08162863 -0.040047213 -5.6872108e-05 -0.06138908
0003c0 dd 0c 15 3d 1b 4d f2 b9 a8 3f 82 3a c4 83 f7 3d
       0.03638922 -0.00046215285 0.0009937184 0.12085679
0003d0 44 f9 c0 b9 49 0a d9 3c 76 82 6f bc a5 cf 52 3d
       -0.0003680681 0.026494162 -0.014618507 0.051467557
0003e0 80 15 c1 3d 77 f8 a7 3d 72 35 34 b6 29 55 2b 3d
       0.09427929 0.08201688 -2.68532e-06 0.041829262
0003f0 b7 8e 78 3d 8e 51 1a 3e d4 40 2f 3c 77 fe cf bc
       0.06068298 0.15070173 0.010696609 -0.025389893

bias f4 [84]
000000 09 3e 65 3c 63 63 82 3b b4 b4 e7 3b be 1b 7c 3c
       0.013991841 0.003979133 0.007071102 0.015387474
000010 b9 98 96 3c 30 1a ac 3b 80 0a 3f 3c e3 74 0e 3c
       0.01838337 0.005252145 0.011660218 0.00869486
000020 31 24 0d 3c f4 e2 c5 3c 04 35 a2 b8 02 fe 00 3c
       0.008614586 0.024156071 -7.734637e-05 0.00787306
000030 2e 82 37 3b aa 01 1e 3c a7 97 15 3c 4c 0e 1e 3b
       0.0028001177 0.009643951 0.009130395 0.0024117408
000040 d0 91 96 3b ea c8 98 3c 32 11 17 34 0d 71 d3 3b
       0.004595019 0.01865049 1.4069226e-07 0.0064526857
000050 33 df 7e 3b c5 72 03 3c de 0f d9 3a 83 30 10 3c
       0.0038890361 0.008022969 0.0016560515 0.008800629
000060 4b 2d 51 3c 9a 1b 41 38 22 ce 80 38 de 2b ae 3b
       0.012767146 4.604049e-05 6.141911e-05 0.005315288
000070 8d c3 95 36 94 3f 3f 34 df 96 b1 b3 51 2c f7 3b
       4.463311e-06 1.7811391e-07 -8.269648e-08 0.0075431247
000080 50 b7 04 3c 6b 9d 5d 3c 8c 98 48 3b c5 de 3c 3c
       0.008100346 0.013526301 0.0030608503 0.011527722
000090 af 50 1b 3c cd 7c 13 3c 7b f0 12 3c a9 e6 aa 3b
       0.009479686 0.009001923 0.008968468 0.005215485
0000a0 5a ab 32 3c 54 76 35 3c f0 2b d8 3b 8e b9 20 3b
       0.010905111 0.011075575 0.0065970346 0.0024524662
0000b0 fc 71 db 3b 55 5c 8a 3c fb b3 14 3b e0 17 43 3c
       0.0066969376 0.01688973 0.0022690285 0.011907548
0000c0 01 97 65 3c ac 62 82 3c 73 ff 8a 3c fc 66 96 3c
       0.014013053 0.015916191 0.01696751 0.018359654
0000d0 7c a6 3d 3c 70 d9 93 39 4c cd 25 b7 f8 86 e2 ba
       0.0115753375 0.00028200028 -9.882566e-06 -0.0017282655
0000e0 e5 79 4d 3c 28 93 f2 b9 2e f5 28 24 6e 50 d2 3b
       0.012541269 -0.00046267477 3.6636868e-17 0.0064182794
0000f0 d6 6c 1c 2f 29 c8 23 b8 14 8a bb b9 4a fb 75 3a
       1.4226784e-10 -3.9048642e-05 -0.00035770296 0.0009383453
000100 e5 64 74 3c f4 cd 98 3c 5a 28 5e 3c 59 c4 8a 3c
       0.014916633 0.018652894 0.013559425 0.016939329
000110 29 b9 68 3c 48 6d 77 3b 66 9c 0c 3c 4a ab 8c 3c
       0.014204302 0.0037754346 0.00858221 0.01717152
000120 70 0f 6b b9 7e 20 57 b9 0b cb 79 3c 01 76 91 3c
       -0.00022417097 -0.00020516102 0.015246163 0.017756464
000130 6b 0e fa b7 0d 81 f0 3b a5 4e 93 3c 1b e1 d1 3b
       -2.9809036e-05 0.007339603 0.017981837 0.0064050085
000140 d6 6c 05 b8 7d e1 f3 3b 61 c9 8e 3b a2 20 02 3c
       -3.1811032e-05 0.007442652 0.0043575023 0.007942351

weight f4 [26, 84]
000000 19 da 2f 3d c1 f7 82 bd 35 09 4f bd 8e e0 c3 3d
       0.042932604 -0.063949116 -0.05054589 0.09564315
000010 51 5f 10 3e bf a0 33 be 5d e1 48 3e 6f e8 2c 3d
       0.1409886 -0.17541789 0.1961722 0.042213853
000020 55 bb 0b be 08 b8 84 3d eb cd a4 ba 6a c0 dd 3d
       -0.1364568 0.06480414 -0.0012573575 0.10827716
000030 c2 ff 16 be 07 d9 20 be 9c 18 91 3d b8 da 34 be
       -0.14746001 -0.1570779 0.07084772 -0.1766156
000040 a4 34 9b bd 10 69 7e 3d 1d f9 ce 35 1c be 72 3d
       -0.075784 0.062111914 1.5420698e-06 0.059263334
000050 19 3c ea bd d8 15 75 be 1b e9 d9 ba 27 5a 64 bd
       -0.11437244 -0.23934114 -0.0016625257 -0.05575004
000060 f1 cd 98 bb 68 41 74 b7 7a 77 0b 39 38 e1 ee 3d
       -0.004663222 -1.4558762e-05 0.00013300581 0.11664051
000070 bc 8d d3 b5 2c 36 76 b2 dc b5 7c b3 48 03 c8 bc
       -1.5761975e-06 -1.4331402e-08 -5.8838722e-08 -0.024415627
000080 dc 87 7e bd 5a 68 0a 3e 4d 78 0d 3d 51 6d f8 3d
       -0.062141284 0.1351637 0.034538556 0.121302254
000090 1b 0a 0a 3d fb 60 96 bd bb b1 c4 bd 83 91 3c 3e
       0.033701044 -0.07342716 -0.09604212 0.18414883
0000a0 8c c8 06 bb d5 20 e4 3c 02 1b 48 bd 75 89 a3 bb
       -0.0020566313 0.027847687 -0.04885388 -0.0049907514
0000b0 2d 2c 8b bd bc ca d7 3d 1d 67 89 bd 73 2a 22 3e
       -0.06795535 0.105367154 -0.067091204 0.15836506
0000c0 be ff 40 be c2 3b 98 3d ff 60 44 be ab 04 de bd
       -0.18847558 0.07433273 -0.19177626 -0.10840734
0000d0 a5 26 ca 3d a6 46 8b 39 22 92 08 39 c4 53 14 be
       0.09870652 0.00026564783 0.0001302441 -0.14485079
0000e0 cd 1b 27 3d 65 87 6a 3e 40 6e b8 a4 27 75 b6 3d
       0.040797997 0.22903211 -7.998405e-17 0.08909064
0000f0 b3 ab ca 30 88 fc 1a 39 7a 08 34 bd 08 81 1d b9
       1.4746234e-09 0.0001478066 -0.043953396 -0.00015020755
000100 97 c4 86 bd 39 3a 4f 3d 45 37 01 3e 8e d9 ed 3c
       -0.06580465 0.050592635 0.1261874 0.029034402
000110 e7 7d 3e be 5e 39 7b 3c 82 10 0d 3a 0c 18 f2 bd
       -0.18602715 0.015333502 0.0005381183 -0.11820993
000120 09 3b 91 ba f0 4d 07 3a 33 a9 6e 3d e7 c1 1b be
       -0.0011080216 0.0005161455 0.05826683 -0.15210687
000130 4a 72 c8 38 1d a3 f5 bd fa 47 90 3d 1d 38 90 3d
       9.558031e-05 -0.11994002 0.070449784 0.07041953
000140 73 b1 cc b9 ab e1 dd 3c 9b b6 10 be 0b 7c 72 be
       -0.00039042122 0.027085146 -0.14132158 -0.23680131
000150 d1 5d bd bd 2e c4 09 3d 56 63 34 3d a3 bc 96 3d
       -0.0924641 0.033634357 0.044040047 0.07360198
000160 cb 69 cc 3d 22 72 89 bd 01 f6 5b be af 3f 48 3e
       0.09981116 -0.06711222 -0.21480562 0.19555543
000170 78 5c a2 3c 98 da e2 3c 8b 1c 07 ba a4 2d 25 3d
       0.019819483 0.027692124 -0.00051540945 0.04032673
000180 a4 29 91 3d 5a 75 21 be 52 74 12 bd c3 eb 7e be
       0.070880204 -0.15767422 -0.035755463 -0.24894623
000190 ea 8e e9 bd da 47 e9 3d 91 ed 8b b3 fd 57 ee bd
       -0.11404212 0.11390658 -6.515905e-08 -0.11637876
0001a0 62 10 2d be 56 d4 f3 3d 76 ad 51 ba 42 99 5f 3d
       -0.16900781 0.11905734 -0.0007998565 0.054589517
0001b0 b7 d6 3f 3d 27 c1 a9 38 76 36 89 38 f3 ce b1 bc
       0.046835627 8.0945254e-05 6.542813e-05 -0.021705126
0001c0 a4 d4 06 b6 b8 34 4d ad 56 2d c1 32 83 4a ba bd
       -2.009133e-06 -1.1664607e-11 2.2488774e-08 -0.09096243
0001d0 3a fe 33 be e3 df ce bd 09 40 6b bd de f9 31 bd
       -0.17577448 -0.10101297 -0.057434116 -0.043451183
0001e0 89 17 1b 3c dc 4c e1 3b 4b 32 1f 3e f5 31 ee bd
       0.00946606 0.0068756174 0.15546529 -0.11630622
0001f0 02 8e 4f 3d 86 31 25 3e 01 42 63 3d 5c a0 2c b9
       0.05067254 0.16132173 0.055482868 -0.00016462937
000200 55 ec e9 3d 5e b6 80 bd 12 b2 ed 3d 54 b8 1c be
       0.1142203 -0.06284784 0.1160623 -0.1530469
000210 e9 96 b7 3d 6c 1a a1 3d 4e 2c 36 3d ea 22 a3 bc
       0.08964331 0.07866368 0.044475846 -0.01991411
000220 9e a8 1c bd 9a 63 1f 39 ba 84 64 b7 53 2f b8 bd
       -0.038246743 0.00015200526 -1.3620762e-05 -0.089934014
000230 17 47 29 bd b9 e6 4c 3d 9b d4 9b a4 96 0c 3e be
       -0.041327562 0.05002472 -6.75807e-17 -0.18559489
000240 e1 9a 49 ae 08 c6 db 38 64 4a c2 bc d0 66 69 b9
       -4.583967e-11 0.0001047962 -0.023717113 -0.00022258912
000250 1e de e9 3d 02 e3 52 3e 64 68 80 3e 46 18 3c be
       0.114193186 0.20594409 0.25079644 -0.18368635
000260 d6 56 8a 3d 36 7e 11 bc 56 28 1a be 3f ae 34 3e
       0.06754844 -0.008880189 -0.1505445 0.17644595
000270 49 a7 83 3a 12 fd 42 38 60 7e 04 bc 48 fa 23 3e
       0.0010044362 4.6488894e-05 -0.008086771 0.16013443
000280 56 ed 82 b6 96 86 94 39 0c 98 34 be 52 49 71 bd
       -3.9019314e-06 0.00028329034 -0.17636126 -0.058907814
000290 df 33 84 39 63 24 29 3e 9a 5e a4 bd fc df 40 be
       0.0002521565 0.16517787 -0.08025856 -0.18835443
0002a0 d5 49 d2 3d 35 88 e4 bd 7f 2e 42 3e 4c 67 e1 3b
       0.102679886 -0.11158792 0.1896305 0.006878769
0002b0 f3 e9 a7 bd 6c f4 ab bd 25 d0 a2 3d 71 ab a0 3d
       -0.08198919 -0.08396229 0.07949857 0.078452
0002c0 3e 6d be bd 1a 35 0b 3c b2 14 04 b9 b6 e4 3f bd
       -0.0929818 0.008496547 -0.0001259621 -0.046848975
0002d0 63 e7 3d be c6 43 eb 3d 94 6c 7d be 39 4b 74 bd
       -0.18545298 0.11487536 -0.2474845 -0.05964205
0002e0 84 c7 be 3d c7 d5 57 bd 62 8c bc 36 c4 b4 f2 3d
       0.09315398 -0.05269411 5.6191793e-06 0.118508846
0002f0 0c b5 64 bd b5 1f bb 3d 1e 01 14 ba cd 89 28 be
       -0.055836722 0.09136907 -0.00056459184 -0.16458817
000300 14 62 ed bd a8 64 fb b7 50 11 7c 38 97 ba 87 3d
       -0.115909725 -2.9968403e-05 6.0097605e-05 0.06627386
000310 d3 6b 89 b6 00 2c 08 31 a4 3a 6a 33 ee a1 9b 3d
       -4.0954706e-06 1.9815616e-09 5.4535704e-08 0.07599245
000320 47 31 19 3e 0e 98 49 bd a7 1d 66 bd 16 d3 87 bd
       0.14960204 -0.049217276 -0.056180622 -0.06632058
000330 82 e4 a9 bd f8 d5 7e bd 5f 8c 39 be e0 cf 29 3e
       -0.082955375 -0.062215775 -0.18119954 0.16583204
000340 f5 bf b4 3d 98 a6 62 be d1 d4 6c bd 56 fe 01 b9
       0.088256754 -0.22133863 -0.057820145 -0.00012397146
000350 3a 4a 9c bc f5 da c6 3c f1 b0 d5 bc 52 1e 5f 3c
       -0.019078363 0.024274329 -0.026085349 0.013618069
000360 4a e1 ec bd b0 d6 bd 3d fe 21 9b bd 40 4c cd bd
       -0.11566408 0.09269464 -0.07574843 -0.10024309
000370 0e d3 30 3e b4 ea 84 b9 9e 42 7e b8 1b ad e1 3d
       0.17268011 -0.0002535187 -6.062036e-05 0.110193454
000380 d1 09 02 3e eb 84 56 bd 67 1a 8a a4 7a 08 f5 bd
       0.12699057 -0.052372854 -5.989269e-17 -0.119645074
000390 e9 55 cb 30 d0 08 f6 38 4d 0c 39 3c 77 6d cc 3a
       1.4794611e-09 0.000117318355 0.011294437 0.0015596588
0003a0 b5 01 93 bc e2 1b be bd d8 34 d5 bc eb 3d e5 3d
       -0.01794515 -0.09282662 -0.026026174 0.111934505
0003b0 ae fb bd 3c 02 7a a0 3c 86 93 c6 3d 81 9a 5c bd
       0.0231913 0.019589428 0.096961066 -0.053858284
0003c0 31 70 30 b9 ce d7 54 39 eb 93 3b bd b1 47 e0 bd
       -0.00016826463 0.00020298289 -0.045795362 -0.10951174
0003d0 a8 78 c5 35 f7 75 e0 bd 04 79 da 3d 8a 96 ca 3c
       1.4712759e-06 -0.1096 0.10667613 0.024729986
0003e0 36 d3 06 b9 56 33 85 bd 05 0f b2 bd ac f7 24 3e
       -0.00012857918 -0.06503932 -0.08694271 0.16110104
0003f0 4d aa 21 be c9 88 9a 3c 8f 59 15 3e 47 53 1d bd
       -0.15787621 0.018864052 0.14584945 -0.038409498

bias f4 [26]
000000 44 d9 d7 3c db 21 dd 3c cc 25 24 bb 79 a7 9f bb
       0.026348718 0.026993683 -0.0025046943 -0.004872259
000010 5d 9f 2b ba d4 ae 81 bc ac 0b 67 3b d6 70 a7 3c
       -0.00065468793 -0.015830435 0.003525476 0.020439547
000020 6d e3 33 bc 51 c0 dc bb 80 b4 f4 3b db 2a 44 3c
       -0.0109795155 -0.006736793 0.0074678063 0.011973108
000030 4e 83 07 bc 3c b4 24 bd 34 60 3e b8 77 5a 45 bc
       -0.008271052 -0.040210947 -4.5389126e-05 -0.012045494
000040 ad e8 88 bc 8c 03 1a bc e4 c9 e2 3b ad 45 41 bb
       -0.016712511 -0.00940026 0.00692104 -0.0029490993
000050 2f 87 14 3b f9 18 8b 3c 17 bb 25 3c ae 98 bb 3c
       0.0022663584 0.016979681 0.0101154065 0.022899952
000060 2a 1d e6 bc 1c 69 dc bb
       -0.028090078 -0.006726397
