newModel.pth (torch, 261695 bytes, 18 tensors)

weight f4 [6, 1, 5, 5]
0	0x3e056e79	0.13030423
1	0x3d9ca464	0.076485425
2	0x3e387934	0.18014985
3	0x3e4158d8	0.18881547
4	0xbd423155	-0.047410328
5	0x3d97393e	0.07383965
6	0x3ccad3e1	0.024759235
7	0xbd5b9fd1	-0.05361921
8	0xbddab57e	-0.10679148
9	0xbd291364	-0.041278258
10	0xbdbd6472	-0.09247674
11	0xbe1d5d69	-0.15367664
12	0xbdc1e261	-0.094670065
13	0xbdcc8132	-0.099855796
14	0xbe26dfae	-0.16296265
15	0xbd31689a	-0.043312646
16	0xbb52656b	-0.0032103907
17	0xbe438b27	-0.19096051
18	0xbdeca325	-0.11554555
19	0x3daba9a6	0.08381967
20	0xbd45cfcf	-0.048293885
21	0x3ce12b8e	0.027486589
22	0x3dfde23f	0.12396669
23	0x3e5138f6	0.20431885
24	0x3dfff510	0.12497914
25	0xbd178ea6	-0.037001275
26	0xbd0b81a5	-0.034059186
27	0x388d4a54	6.7372486e-05
28	0xbd7c102a	-0.061538853
29	0xbd8fd2ed	-0.07022653
30	0xbd677a63	-0.0565132
31	0x3e2363ad	0.15955992
32	0x3df07353	0.11740746
33	0x3e2184d2	0.15773323
34	0xbd63a98e	-0.05558162
35	0x3d1257aa	0.035728134
36	0xbd069ebe	-0.032866232
37	0x3dea2047	0.11431938
38	0x3e079651	0.13240935
39	0x3e436105	0.19079979
40	0xbd5f45fe	-0.05451011
41	0x3c7ca958	0.015421234
42	0x3d9da6c3	0.07697823
43	0x3db85ba3	0.09001853
44	0x3d6a7d31	0.057248298
45	0xbdd0aa02	-0.101886764
46	0xbe1a3ecd	-0.15063019
47	0xbe3f1cdb	-0.18663351
48	0xbde21106	-0.11038403
49	0x3d18a116	0.037263
50	0x3c36c9b2	0.011156486
51	0xba3e216a	-0.0007252904
52	0x3dd289ca	0.102801874
53	0x3d6431f2	0.055711694
54	0xbd3a6e2d	-0.045515228
55	0xbd9b9495	-0.07596699
56	0xbe36ed5f	-0.17863987
57	0xbcead7b5	-0.02866731
58	0x3db71d9b	0.08941194
59	0x3e09eb0f	0.13468574
60	0x3e5f1041	0.21783544
61	0xbe54525b	-0.20734541
62	0xbe4a69ac	-0.19766873
63	0x3d71d8f5	0.059044797
64	0xbd900ab3	-0.07033291
65	0x3e0fc371	0.14039399
66	0xbe378145	-0.17920406
67	0xbd3e9be4	-0.046535388
68	0x3cad766d	0.021174634
69	0x3d95f72a	0.073225334
70	0x3e2026d4	0.15639812
71	0x39ef1252	0.00045599282
72	0xbdbdb2ff	-0.092626564
73	0xbc6af4f8	-0.014340632
74	0x3d7bd209	0.061479602
75	0xbd7438e8	-0.059624583
76	0xbd07b610	-0.033132613
77	0xbdc5f20c	-0.096653074
78	0xbccfd579	-0.025370346
79	0x3c9e0a6a	0.019292075
80	0xbdc24fed	-0.09487901
81	0xbd29159e	-0.04128038
82	0xbd85888c	-0.06520185
83	0xbe114673	-0.1418703
84	0x3dc8e95f	0.09810137
85	0xbde59414	-0.11209884
86	0xbd35dd6b	-0.044400614
87	0x3d51fd27	0.051266816
88	0xbdf5f804	-0.12010196
89	0x3cc846b8	0.024447784
90	0xbdade43e	-0.08490799
91	0x39aadec0	0.00032590888
92	0x3d069e65	0.0328659
93	0xbdc2b916	-0.095079586
94	0xbd47b1a0	-0.04875338
95	0x3d143e35	0.036192138
96	0xbdde276d	-0.108473636
97	0x3d0f7b67	0.035029795
98	0xbd5a6ccd	-0.053326417
99	0xbc6f77c2	-0.014615955
100	0x3d1efd34	0.038815692
101	0x3d562cd5	0.05228885
102	0x3ca7027e	0.02038693
103	0x3cdbb9d9	0.026822018
104	0xbc33d2f1	-0.010975585
105	0x3d8ccc2f	0.068748824
106	0x3de22ce2	0.11043717
107	0xbd9bc719	-0.07606334
108	0xbe47b576	-0.19502816
109	0x3e172bc2	0.14762786
110	0x3ce72930	0.028217882
111	0xbc8cc88b	-0.01718547
112	0xbe059d14	-0.13048202
113	0xbce7cb09	-0.028295057
114	0x3e6f0e6e	0.23345348
115	0xbc38ce90	-0.011279717
116	0x3c084826	0.008317983
117	0xbd170882	-0.036873348
118	0x3c097c92	0.008391516
119	0xbd96ad54	-0.073572785
120	0x3c38a507	0.011269814
121	0xbdf5d42c	-0.12003359
122	0x3daa6307	0.08319669
123	0x3d897227	0.06711226
124	0x3cd6bb2c	0.026212297
125	0x3d955895	0.07292286
126	0x3e2cca9e	0.16874167
127	0x3e27f97f	0.16403769
128	0xbe40d6a5	-0.1883188
129	0x3dbb861a	0.09156437
130	0x3db17b9f	0.08666157
131	0xbd598604	-0.053106323
132	0xbde4b259	-0.111668296
133	0xbe2c7ee4	-0.1684528
134	0xbd04d06d	-0.032425333
135	0x3df592ac	0.11990866
136	0x3df8fc59	0.121575065
137	0xbc963660	-0.018336475
138	0x3bf0088a	0.0073252367
139	0xbd5557eb	-0.0520858
140	0x3d8368e9	0.064164944
141	0x3d219475	0.03944822
142	0xbe675042	-0.2258921
143	0xbd17e1c6	-0.03708055
144	0x3d5c9f79	0.053863022
145	0xbd162f98	-0.036666483
146	0x3d44555b	0.047932964
147	0xbe0f681b	-0.14004557
148	0xbd26633e	-0.04062199
149	0x3dc6c772	0.0970601

bias f4 [6]
0	0x35bf94c9	1.4273911e-06
1	0xb489482b	-2.5570748e-07
2	0xb5fad12d	-1.868733e-06
3	0xb4d09d28	-3.8857365e-07
4	0x359f964a	1.1890163e-06
5	0x3528fb79	6.295082e-07

weight f4 [6]
0	0x3f3c7272	0.7361213
1	0x3f492d18	0.7858443
2	0x3f448ae2	0.7677442
3	0x3f1abebe	0.604473
4	0x3f2291ab	0.6350352
5	0x3f3f281a	0.74670565

bias f4 [6]
0	0xbd74a9b4	-0.059732154
1	0x3dce1bda	0.10063906
2	0xbe0732e8	-0.13203013
3	0xbd07f30a	-0.033190764
4	0x3c3be677	0.011468521
5	0xbdab446f	-0.08362662

running_mean f4 [6]
0	0xbcc3fbda	-0.023923803
1	0x3ec404ee	0.3828501
2	0xbcb3c11c	-0.021942668
3	0xbfbf33cd	-1.4937683
4	0x3ebd7f6e	0.37011284
5	0x3d3f8b78	0.046763867

running_var f4 [6]
0	0x3ced3ed2	0.02896062
1	0x3d5ec6f2	0.054388948
2	0x3cfa2995	0.030537406
3	0x3e72eb34	0.23722535
4	0x3caa9701	0.020823957
5	0x3d5c1e44	0.0537398

weight f4 [16, 6, 5, 5]
0	0xbd34b2e5	-0.04411592
1	0xbc44ef4f	-0.012019946
2	0x3bbabe5e	0.005698963
3	0xb9c2eef0	-0.00037180586
4	0xbc307797	-0.0107707
5	0xbd1b1151	-0.03785831
6	0xbc7974d4	-0.015225608
7	0x3d0bea05	0.034158725
8	0xbcaa7037	-0.020805461
9	0xbd5ec789	-0.05438951
10	0xbd59a3c2	-0.053134687
11	0xbd28029b	-0.04101811
12	0xbca9231c	-0.020646624
13	0xba794efd	-0.00095103664
14	0x3b29681a	0.0025849403
15	0xbca59197	-0.020211024
16	0xbcd532c7	-0.02602519
17	0xbd434d07	-0.04768088
18	0x3d0fc678	0.035101384
19	0xbd108db2	-0.03529138
20	0xbc44b409	-0.012005814
21	0x3cb77244	0.022393353
22	0x3cc7acf2	0.024374459
23	0x3d12cf66	0.03584232
24	0xbdbe7a82	-0.0930071
25	0x3b7c0610	0.0038455762
26	0xbd4aa3a5	-0.04947247
27	0xbdb222de	-0.08698057
28	0xbd096151	-0.033540074
29	0xbcd25e43	-0.025679713
30	0xbcfa31da	-0.03054135
31	0xbd6d42ab	-0.057924908
32	0xbddd54c5	-0.10807184
33	0xbca535d5	-0.02016727
34	0x3b8519c9	0.0040619117
35	0xbc58ee20	-0.013240367
36	0xbcaef78f	-0.02135828
37	0x3cb28239	0.02179061
38	0xbca98f55	-0.020698229
39	0xbd46e41f	-0.048557397
40	0x3c6acbc5	0.014330809
41	0x3d07e7e4	0.033180133
42	0x3c7a3023	0.015270266
43	0x3a31f874	0.00067890366
44	0xbd063138	-0.032761782
45	0xbbc9c151	-0.0061570783
46	0xba44bec8	-0.0007505235
47	0x3cd15d1a	0.02555709
48	0x3c50222b	0.012703459
49	0xbd040b23	-0.032237183
50	0x3b9f5ecc	0.0048635956
51	0x3d22b82a	0.039726414
52	0xb8b9229c	-8.827934e-05
53	0xbce3440f	-0.027742414
54	0x3c52c423	0.012864145
55	0xbc02a79b	-0.007974531
56	0x3c9c8868	0.019108012
57	0x3d02cc73	0.03193326
58	0xbc218841	-0.009859146
59	0x3a2ebf9c	0.0006666125
60	0x3bc1dbc4	0.0059160907
61	0xbbd203c7	-0.0064091417
62	0x3bd40169	0.0064698947
63	0x3b554128	0.0032540057
64	0x3c630bbe	0.01385778
65	0x37c01bd0	2.2901135e-05
66	0xbb35b3ff	-0.0027725694
67	0xbcaa66a1	-0.02080089
68	0x3d86e893	0.06587329
69	0x3c4c4103	0.012466672
70	0x3c0db55f	0.008649199
71	0xbcc7b986	-0.024380457
72	0xbd1783c3	-0.036990892
73	0xbd340ec3	-0.04395939
74	0xbcd8c3b9	-0.026460515
75	0x3cbe78c6	0.023250949
76	0x3c6e050f	0.014527573
77	0x3c9524d3	0.018206036
78	0xbc486cb1	-0.012232945
79	0x3d0478d8	0.032341808
80	0x3d3c273e	0.04593586
81	0x3b35f732	0.0027765748
82	0x3cd0172c	0.025401674
83	0x3c428170	0.011871681
84	0xbd8c275e	-0.06843446
85	0x3d43841c	0.04773341
86	0x3cfcb7c2	0.030849341
87	0xbbc3d3e6	-0.005976188
88	0x3ced2abd	0.028951043
89	0xbde30352	-0.11084618
90	0x3a32b8c7	0.0006817695
91	0xbd06e5c4	-0.032933965
92	0xbc02e922	-0.0079901535
93	0xbd1cca6e	-0.03827899
94	0xbdab3be6	-0.08361034
95	0x3d08086c	0.033211157
96	0x3d8ae5c1	0.06782103
97	0x3c102eb7	0.0088002
98	0xbc61dab2	-0.013785051
99	0xbd433136	-0.047654353
100	0xbc639b7a	-0.013892049
101	0xbcb59fab	-0.022170862
102	0xbcf4bb72	-0.029874537
103	0xbc85128c	-0.016244195
104	0x3ca7bc85	0.020475635
105	0xbd8da822	-0.069168344
106	0xbcd497ce	-0.025951292
107	0xbd46477d	-0.04840802
108	0xbc89c196	-0.016815942
109	0x3e11b1ce	0.14227983
110	0xbd85222b	-0.06500658
111	0xbd045b85	-0.032313842
112	0x3caab72d	0.020839298
113	0x3d348695	0.04407366
114	0x3e091bbb	0.13389485
115	0xbd9cc77c	-0.07655236
116	0xbd8deaee	-0.06929575
117	0xbcedabc5	-0.02901257
118	0x3d8c550d	0.0685216
119	0x3e0eea7c	0.13956636
120	0xbd7f66b8	-0.06235382
121	0xbd968a40	-0.07350588
122	0x3b80db92	0.003932425
123	0x3d690d77	0.056897607
124	0xbd107d66	-0.03527584
125	0x3c708bd7	0.014681778
126	0x3d952c09	0.0728379
127	0xbcd78cb2	-0.026312206
128	0x3c7bf529	0.015378275
129	0x3d8f4ad6	0.06996696
130	0xba486700	-0.0007644743
131	0x3dc8c339	0.09802861
132	0x3d155978	0.036462277
133	0x3cee5021	0.029090943
134	0x3e13c50e	0.14430639
135	0xbd22be3b	-0.0397322
136	0x3d22c523	0.039738785
137	0xbd6ddc48	-0.058071405
138	0x3d9e7a24	0.0773814
139	0x3e26d725	0.16293009
140	0x3c5ad465	0.013356303
141	0x3b9554b2	0.0045572156
142	0xbbf5c93b	-0.007500795
143	0x3d57200c	0.052520797
144	0x3da9e30e	0.0829526
145	0xbce11446	-0.027475487
146	0xbd2131a2	-0.039353974
147	0xbc28899d	-0.010286716
148	0x3d7bc1ad	0.061464
149	0xbb582cb3	-0.0032985627
150	0xbd1f5115	-0.038895685
151	0x3d8717df	0.0659635
152	0x3d6ae50d	0.057347346
153	0x3d077f99	0.03308067
154	0xbc9d27be	-0.01918399
155	0x3d475785	0.04866745
156	0x3ca667e1	0.020313205
157	0xbd0860fa	-0.03329561
158	0x3c91550f	0.017740754
159	0x3ac7127f	0.0015188007
160	0x3c07e86a	0.008295158
161	0xbd83140b	-0.06400307
162	0xbcece045	-0.028915534
163	0xbd1a4d7d	-0.037671555
164	0x3c3627dc	0.011117902
165	0x3c940f59	0.018073725
166	0xbd687dd5	-0.056760628
167	0xbdb7304e	-0.0894476
168	0xbd8c4455	-0.06848971
169	0xbbce665b	-0.006298823
170	0x3ca76781	0.020435097
171	0xbcb9e8bf	-0.02269399
172	0xbd9c5712	-0.07633795
173	0xbda17f5d	-0.07885621
174	0xbd66d8ae	-0.056358986
175	0xbd256109	-0.040375743
176	0x3ca0be87	0.0196221
177	0x3ce5dd55	0.02805964
178	0xbc41edae	-0.011836452
179	0xbd9035e6	-0.0704153
180	0xbd141cb4	-0.036160186
181	0xbd24bf1c	-0.04022132
182	0x3c56c6ee	0.013108952
183	0x3d6412af	0.05568188
184	0xbd3216de	-0.04347884
185	0xbbe6316d	-0.007024935
186	0x3d01c5c2	0.031682737
187	0xbd0400ea	-0.032227434
188	0x3cc4b887	0.02401377
189	0xbddb7cb7	-0.10717147
190	0xbc290ffb	-0.010318751
191	0xbb6d9f25	-0.0036258188
192	0xbd0f6db7	-0.03501674
193	0x3d43c584	0.047795787
194	0xbd7b93a3	-0.061420094
195	0xbc5411a7	-0.012943662
196	0xbbdf96a0	-0.006823376
197	0xbc6623bb	-0.014046605
198	0xbb9a87d3	-0.0047158985
199	0xbdb3aa0e	-0.0877267
200	0x3db33b80	0.08751583
201	0x3dc6a680	0.09699726
202	0xbd79b3f4	-0.060962632
203	0xbdcf6983	-0.10127547
204	0xbc5a137a	-0.013310308
205	0x3ddde732	0.10835113
206	0x3e0596bc	0.13045782
207	0xbdc94125	-0.098268785
208	0xbdf41ee3	-0.11919954
209	0x3d2dde35	0.04244824
210	0x3d0b34c9	0.033985887
211	0x3d8ab3be	0.06772564
212	0xbd8baf9e	-0.06820606
213	0xbd08f453	-0.03343613
214	0x3d2263ad	0.03964584
215	0x3c2d4726	0.010576045
216	0x3d4208d0	0.047371686
217	0x3c49a0c2	0.012306394
218	0x3b98dd18	0.0046650283
219	0xbc749019	-0.014926934
220	0x3a984b32	0.001161909
221	0xba04e39c	-0.0005069317
222	0x3b47be29	0.0030478335
223	0x3c413fb1	0.01179497
224	0x3d113ea8	0.035460144
225	0x3c587de3	0.0132136075
226	0x3c1d2620	0.009591609
227	0xbc280929	-0.01025609
228	0x3bc33694	0.005957434
229	0xbdb01005	-0.085968055
230	0xbd154cad	-0.036450077
231	0xbcba47d1	-0.022739323
232	0xbd5a7eca	-0.05334357
233	0x3caeb3a6	0.021325897
234	0x3af0e042	0.0018377381
235	0xbca1c60f	-0.019747762
236	0xbd856a5a	-0.065144256
237	0xbd3decd4	-0.046368435
238	0x3cc4ffc6	0.024047744
239	0xbcf83637	-0.03029929
240	0x3aa211f0	0.0012364965
241	0x3ced7bfa	0.02898978
242	0xbd259688	-0.04042676
243	0x3d241692	0.040060587
244	0x3d13084a	0.035896577
245	0x3cbddaa1	0.02317554
246	0x3d2bb227	0.041917946
247	0xbd095702	-0.033530243
248	0x3cd9e618	0.026598975
249	0x3c2300d1	0.009948925
250	0x3c935788	0.017986074
251	0x3b29d60b	0.0025914933
252	0xbd79794a	-0.060906686
253	0xbbc14565	-0.005898165
254	0xbd1e0645	-0.038580198
255	0x3de31d73	0.11089601

bias f4 [16]
0	0xb3ad071f	-8.0572356e-08
1	0xb57c3319	-9.395167e-07
2	0x34f6085c	4.5827153e-07
3	0x336055e5	5.2232185e-08
4	0x3511c218	5.4299153e-07
5	0xb4b37b16	-3.3430905e-07
6	0x35922dc4	1.0891167e-06
7	0x348454ac	2.4648523e-07
8	0xb620f8e6	-2.3986736e-06
9	0xb4c9c37a	-3.7581395e-07
10	0x3594d05b	1.1087499e-06
11	0x3770d11f	1.43538045e-05
12	0x35adbd76	1.2944645e-06
13	0xb506c1a4	-5.0200674e-07
14	0xb51e4163	-5.8954737e-07
15	0xb4bb20b3	-3.4855256e-07

weight f4 [16]
0	0x3f99bf4b	1.2011503
1	0x3f9683b7	1.1758946
2	0x3f91266a	1.1339848
3	0x3f9480ba	1.1601784
4	0x3f961e53	1.1728004
5	0x3f911a04	1.1336064
6	0x3f968cc1	1.1761705
7	0x3f948484	1.160294
8	0x3f9fa821	1.2473184
9	0x3f80edf6	1.007262
10	0x3f960464	1.172009
11	0x3f990518	1.195468
12	0x3f99ba6a	1.2010014
13	0x3f95233a	1.1651375
14	0x3f94b5b2	1.1617949
15	0x3f9c1f0a	1.2196972

bias f4 [16]
0	0x3dd67ed9	0.10473413
1	0x3d2ffa88	0.042963535
2	0x3d8e6372	0.069525614
3	0x3d560a31	0.052255813
4	0x3d77ae9b	0.06046925
5	0x3dbe2889	0.09285075
6	0x3d4e60b5	0.050385196
7	0x3dfca1b4	0.1233553
8	0x3d0c141c	0.034198865
9	0x3cc9ec84	0.024648912
10	0x3c35ebfd	0.011103627
11	0x3d83dd8f	0.06438743
12	0x3db5eaa2	0.08882643
13	0x3d6f0dcb	0.058362763
14	0x3df13a64	0.11778715
15	0x3d95da6c	0.07317051

running_mean f4 [16]
0	0xbda0af9d	-0.078459956
1	0xbe5ecb40	-0.21757221
2	0x3da418de	0.080125555
3	0x3e141862	0.14462426
4	0x3d8b1850	0.067917466
5	0x3eb16ebf	0.34654805
6	0xbdfa5659	-0.12223501
7	0x3db8b13e	0.09018181
8	0x3d88e8a3	0.06684997
9	0x3e126726	0.1429716
10	0xbe6a922a	-0.2290732
11	0x3daafb0c	0.08348665
12	0xbe44a449	-0.19203295
13	0x3e740f8c	0.23834056
14	0xbe2c2420	-0.16810656
15	0x3db42a85	0.087971725

running_var f4 [16]
0	0x3e2532a4	0.16132599
1	0x3e6c820c	0.23096484
2	0x3e08621c	0.13318676
3	0x3e186d74	0.14885503
4	0x3e36078e	0.1777632
5	0x3e4573c6	0.19282445
6	0x3e207d2d	0.15672751
7	0x3e418b35	0.1890076
8	0x3e6de072	0.2323015
9	0x3e0eb6de	0.13936946
10	0x3e5f8a08	0.21829998
11	0x3dfebb85	0.1243811
12	0x3e31e26a	0.17371526
13	0x3e22d350	0.15900922
14	0x3dceb0bb	0.100923024
15	0x3de950de	0.11392377

weight f4 [120, 400]
0	0xbb7e917b	-0.0038844037
1	0x3ce82391	0.028337272
2	0x3c117d2b	0.00887994
3	0x3d033547	0.03203323
4	0x3d70548e	0.058674388
5	0xbc6d650d	-0.014489424
6	0x3ce8c6a4	0.028415032
7	0x3ad73b7b	0.0016420925
8	0x3d580957	0.052743282
9	0x3da51024	0.08059719
10	0x3d049598	0.032369226
11	0x3ce28ba6	0.02765448
12	0x3d9b43e6	0.0758131
13	0x3cc8ea04	0.02452565
14	0x3c2e94fd	0.010655639
15	0x3d224b90	0.039622843
16	0x3c774044	0.015091006
17	0x3c79df2b	0.015250961
18	0xbc3ea25f	-0.011635392
19	0xbd3405e3	-0.043950927
20	0x3d140ba0	0.0361439
21	0x3b203300	0.002444446
22	0x3cc55332	0.024087522
23	0x3d2a87ce	0.04163342
24	0x3a71a24a	0.00092176034
25	0x3d3d35b7	0.046193805
26	0xbd04d547	-0.03242996
27	0x3c7e9f10	0.015540853
28	0x3c2929fe	0.010324953
29	0x3c92e579	0.017931687
30	0x3c9249d4	0.01785747
31	0xbd1127f9	-0.03543851
32	0x3afe6547	0.0019408845
33	0xbb2881f5	-0.0025712226
34	0xbc9dd330	-0.019265741
35	0x3b53639c	0.0032255417
36	0xbd4b433a	-0.04962466
37	0x3c56c99e	0.013109593
38	0x3ad16c8e	0.0015977786
39	0x3c89f724	0.016841479
40	0xbafb2594	-0.001916098
41	0xb8d377b0	-0.000100835576
42	0x3d0310c0	0.031998396
43	0x3d5e46b3	0.054266643
44	0x3dc8031c	0.09766218
45	0x3bd3e8aa	0.0064669447
46	0x3cdc2a64	0.026875682
47	0x3d2bfdc3	0.041990053
48	0x3d8380fa	0.06421085
49	0x3dc2bf91	0.09509195
50	0x3c593692	0.0132576395
51	0x3c2826e8	0.010263182
52	0x3c6a09cf	0.014284565
53	0x3ccc6d52	0.024954472
54	0x3c212e03	0.00983763
55	0xbcb458f6	-0.022015076
56	0xbc4b50e0	-0.012409419
57	0x3c073d17	0.008254311
58	0xbd09c4cb	-0.033634942
59	0xbbf6ef40	-0.007535845
60	0xbd5f1b30	-0.054469287
61	0xbdadab0d	-0.08479891
62	0x38bfd378	9.146979e-05
63	0xbb88a360	-0.0041698664
64	0x3cd4c04d	0.025970602
65	0xbd060dfc	-0.03272818
66	0xbd26a76e	-0.040687017
67	0xbc55562d	-0.013021034
68	0xbb33fd11	-0.0027464072
69	0x3cb1ea3e	0.02171814
70	0xbc83c145	-0.016083369
71	0xbcd1af56	-0.025596302
72	0xbce1b7ec	-0.027553521
73	0xbd106e9d	-0.03526174
74	0xbcc561d0	-0.024094492
75	0x3d37a1db	0.04483209
76	0xbce5599e	-0.027996834
77	0xbd4af18b	-0.04954676
78	0xbcdf6a87	-0.027272476
79	0xbc6ea69d	-0.014566091
80	0xbc9cdd53	-0.019148504
81	0xbca78f9b	-0.020454219
82	0x3c1f5a5d	0.009726134
83	0xbcca638a	-0.024705667
84	0xbd8355d2	-0.06412853
85	0xbaec1166	-0.0018010556
86	0xb8dc3e5c	-0.00010502033
87	0x3d27c146	0.040955804
88	0x3cf720f8	0.030167088
89	0x3cb201fd	0.021729464
90	0x3cbb644e	0.022874977
91	0x3d157f68	0.036498457
92	0x3b21b050	0.002467174
93	0x3d48ffca	0.049072064
94	0x3da58b72	0.08083238
95	0xbb5fa31a	-0.0034124316
96	0x3d0f6f74	0.0350184
97	0x3c01e446	0.00792796
98	0x3d065bdf	0.03280246
99	0x3d4e3b8c	0.050349757
100	0xbb499be8	-0.0030763093
101	0xbd303928	-0.04302326
102	0xbc843085	-0.016136417
103	0x3c11d153	0.008900004
104	0x3cbb4722	0.022861067
105	0xbd0d1b85	-0.034450073
106	0xbd3a1a1d	-0.04543506
107	0xbd2df494	-0.042469576
108	0x3b550eff	0.003251016
109	0xbc1890ff	-0.0093119135
110	0xbce63f04	-0.02810622
111	0xbcc593b6	-0.024118286
112	0xbd433b23	-0.04766382
113	0xbcdc4978	-0.026890501
114	0xbb98a9c0	-0.0046589077
115	0xbc5df115	-0.013546248
116	0xbb965af1	-0.004588478
117	0xbd2bef83	-0.041976463
118	0xbd7d8c35	-0.06190129
119	0xbd6a5839	-0.057213042
120	0x3ac5621e	0.0015059148
121	0x3a115866	0.00055444834
122	0xbb590d84	-0.0033119628
123	0x3c1aad43	0.009440723
124	0x3ccc7b1c	0.024961047
125	0xbd242bd7	-0.04008087
126	0xbd31d63f	-0.04341721
127	0xbcd8a714	-0.026446857
128	0x3c4ac052	0.012374954
129	0xbbfe72f4	-0.0077651683
130	0xbcfa33dd	-0.030542308
131	0x3be88d63	0.0070969327
132	0xbc822473	-0.015886521
133	0xbc53dc7f	-0.012930988
134	0xbbff2efe	-0.0077875843
135	0xbb72bd76	-0.0037039197
136	0x3ba4f758	0.0050343685
137	0xbd0821b7	-0.033235278
138	0x3c4681d1	0.012115912
139	0x3c2f777a	0.010709638
140	0x3bcc2b10	0.0062307194
141	0x3cbf767e	0.023371931
142	0xbc220b8b	-0.009890447
143	0xbbcff319	-0.006346118
144	0xbce1713a	-0.027519811
145	0xbcd7fa29	-0.026364403
146	0x3a3e2c7e	0.00072545547
147	0x3b540eda	0.0032357485
148	0x3ccfb8e0	0.02535671
149	0x3caacae6	0.020848703
150	0xbc502fba	-0.012706691
151	0x3c899bff	0.016798018
152	0x3d898ecc	0.067166895
153	0x3c599469	0.013280013
154	0xbbc4c12f	-0.0060044746
155	0xbd3ba78b	-0.04581408
156	0xbd4f2080	-0.050568104
157	0xbd0b2695	-0.03397234
158	0xbd621b8d	-0.055202056
159	0xbcdbbbeb	-0.026823005
160	0xbc99f403	-0.018793112
161	0xbd1b2718	-0.03787908
162	0x3c2996c3	0.010350886
163	0x3d07ba5c	0.03313671
164	0x3a18db8c	0.0005831055
165	0xbc8e89a2	-0.017399613
166	0xbced4f5a	-0.028968502
167	0xb9fc67a6	-0.0004814241
168	0x3c968e0a	0.018378276
169	0x3c0ce56a	0.008599618
170	0xbd0aab57	-0.03385481
171	0xbd2311b3	-0.0398118
172	0x3ba43ae5	0.0050119036
173	0x3cdb8058	0.026794598
174	0x3b250648	0.0025180746
175	0x3c1a0eb2	0.009402918
176	0x3d15214a	0.0364087
177	0x3cf1f049	0.029533522
178	0x3d81aa2d	0.063312866
179	0x3d0df245	0.034654874
180	0xbc92b3cf	-0.017908005
181	0x3c9aab85	0.018880615
182	0x3ba10095	0.0049133995
183	0x3d15e8d3	0.03659899
184	0x3d61b4e1	0.05510414
185	0xbd3b0e06	-0.04566767
186	0x39be64e6	0.000363148
187	0x3bc14543	0.005898149
188	0xbab1a04b	-0.0013551799
189	0x3c27ebff	0.010249137
190	0xbcd774f4	-0.026300885
191	0xbc8fc7e0	-0.017551363
192	0xbbd1169e	-0.00638087
193	0x3be57ec3	0.0070036366
194	0x3c71b6a2	0.014753016
195	0x3bfb5270	0.0076697394
196	0x3c750b4d	0.014956308
197	0x3ca2f87d	0.01989388
198	0x3d0aa511	0.033848826
199	0x3db4cf83	0.08828642
200	0xbc8f26c2	-0.017474536
201	0xbd4398e5	-0.047753233
202	0xbd711e83	-0.05886699
203	0xbd3509ad	-0.04419868
204	0xbb1b1329	-0.0023662543
205	0xbcdce70e	-0.026965644
206	0xbd829ff7	-0.06378167
207	0xbd329cb2	-0.043606468
208	0xbd88dc3c	-0.066826314
209	0xbcc3a0f2	-0.023880456
210	0xbcf67671	-0.030085774
211	0xbcde7e87	-0.027159942
212	0xbd0a8cd5	-0.033825714
213	0xbd672d72	-0.056439824
214	0xbc1bddd2	-0.009513335
215	0x3b193494	0.0023377286
216	0x3d605504	0.054768577
217	0x3d512085	0.051056404
218	0x3bdc1392	0.0067162
219	0x3c4c1625	0.012456452
220	0xbc10af98	-0.008830927
221	0x3c228e26	0.009921586
222	0x3d4bbbcc	0.049739644
223	0x3c99a3bb	0.01875483
224	0x3d492e0d	0.049116183
225	0xbafc950e	-0.0019270496
226	0xbd39a4b6	-0.045323096
227	0xbd667081	-0.056259636
228	0xbd475061	-0.04866064
229	0xbd03d0b2	-0.03218145
230	0xbc80f0c6	-0.01573981
231	0xbd631af9	-0.055445645
232	0xbca94016	-0.020660441
233	0xbbd3151d	-0.006441726
234	0xbd2a1a27	-0.041528847
235	0xbc7741a4	-0.015091334
236	0xbd42ca84	-0.047556415
237	0xbd2787f2	-0.040901132
238	0xbbdcb08f	-0.0067349146
239	0x3d17adc3	0.037030946
240	0xbca3e8e9	-0.020008521
241	0xbc6444fc	-0.013932463
242	0xbc8190a1	-0.015816035
243	0xbc9ffc63	-0.019529527
244	0x3ba24f3a	0.004953292
245	0x3cedeaa8	0.029042557
246	0xbc1b5b2e	-0.009482188
247	0xbd4bfb34	-0.049800113
248	0xbd1fc4bc	-0.03900598
249	0xbd707061	-0.058700923
250	0x3c8c569f	0.017131148
251	0x3c8bbabe	0.017056819
252	0xbc17403b	-0.009231622
253	0xbc347f9a	-0.011016751
254	0x3cff40e9	0.031158881
255	0x3c8830e2	0.016624872

bias f4 [120]
0	0x3c73bdd8	0.014876805
1	0xb5f3a58f	-1.8153095e-06
2	0x3bc82d83	0.006108941
3	0x3a802831	0.0009777603
4	0x3c8784d0	0.016542822
5	0x3c9cc7fa	0.019138325
6	0xbc2ee36d	-0.01067434
7	0xb9924b50	-0.00027903402
8	0xbb1cdb2b	-0.0023934345
9	0x3b4aa9e7	0.0030924024
10	0x3c12a922	0.008951457
11	0x3c23ae63	0.0099903075
12	0x3a1b9908	0.0005935584
13	0x31486736	2.91625e-09
14	0x3bd3b7db	0.0064611263
15	0x3ce2e2de	0.02769607
16	0x3ca4818b	0.020081302
17	0xbb153d85	-0.0022772264
18	0xbc41fbad	-0.011839789
19	0x3d0e5e36	0.034757815
20	0x3c92aaab	0.017903646
21	0x3a927449	0.0011173572
22	0x3c3f42b2	0.011673616
23	0x3b31f8ed	0.0027156428
24	0xbb0f3592	-0.0021851999
25	0x3bff9458	0.0077996664
26	0x3cd4f568	0.025995925
27	0x3b30bb9e	0.0026967297
28	0x3c831810	0.016002685
29	0x3b783d4a	0.0037878328
30	0x3c6e9197	0.0145610785
31	0x3b57c56f	0.0032924076
32	0x3c4e6471	0.012597189
33	0xb5d9fb7e	-1.6240954e-06
34	0x3c494b96	0.0122860875
35	0x3ca1ab3b	0.01973497
36	0x3ba14fc0	0.004922837
37	0xbc0730f0	-0.008251414
38	0xbb3cf48b	-0.0028832282
39	0x3c09a691	0.008401529
40	0x3cc5028b	0.024049064
41	0x3ca61117	0.020271821
42	0x3caa8aa8	0.02081807
43	0xbb6aa380	-0.003580302
44	0x3b9d5b32	0.004802131
45	0xba5b819e	-0.00083735015
46	0x3a91bcae	0.0011118853
47	0x3c839397	0.016061587
48	0xb3281cd8	-3.914178e-08
49	0xbb23e54d	-0.00250085
50	0x3cc3b014	0.023887672
51	0xa99594cc	-6.6427414e-14
52	0x3b8678ef	0.004103772
53	0xac90181d	-4.0954033e-12
54	0xb938840a	-0.00017596796
55	0x3c9e9e4f	0.019362597
56	0x3c073700	0.008252859
57	0xbbfa8a17	-0.007645856
58	0x3c7741fe	0.015091417
59	0x3bd43c75	0.0064769336
60	0x3b3b1def	0.0028551777
61	0x3c2d1f1f	0.010566502
62	0x3c17fb84	0.009276275
63	0xb3978e03	-7.057317e-08
64	0x34a02dd4	2.9835667e-07
65	0xbb6e007e	-0.0036316211
66	0x3ac617c6	0.0015113286
67	0x3c8ed861	0.017437162
68	0x29a6cac9	7.4070585e-14
69	0xba58eebe	-0.00082753215
70	0xb8a0fd55	-7.676581e-05
71	0xb05e18c5	-8.079833e-10
72	0x3c42bad5	0.011885365
73	0x336728fd	5.3821157e-08
74	0xb9cd84ee	-0.00039199687
75	0x3c51df83	0.012809637
76	0x3c14eac2	0.009089174
77	0xba69ed4b	-0.0008923604
78	0x3c9453ca	0.01810636
79	0xbb77740d	-0.003775838
80	0xbc39d9d3	-0.011343437
81	0xb8b6b49d	-8.712078e-05
82	0xb7220df4	-9.659201e-06
83	0x3c712e98	0.0147205815
84	0x3aad8381	0.0013238044
85	0xb79d94eb	-1.8785204e-05
86	0x3c90b856	0.017666023
87	0x3bb30a04	0.0054638404
88	0x3b994201	0.0046770577
89	0x3bcb6c78	0.006207999
90	0xb87d6e89	-6.0422844e-05
91	0x3c54ac25	0.012980496
92	0xbb5ab73e	-0.003337338
93	0x3b2c4e90	0.0026291944
94	0x3c0fa679	0.0087677175
95	0xbb9cfe15	-0.004791031
96	0x3bb10359	0.0054020104
97	0x39a1d826	0.00030869356
98	0xb7ff62ab	-3.0444315e-05
99	0x3678acb2	3.7055402e-06
100	0x3c365253	0.011128026
101	0x3c746243	0.014916006
102	0xbb51418e	-0.0031929943
103	0xb6bd3d26	-5.6397575e-06
104	0x9b7bbc1e	-2.0823017e-22
105	0xb8255a46	-3.942314e-05
106	0x39013cea	0.00012325091
107	0x3429d122	1.5815434e-07
108	0x3c27cf92	0.01024236
109	0x3c31239d	0.0108117135
110	0x3c2d0577	0.010560385
111	0x3bcecfd0	0.0063113943
112	0x3c1cb8b7	0.009565524
113	0x3c50df46	0.012748545
114	0x3c4cdb16	0.012503406
115	0x3b885565	0.0041605704
116	0x3bbf7d45	0.0058437907
117	0x3ad0217c	0.001587912
118	0x3cc5093d	0.024052257
119	0x3a3d9f76	0.00072335394

weight f4 [84, 120]
0	0xa3dcd8fb	-2.3944343e-17
1	0x02a2f59e	2.3944738e-37
2	0xa330162e	-9.545676e-18
3	0xa487c05a	-5.8872774e-17
4	0xa449a76f	-4.372675e-17
5	0xa4ef69a1	-1.0382867e-16
6	0xa3a7bc4a	-1.818592e-17
7	0x000044ed	2.4726e-41
8	0x24b2eabf	7.759287e-17
9	0xa3b50b39	-1.9628812e-17
10	0xa481b2f0	-5.6247964e-17
11	0xa430f66d	-3.8372647e-17
12	0x1ef97500	2.641229e-20
13	0x96526890	-1.6996659e-25
14	0xa4d432c8	-9.202637e-17
15	0xa4fc26ca	-1.0935329e-16
16	0xa3b85413	-1.9984927e-17
17	0xa366cfe4	-1.25123475e-17
18	0xa4a27eb0	-7.047092e-17
19	0x234127fd	1.0471019e-17
20	0x24e7694f	1.0035868e-16
21	0x243345ba	3.88735e-17
22	0xa1fb6d81	-1.7037407e-18
23	0xa32b51f6	-9.2872845e-18
24	0xa4aaddb8	-7.4101354e-17
25	0xa51a7155	-1.3395769e-16
26	0xa5041977	-1.1457803e-16
27	0x243e4c50	4.1264322e-17
28	0x235d36a3	1.1992004e-17
29	0xa4a7c110	-7.2751766e-17
30	0x245a63dc	4.73558e-17
31	0xa43fcd7f	-4.1590585e-17
32	0xa479bbaa	-5.4152226e-17
33	0x000073a9	4.1491e-41
34	0xa4a54816	-7.167946e-17
35	0xa3f9064a	-2.6999298e-17
36	0xa500a4ae	-1.1158026e-16
37	0xa475b9a8	-5.3283163e-17
38	0xa4cda85b	-8.9189783e-17
39	0xa51f2b81	-1.3805791e-16
40	0xa4bb13a1	-8.1131575e-17
41	0x24bf0be1	8.285317e-17
42	0xa475c2d3	-5.329093e-17
43	0xa41a2877	-3.3427702e-17
44	0xa41ef33f	-3.4466826e-17
45	0xa23a0054	-2.5207874e-18
46	0xa3a0b2a2	-1.7422889e-17
47	0x23f96f6e	2.7043826e-17
48	0x98e70428	-5.9716297e-24
49	0x237831c1	1.3454643e-17
50	0xa4937c7a	-6.396196e-17
51	0x0000a6c1	5.982e-41
52	0x2449bb76	4.3743713e-17
53	0x93efe631	-6.055907e-27
54	0x00006098	3.4651e-41
55	0x24513360	4.5363167e-17
56	0xa3cc4ee6	-2.2151139e-17
57	0x23f6318d	2.6692359e-17
58	0xa4b965e1	-8.040355e-17
59	0xa4a2c574	-7.05908e-17
60	0xa4ffcb76	-1.109333e-16
61	0xa38a376f	-1.4985467e-17
62	0xa4d4409b	-9.204979e-17
63	0x8000355b	-1.914e-41
64	0x14b50466	1.8278064e-26
65	0xa4b8ea0c	-8.019377e-17
66	0xa4368f85	-3.9586525e-17
67	0xa467491a	-5.015206e-17
68	0x00006eda	3.9766e-41
69	0xa40589b4	-2.8956417e-17
70	0x8000a3f0	-5.881e-41
71	0x00002ddf	1.6455e-41
72	0xa36ec0a5	-1.29428e-17
73	0x800067e4	-3.7269e-41
74	0x80006c94	-3.895e-41
75	0xa3b2c58d	-1.9382465e-17
76	0x246dcf8a	5.1566975e-17
77	0xa4045fb7	-2.870401e-17
78	0xa4e3bcae	-9.876519e-17
79	0xa395a060	-1.6222534e-17
80	0xa4ee3734	-1.03309565e-16
81	0x9219400a	-4.835722e-28
82	0x00002920	1.4753e-41
83	0xa41a2760	-3.342678e-17
84	0xa4befaa4	-8.282397e-17
85	0x1dc51f48	5.217781e-21
86	0xa4086663	-2.9577024e-17
87	0xa3e5da0f	-2.4920581e-17
88	0x23dbf6fd	2.3848631e-17
89	0xa499d827	-6.671935e-17
90	0x000048ee	2.6162e-41
91	0xa44daee9	-4.4600444e-17
92	0xa4a92baf	-7.336607e-17
93	0xa3730c88	-1.317571e-17
94	0xa50afcd8	-1.2055259e-16
95	0xa49cedd8	-6.805714e-17
96	0x23f90549	2.6998872e-17
97	0xa4db1c51	-9.502408e-17
98	0x9af15157	-9.9806675e-23
99	0x0000ba99	6.6939e-41
100	0xa40b0f6c	-3.0153883e-17
101	0xa4c625f2	-8.5933094e-17
102	0x2413a6be	3.201678e-17
103	0x8000702f	-4.0244e-41
104	0x0189dadc	5.06399e-38
105	0x80006346	-3.5613e-41
106	0x00008491	4.7556e-41
107	0x1e40c27c	1.0204614e-20
108	0xa4be9734	-8.265551e-17
109	0x23ae140a	1.8873605e-17
110	0xa4b69466	-7.9181315e-17
111	0x239e4681	1.7160254e-17
112	0xa53b48f7	-1.6244386e-16
113	0xa4172395	-3.2773045e-17
114	0xa486c7f6	-5.8451983e-17
115	0xa3d0f338	-2.2654412e-17
116	0xa46a7d04	-5.0846554e-17
117	0xa36363ee	-1.2326856e-17
118	0xa35779bd	-1.16809524e-17
119	0x9f02063c	-2.7533728e-20
120	0xaeea5302	-1.0655833e-10
121	0x000061bd	3.5062e-41
122	0xae9dfb97	-7.184225e-11
123	0xad96986a	-1.7120711e-11
124	0xad1f1838	-9.043481e-12
125	0xac49bcc2	-2.86686e-12
126	0xae5b3bb2	-4.9847855e-11
127	0xa52434e6	-1.4242655e-16
128	0xae3cfa10	-4.296835e-11
129	0xae4c52eb	-4.6457876e-11
130	0xae881c8a	-6.1896335e-11
131	0xaf3bed67	-1.7091893e-10
132	0x800030cf	-1.7509e-41
133	0x80038ff9	-3.27154e-40
134	0xaeff820f	-1.16191605e-10
135	0x2d2f6eec	9.972228e-12
136	0x2e4aaedf	4.60848e-11
137	0xa8b3fb30	-1.9981927e-14
138	0xada15a94	-1.8343806e-11
139	0xadb7cb83	-2.0895069e-11
140	0xade4af9d	-2.5998587e-11
141	0xae5361ab	-4.8062592e-11
142	0xae8670a3	-6.113623e-11
143	0xae1a2b2f	-3.50539e-11
144	0xae3b1f68	-4.254677e-11
145	0xaf55c23d	-1.9441244e-10
146	0xad9c86c2	-1.7794991e-11
147	0xae7eb9c2	-5.79179e-11
148	0x2d2d06a0	9.8353825e-12
149	0xae9286df	-6.663269e-11
150	0x2cabac5b	4.8792476e-12
151	0xae881b00	-6.18936e-11
152	0x2d0b6558	7.923738e-12
153	0x233560a7	9.832497e-18
154	0xaefc738b	-1.1480158e-10
155	0xae8639fc	-6.1039146e-11
156	0xaea0d21f	-7.3132826e-11
157	0xae8329bb	-5.964603e-11
158	0x2dde641b	2.5282934e-11
159	0xad0e5bbc	-8.092135e-12
160	0xada39460	-1.8596846e-11
161	0xada892a5	-1.9164512e-11
162	0xad8c2e65	-1.593676e-11
163	0xaf13b4cc	-1.3433804e-10
164	0xae9eb14c	-7.2165024e-11
165	0x00004a53	2.6663e-41
166	0xadea05c0	-2.6605274e-11
167	0xae079bed	-3.0833936e-11
168	0x8000c191	-6.9439e-41
169	0xaeac2e66	-7.8298965e-11
170	0xae47952e	-4.537986e-11
171	0x800009f5	-3.572e-42
172	0x2e8e7610	6.4783845e-11
173	0x9c54c556	-7.0399967e-22
174	0xaa2bd9ad	-1.5263372e-13
175	0xae0e58e1	-3.2366002e-11
176	0x2d89fd05	1.568746e-11
177	0x2d2d325f	9.845096e-12
178	0xaf59b6c2	-1.9800964e-10
179	0xaf521200	-1.9105784e-10
180	0x2f30e7b9	1.6089431e-10
181	0xad19a317	-8.733256e-12
182	0xad73f881	-1.386813e-11
183	0x00005f0c	3.4096e-41
184	0x2211e95c	1.9774704e-18
185	0xaf36ec6a	-1.6636795e-10
186	0xad902006	-1.6385126e-11
187	0xae9c3211	-7.102952e-11
188	0x80008e28	-5.0996e-41
189	0xae9682d1	-6.844448e-11
190	0x80004708	-2.5481e-41
191	0x8000024b	-8.23e-43
192	0xadd0c15a	-2.3732728e-11
193	0x00002bc3	1.5699e-41
194	0x221b5a80	2.1054327e-18
195	0xaf12d8f4	-1.33557e-10
196	0xac8f564c	-4.0738853e-12
197	0xaf0a8766	-1.259913e-10
198	0xad868953	-1.529502e-11
199	0xaea2e2ac	-7.407172e-11
200	0xaf0206bc	-1.1825824e-10
201	0x9ab05186	-7.29236e-23
202	0xaa612404	-1.999651e-13
203	0xae818837	-5.8904374e-11
204	0xade44015	-2.5949057e-11
205	0x29186374	3.3837042e-14
206	0xaec2476f	-8.834788e-11
207	0xaec1d79f	-8.814926e-11
208	0xae16a0ed	-3.4248982e-11
209	0xaf77531e	-2.2494048e-10
210	0x00009a70	5.5402e-41
211	0xae9d3126	-7.148264e-11
212	0xaf0a5e43	-1.2584515e-10
213	0xae747a70	-5.5587923e-11
214	0xadac9dc3	-1.9624196e-11
215	0xad0a0428	-7.845315e-12
216	0xae295187	-3.8498562e-11
217	0xad908a54	-1.6432335e-11
218	0xa1c44b98	-1.3301486e-18
219	0x00003234	1.801e-41
220	0xae11b02d	-3.312566e-11
221	0x2d97afd3	1.7244794e-11
222	0xaeb758d6	-8.337657e-11
223	0x800048a5	-2.606e-41
224	0x854142bc	-9.0870736e-36
225	0x236b6ff9	1.2763087e-17
226	0x800093ad	-5.2976e-41
227	0x00003158	1.7701e-41
228	0x2dc61b8f	2.2522232e-11
229	0x2c9762b1	4.302635e-12
230	0xae741619	-5.5498803e-11
231	0xaeba53c3	-8.47318e-11
232	0xaecb2a79	-9.238916e-11
233	0xaf6308be	-2.0648636e-10
234	0xae66251e	-5.2328912e-11
235	0xae8c1732	-6.370583e-11
236	0xaf06e0db	-1.2267114e-10
237	0xae81e600	-5.907097e-11
238	0xae5f42e9	-5.0763758e-11
239	0x00006877	3.7475e-41
240	0xb50faabe	-5.3520114e-07
241	0x24770d1c	5.357069e-17
242	0xb5b6da14	-1.3623526e-06
243	0xb4133360	-1.3709132e-07
244	0xb5852ec2	-9.92288e-07
245	0xb5d1a6a2	-1.562021e-06
246	0xb4e292f2	-4.2202697e-07
247	0x2d5cdc3e	1.2554456e-11
248	0xb55a85ae	-8.140586e-07
249	0xb53b6c39	-6.9820413e-07
250	0xb5bb4bcc	-1.3954646e-06
251	0xb6199e72	-2.2891004e-06
252	0x2a5339ca	1.8760614e-13
253	0xa38ed889	-1.5487377e-17
254	0x3482e786	2.4382842e-07
255	0xb6215cc2	-2.4044862e-06

bias f4 [84]
0	0xa400e379	-2.7948252e-17
1	0xad98d789	-1.7376116e-11
2	0xb542b49a	-7.253344e-07
3	0x3ca19859	0.019725965
4	0x3c958e0d	0.018256212
5	0x9f2fb570	-3.7207773e-20
6	0x9eef509e	-2.5338452e-20
7	0xa7b70bda	-5.0805553e-15
8	0xbc59fb6a	-0.013304571
9	0xbc1eafce	-0.00968547
10	0x3c19c557	0.009385428
11	0x398a90cc	0.00026429293
12	0x3cde6fe8	0.02715297
13	0x3cec9e6b	0.028884133
14	0x3cc6bde9	0.024260478
15	0x3c2c2422	0.010506662
16	0xba903160	-0.0011001043
17	0x3cca48c2	0.024692897
18	0xbbfd0c07	-0.007722381
19	0x39ffecbe	0.00048813777
20	0x3ce23350	0.027612358
21	0x987c1d40	-3.2585004e-24
22	0xb5e224b1	-1.6848991e-06
23	0x3c91d2fb	0.017800799
24	0x3c255199	0.010090255
25	0x3c96614b	0.01835694
26	0x3bd1113d	0.006380229
27	0xa84fea42	-1.1541605e-14
28	0x3cd35ad0	0.025800139
29	0xbc9bf4fe	-0.01903772
30	0x3c4e57e9	0.012594202
31	0x3c2b310f	0.010448708
32	0x36d3e900	6.315415e-06
33	0x93273f00	-2.1109425e-27
34	0x3c0480f1	0.008087383
35	0x3bbe3fdc	0.0058059525
36	0x3cb2c9a1	0.02182466
37	0x9351f53c	-2.6500419e-27
38	0xbcabd38e	-0.0209749
39	0x3cad65c9	0.021166699
40	0x3c87fd95	0.01660041
41	0x3be01af4	0.0068391506
42	0x350f5535	5.3395644e-07
43	0x3cbf61a2	0.023361985
44	0x3b874156	0.0041276617
45	0x3c8e41ce	0.017365362
46	0x3c82946f	0.01593992
47	0x3c1eec31	0.009699867
48	0x3c0ea74b	0.008706878
49	0x3c776709	0.015100249
50	0x3ca7caa3	0.020482367
51	0x3c7ad8c2	0.015310468
52	0x38466df8	4.7309295e-05
53	0x3c359a57	0.011084161
54	0x3ca4c29c	0.020112328
55	0x3babaa28	0.00523879
56	0x3c7bae91	0.015361444
57	0xbc1e77f2	-0.009672152
58	0x3c5be6a4	0.013421688
59	0x041a207d	1.811753e-36
60	0x39ef6f70	0.0004566866
61	0x3ba61951	0.005068936
62	0x3c14011f	0.00903347
63	0x3cae9eec	0.021316014
64	0x3c904bc1	0.017614247
65	0x3cfacdf7	0.03061579
66	0x3d248685	0.04016735
67	0x36a2276f	4.832567e-06
68	0x3c46cac5	0.012133305
69	0x3c0845c2	0.008317413
70	0xbaef6716	-0.0018264975
71	0x3ba060fb	0.0048943735
72	0x00005c29	3.3061e-41
73	0x3ccdcbb4	0.025121547
74	0x1812fcd4	1.8997703e-24
75	0xbc84b6f7	-0.016200526
76	0xbbe7c6c0	-0.0070732534
77	0x3c9228cd	0.017841721
78	0xbb680556	-0.003540357
79	0xbc091461	-0.008366675
80	0x3c4c771d	0.012479571
81	0x093b235a	2.2525928e-33
82	0xba80e91b	-0.0009835096
83	0x25e4ee1a	3.971304e-16

weight f4 [26, 84]
0	0x225ec908	3.0193035e-18
1	0x2da98d75	1.9275895e-11
2	0x3485e4b8	2.4939595e-07
3	0xbdf4dc72	-0.11956109
4	0x3e26240f	0.16224693
5	0x9ff97e00	-1.0566405e-19
6	0x9ad59853	-8.834083e-23
7	0x80031683	-2.83582e-40
8	0xbe029eab	-0.1275584
9	0xbe8ff7b1	-0.2811866
10	0x3d04620e	0.032320075
11	0xba99a803	-0.0011723045
12	0xbba2e563	-0.0049711927
13	0xbe31cdd7	-0.17363678
14	0xbcc4a9c7	-0.024006737
15	0xbcd82479	-0.026384579
16	0xbd44ccdc	-0.04804693
17	0x3dbd12f5	0.092321314
18	0xbe5f82b0	-0.21827197
19	0x3c449b21	0.011999876
20	0xbd86fd8c	-0.06591329
21	0x9801e43b	-1.6788086e-24
22	0xb5e29a07	-1.688314e-06
23	0xbe5f885c	-0.2182936
24	0x3dd524c0	0.104074
25	0x3e00c459	0.125749
26	0x3d84bc08	0.064811766
27	0x29e664ef	1.0231561e-13
28	0xbd5e6b9d	-0.054301847
29	0xbe0fb6e4	-0.14034611
30	0x3cdb3444	0.02675832
31	0xbe046284	-0.12928206
32	0xb8fcef33	-0.00012060851
33	0x841191a6	-1.7111547e-36
34	0xbc5cd38c	-0.013478171
35	0x3e23db9b	0.16001742
36	0xbe22c348	-0.15894806
37	0x92f72738	-1.559756e-27
38	0xbe345155	-0.1760915
39	0xbd842077	-0.06451505
40	0x3e139695	0.14412911
41	0x3cf5d700	0.030009747
42	0xb6a43bef	-4.894558e-06
43	0x3c627aaf	0.013823195
44	0x3b8a303c	0.0042171758
45	0xbcbb6755	-0.022876421
46	0xbe83e6c3	-0.25761995
47	0xbe6263e4	-0.22108418
48	0x3e23f742	0.1601229
49	0x3dcfe403	0.10150912
50	0x3d84e017	0.06488054
51	0x3cc6296d	0.024189675
52	0xbae10e2d	-0.0017170362
53	0x3da8f6d7	0.08250206
54	0x3c092e3c	0.00837284
55	0xbdaa0fb0	-0.083037734
56	0x3dd83d52	0.10558571
57	0xbe5a351c	-0.21309322
58	0xbdc01249	-0.093784876
59	0x2de1d54c	2.5674261e-11
60	0x38e34e92	0.00010838838
61	0xbdaea43e	-0.085274205
62	0x3e366a92	0.17814091
63	0x3c905512	0.01761869
64	0xbc8bc9b0	-0.017063946
65	0x3d9ca00d	0.07647715
66	0x3d3261c1	0.043550257
67	0xb5d229c3	-1.5658374e-06
68	0xbd0036f5	-0.03130241
69	0x3da255df	0.07926535
70	0xbcda4f03	-0.026649004
71	0xbbff0283	-0.007782282
72	0xb554700f	-7.913922e-07
73	0x3dd35af9	0.10320086
74	0x351fecc2	5.9576644e-07
75	0xbd3c9f5e	-0.046050422
76	0x3cbd58ab	0.02311357
77	0xbcfb3054	-0.030662693
78	0x3d0b2dcc	0.033979222
79	0xbd71a7f6	-0.05899807
80	0xbe36681e	-0.17813155
81	0x84f5cf3c	-5.7789538e-36
82	0xbe0f9170	-0.14020324
83	0xa3666f1f	-1.2491856e-17
84	0xa320c596	-8.715458e-18
85	0xacfb6030	-7.144528e-12
86	0x34b2c05e	3.329505e-07
87	0xbd26ce27	-0.040723946
88	0xbcb5e7f9	-0.02220534
89	0xa0912923	-2.4591177e-19
90	0x8adb41f1	-2.1113737e-32
91	0x038c4d5e	8.246223e-37
92	0x3d4e6e34	0.050398067
93	0xbca4d018	-0.020118758
94	0x3d0da380	0.034579754
95	0xbd09ca69	-0.0336403
96	0x3d2aac48	0.041668206
97	0x3e4cd425	0.20002802
98	0xbe76c801	-0.24099733
99	0x3daaa02f	0.08331334
100	0x3e3a3deb	0.18187682
101	0xbdcb0df5	-0.099147715
102	0xbdfa19ea	-0.12211974
103	0xba800a45	-0.0009768686
104	0x3d7a47d6	0.061103664
105	0x18d9b3f3	5.6274888e-24
106	0xb645f643	-2.949863e-06
107	0xbdf187f8	-0.11793512
108	0x3d512d9a	0.05106888
109	0xbc14c1d6	-0.009079417
110	0xbc96c3e1	-0.01840395
111	0x2a0a59c0	1.2288e-13
112	0x3d5d2081	0.053986076
113	0xbdd834c9	-0.10556943
114	0x3ca397d5	0.01996986
115	0x3d600655	0.05469354
116	0xb8296923	-4.0390656e-05
117	0x267ed315	8.841002e-16
118	0xbd66badb	-0.056330543
119	0x3d18bffc	0.037292466
120	0xbd35f7cc	-0.04442577
121	0x14c98b82	2.035084e-26
122	0xbe85da15	-0.26142946
123	0xbd24612a	-0.040131725
124	0x3d7faf49	0.062423024
125	0x3d4f4048	0.050598413
126	0x3584a034	9.881392e-07
127	0xbd12a7ad	-0.03580444
128	0x3cf912b2	0.030404422
129	0xbce13c21	-0.027494492
130	0x3e2febd6	0.17179808
131	0x3e42c34f	0.19019817
132	0xbd241956	-0.040063225
133	0x3d9b1362	0.07572056
134	0xbe0cf5a1	-0.13765575
135	0xbe4baa48	-0.19889176
136	0x37925ff4	1.7449238e-05
137	0xbd470520	-0.048588872
138	0xbe1b0f05	-0.15142448
139	0x3d785bb2	0.060634322
140	0xbe11bc97	-0.14232098
141	0xbd8204a7	-0.063485436
142	0xbdd6ef2e	-0.10494839
143	0x281f9443	8.858422e-15
144	0xb9a9f3da	-0.00032415875
145	0x3d2c1651	0.04201347
146	0xbe948b43	-0.29012498
147	0xbe02b2f7	-0.12763582
148	0x3cc14c5d	0.023595983
149	0x3d9cc4a2	0.07654692
150	0x3b938943	0.004502447
151	0xb53ca314	-7.027277e-07
152	0x3e0699e6	0.13144645
153	0xbe563960	-0.20920324
154	0xbd111a40	-0.035425425
155	0xba5cec38	-0.00084275333
156	0x3533a027	6.691575e-07
157	0x3e22c4a3	0.15895323
158	0xb4ee4e09	-4.4387733e-07
159	0xbe1a22d5	-0.1505235
160	0xbe053e10	-0.13011956
161	0x3e35be94	0.17748481
162	0xbe115ddd	-0.14195962
163	0xba32b2f2	-0.0006816826
164	0x3b615633	0.0034383654
165	0x09d6d2a6	5.171672e-33
166	0xbe0c75a4	-0.13716751
167	0xa2e8d916	-6.3113575e-18
168	0x246263be	4.9090423e-17
169	0xada6d748	-1.896762e-11
170	0xb58accbf	-1.034139e-06
171	0xbe5dd72b	-0.21664111
172	0xbd6892ac	-0.056780502
173	0x9d12dd36	-1.9437302e-21
174	0x981b4cd3	-2.0072067e-24
175	0x28b9415b	2.056747e-14
176	0xbda09924	-0.07841709
177	0x3d3f21a1	0.04666293
178	0xbdf03873	-0.11729517
179	0x3e0c2626	0.13686427
180	0xb9b3e1a5	-0.0003430966
181	0xbe6f175b	-0.23348753
182	0x3d54b0ce	0.051926427
183	0xbd867301	-0.06564904
184	0xbddb3f85	-0.10705475
185	0xbdcf5002	-0.10122682
186	0xbc59d454	-0.013295252
187	0x3c038ce1	0.008029194
188	0xbb41b2a0	-0.0029555932
189	0x17cb549d	1.3139927e-24
190	0x36a48d72	4.9040473e-06
191	0x3d6599d7	0.056054916
192	0x3d3bd6a4	0.045858994
193	0x3ddfbb57	0.10924404
194	0xbd978b93	-0.073996685
195	0xa97909f8	-5.5297753e-14
196	0xbe312521	-0.1729932
197	0xbd2653e9	-0.040607367
198	0xbd6291b3	-0.05531473
199	0xbe6488b1	-0.22317769
200	0x388e6718	6.79029e-05
201	0x1021b75e	3.1892912e-29
202	0xbdc160c7	-0.09442287
203	0xbd1c1a2e	-0.038110904
204	0xbcf83763	-0.030299848
205	0x945e1e25	-1.1214081e-26
206	0xbd565f97	-0.052337255
207	0x3d0d1ca7	0.034451153
208	0xbd4361a4	-0.04770054
209	0xbd6c71c1	-0.05772567
210	0x364f2d4b	3.0871768e-06
211	0xbd867c32	-0.06566657
212	0x3d1bd664	0.038046256
213	0x3ce8e473	0.028429246
214	0xbded6574	-0.11591616
215	0xbe628dcb	-0.22124402
216	0x3dbf2212	0.0933267
217	0x3db4cb61	0.08827854
218	0x3e2b78ff	0.16745375
219	0xbe3805a0	-0.17970896
220	0x39210c34	0.00015358703
221	0x3da06f6a	0.078337505
222	0x3d789e4f	0.06069785
223	0xbc295bb3	-0.010336804
224	0x3c9917d4	0.01868812
225	0xbac692e1	-0.0015149974
226	0x3e17e09f	0.1483178
227	0x3315d12c	3.4882007e-08
228	0x3af56e8f	0.0018724966
229	0xbc94d9f4	-0.018170334
230	0x3dbb4021	0.09143091
231	0x3e0a65d5	0.13515408
232	0x3c5bac5d	0.013407794
233	0xbd4650d5	-0.04841693
234	0xbe520093	-0.20508032
235	0x373cb6d2	1.1248239e-05
236	0x3dee0681	0.11622334
237	0x3e18fabc	0.14939398
238	0xbd13df05	-0.03610136
239	0xbe4364ef	-0.19081472
240	0x2f6ec134	2.1714613e-10
241	0xbb2e2730	-0.002657365
242	0x298092d1	5.7098105e-14
243	0xbd6c5146	-0.057694696
244	0x3e0e7268	0.1391083
245	0xbdebac56	-0.1150748
246	0x3e457452	0.19282654
247	0xbd17bfe7	-0.037048247
248	0xbdfec215	-0.12439362
249	0x0620af9d	3.0221676e-35
250	0x3e04e8a3	0.12979369
251	0x9f848e13	-5.6139217e-20
252	0xa411f97b	-3.165318e-17
253	0x2fad1834	3.1485714e-10
254	0xb41e568e	-1.4746385e-07
255	0xbd4b9de2	-0.049711116

bias f4 [26]
0	0x3d89e982	0.06733991
1	0x3d076791	0.033057753
2	0xbcb438f1	-0.021999808
3	0xbd4397d6	-0.047752224
4	0xbcb56444	-0.022142537
5	0xbd52bd7e	-0.051450245
6	0x3cf3e6ca	0.029773135
7	0x3d423927	0.047417786
8	0xbbf101c9	-0.007354949
9	0xbc17dd6b	-0.009269099
10	0xbc0bdb81	-0.0085362205
11	0xbd38c94d	-0.04511385
12	0xbc0dcbeb	-0.008654575
13	0xbcd8be67	-0.026457978
14	0xbcdd8678	-0.027041659
15	0xbc89f18f	-0.016838817
16	0xbc642a11	-0.013926045
17	0x3b03154d	0.002000171
18	0x3c87273a	0.016498197
19	0xbc8dfc70	-0.017332286
20	0x3d405606	0.04695704
21	0x3ac3405c	0.00148965
22	0xbc721584	-0.014775638
23	0x3c285bbf	0.01027578
24	0x3cb342c9	0.021882432
25	0xbc17f312	-0.009274261
