properModelV1.pth (torch, 261805 bytes, 18 tensors)

weight f4 [6, 1, 5, 5]
000000 3b da 5f 3e bf ff 53 3d eb ae b9 3d 53 06 73 bd
       0.21860592 0.05175757 0.09066566 -0.059332203
000010 65 2b 5b 3c c4 89 00 3d 1e 4c 0c 3b e2 16 4c 3d
       0.013377045 0.031381384 0.0021407674 0.04982651
000020 84 a8 36 bd 1c 46 d1 bd 2f d4 4d 3d b6 2e 84 bd
       -0.044594303 -0.102184504 0.050251182 -0.06454222
000030 0f ab da bc ee 55 c8 bd b5 ae eb bd a2 07 e9 3d
       -0.026692895 -0.09782015 -0.11507932 0.11378409
000040 92 38 8f 3d 6a 59 36 3d da b6 91 bd 64 80 09 be
       0.06993212 0.044518866 -0.07114954 -0.13427883
000050 d6 c0 93 3d 0d 8a 24 3d 4b 0c 06 bc 9e a2 a8 bd
       0.07214515 0.040170718 -0.008181642 -0.08234142
000060 f8 cb a0 bd 27 bb 4d 3d 05 59 cc 3d 71 97 84 3d
       -0.07851404 0.05022731 0.09977917 0.06474198
000070 a7 d8 6d 3d 34 14 b7 bc c7 0e 0a bc 73 0f 51 3d
       0.058067944 -0.0223485 -0.008426375 0.051040124
000080 4e d1 0a 3e 89 3d 09 3e 57 26 c1 3d fd d5 50 bc
       0.13556406 0.1340238 0.09431141 -0.012746331
000090 bb 73 31 bd a7 05 22 bd 9d 9e 54 3d 48 b4 9b 3d
       -0.04332326 -0.03955617 0.051909078 0.07602745
0000a0 ce da d9 3b e8 73 7d 3b 86 31 ae bd 6c 54 ed bc
       0.006648398 0.0038673822 -0.085055396 -0.02897092
0000b0 e3 5c 22 3c ff a1 3b bd ba ae 65 bc a4 14 02 bd
       0.009909841 -0.04580879 -0.014018709 -0.031757966
0000c0 5d 7c e6 bd 8a 0e 5c bd 3a 64 82 3b 9c 80 1e be
       -0.11254189 -0.053724803 0.003979233 -0.15478748
0000d0 c0 cb 8c bd 5e 37 12 bd 98 f7 1d 3d da 25 d3 bd
       -0.068748 -0.035697334 0.038566202 -0.10309954
0000e0 f6 49 2f be 46 a3 9d bd c8 09 7b 3c c9 be 84 3d
       -0.17118058 -0.076971576 0.015322156 0.06481702
0000f0 35 f2 b1 bd 03 74 93 bd f7 a8 b4 3c 52 90 6d 3c
       -0.086887754 -0.07199862 0.022053225 0.014499741
000100 4f 4d 9d 3d 45 83 7b 3d 1a 82 90 3d 7e 67 a5 3d
       0.07680761 0.061404485 0.07056065 0.0807638
000110 bf 4e ea 3d 26 e3 1e 3c 82 d1 39 3d 14 8c 83 3d
       0.11440801 0.009697711 0.045365818 0.06423202
000120 66 af 8c 3d 8c 13 a7 3d 70 60 28 bc f2 b8 28 bc
       0.06869392 0.08158025 -0.010276899 -0.010298001
000130 da 8a 5c 3d 3e 85 e0 3d fb 48 ab 3c 31 30 8f 3d
       0.053843357 0.10962914 0.020908823 0.06991614
000140 79 f5 6f bd b2 41 32 be 66 e3 43 bd 89 dd fa 3d
       -0.05858371 -0.17407873 -0.047824286 0.12249286
000150 8d 1f 3b bc 8c f8 06 3e 30 fe f4 bd 74 e3 23 be
       -0.0114210965 0.1318075 -0.11962545 -0.16004735
000160 2c a2 b2 bd 82 77 11 3e ac a9 7c 3d e3 d3 6b bb
       -0.08722338 0.14205745 0.06168525 -0.0035984449
000170 59 04 86 bd ad 80 c6 bd 2d 4e b2 3c fb 7f 26 3e
       -0.06543798 -0.09692512 0.021765793 0.16259758
000180 1d f5 ce 3b a4 59 98 3a a5 54 c3 bd 43 e4 29 3c
       0.006315841 0.0011623395 -0.09537629 0.010369363
000190 91 9c b4 3d 66 bb 56 3b 76 7c 53 bd ff 10 e2 bb
       0.08818925 0.0032765507 -0.051632367 -0.0068989987
0001a0 a2 93 78 bd dd 8b 81 3e a9 f4 20 be 5c bf 39 be
       -0.06068767 0.2530202 -0.1571833 -0.18139404
0001b0 7e 4a 8a 3d a8 c2 33 3d 13 12 71 3e 84 2c 96 be
       0.067524895 0.04388681 0.23542051 -0.29330838
0001c0 fe f1 23 3c 5a 21 32 3d 47 ea ec bb 06 a4 81 bd
       0.010006426 0.043488838 -0.0072300765 -0.06330113
0001d0 23 d1 14 3d 67 3e 6b bd af 3f 80 3c 7a 2c 05 3d
       0.03633226 -0.05743256 0.015655367 0.03251312
0001e0 d8 34 e7 bc 2b 86 30 3d 9a b1 01 3d 1b c6 09 3d
       -0.02822344 0.043096703 0.031663515 0.033636194
0001f0 bd e0 5b bc 52 42 4d 3e 6d e6 f3 bc c6 64 af 3d
       -0.013420281 0.2004483 -0.029772962 0.08564143
000200 19 40 c2 bd 4b 3e 03 bd 60 e5 1a be 0b 0b 5a be
       -0.09484882 -0.03204183 -0.15126562 -0.21293275
000210 aa 9c b1 bd ff 6c e7 bd a2 f7 07 be a5 da fa bd
       -0.086724594 -0.11300086 -0.13278058 -0.122487344
000220 56 48 54 bc 59 f7 ec 3c 22 dc 36 bd 9c 3b 09 3c
       -0.012956699 0.028926538 -0.04464353 0.008376028
000230 46 a6 04 3e 6b a6 f0 bc 61 87 17 3e 99 0a 05 bc
       0.12954053 -0.02937623 0.14797737 -0.008120202
000240 1b 27 33 bd 70 40 e1 3d af 30 30 3e 61 0c 15 bc
       -0.043738466 0.109986186 0.17206071 -0.00909719
000250 60 5d 0b 3e 29 6a 32 3d
       0.13609838 0.043558273

bias f4 [6]
000000 9e b9 81 37 9f 70 08 36 90 6c 95 b6 76 af 19 b7
       1.5464433e-05 2.0331133e-06 -4.4531844e-06 -9.160363e-06
000010 da 59 70 b5 35 6c 62 38
       -8.953772e-07 5.3983375e-05

weight f4 [6]
000000 c3 5d 00 3f 92 f9 94 3e 6f 7b d2 3e f7 0f 9a 3e
       0.5014307 0.29096657 0.41109797 0.30090305
000010 32 3d bf 3e 0e a5 b5 3e
       0.37351376 0.3547749

bias f4 [6]
000000 1a 0e 6e be 21 e7 7d 3e f3 ba 97 bd 65 5a f5 bd
       -0.23247567 0.247952 -0.074087046 -0.11980132
000010 c9 a4 96 bd 2b 53 97 bd
       -0.07355649 -0.0738891

running_mean f4 [6]
000000 64 ea 81 bd 95 f4 0e 3f e5 0b 9b 3d 92 85 ca bc
       -0.063435346 0.5584195 0.07570628 -0.024721894
000010 7d 67 c1 3c 6d 78 ef bd
       0.023608917 -0.11692891

running_var f4 [6]
000000 3b b6 d4 3d 4d 7f 55 3d a2 1c 84 3d 82 b1 a0 3c
       0.1038632 0.052123357 0.06450774 0.019615892
000010 d4 78 a7 3c ab c2 0f 3d
       0.020443358 0.03509776

weight f4 [16, 6, 5, 5]
000000 14 6f 08 3b 27 1d 05 bd 80 7f 43 3c 06 e0 bf b9
       0.002081816 -0.032498505 0.011932254 -0.0003659727
000010 ee 2a 7e 3d 58 33 7e bc 42 d8 7e bd f4 e0 91 bd
       0.06205266 -0.015515171 -0.06221796 -0.071229845
000020 46 58 99 bd 5c 80 d7 3c 9f 14 4c 3d e9 51 11 bc
       -0.0748754 0.026306324 0.049824353 -0.008869627
000030 16 aa ab bd 5a b8 b9 bd 6f d1 8c bc fe 13 c0 3d
       -0.08382051 -0.090683654 -0.01718971 0.09378813
000040 e7 73 36 3d 0f 48 f1 bc 77 d6 73 bd d9 11 0b bd
       0.044544127 -0.029453306 -0.0595307 -0.033952568
000050 6b 57 89 3c d8 02 28 3d 76 60 7a 3d 7d 98 10 3d
       0.016765317 0.041018337 0.06112715 0.035301674
000060 56 e7 a3 bc d6 ca f2 bb 06 d3 d5 3c 3d 61 cf 3d
       -0.02000777 -0.007409434 0.0261016 0.101259686
000070 da fb 66 3d 50 aa f0 3b 6e 8e 17 bb 8c 46 98 3b
       0.056392528 0.0073445216 -0.0023125666 0.0046470817
000080 35 b8 52 3b bc 29 55 bc 91 19 5e 3b a2 60 81 3b
       0.0032153253 -0.0130104385 0.003388975 0.003948287
000090 00 92 2b bd d9 45 54 bd 11 d7 1d bd 38 bc f2 bb
       -0.041887283 -0.051824424 -0.03853518 -0.0074076913
0000a0 5d 73 d5 3c ac 0f e9 bc 7b 92 bb bd 66 39 0a bd
       0.026055986 -0.028449856 -0.09158798 -0.033746146
0000b0 03 ac d8 3a 9f 87 88 3c 87 d8 8d 3c 06 0f 13 bc
       0.0016530756 0.016666232 0.017315162 -0.00897575
0000c0 b3 45 1d bd 8f d2 cb 3c c6 e3 20 3d fc 00 88 3c
       -0.03839655 0.024880676 0.03927972 0.016602032
0000d0 a7 56 dd 3c f1 f5 09 3c 13 b9 e4 3b bf 9a a6 3c
       0.027018858 0.008420453 0.0069800704 0.02033746
0000e0 98 62 12 3d a9 ee cc 3c 17 7f ea 3c d9 06 c9 3c
       0.035738558 0.025016146 0.028625054 0.024539398
0000f0 f6 a0 94 bc f6 d4 2d 3c d8 f6 23 bc be 8e 05 bb
       -0.018143158 0.010609856 -0.010007583 -0.002037927
000100 9a e4 58 3b 34 0d 44 3c 04 2b 3e bd 6f 32 bb bd
       0.0033095242 0.0119660385 -0.04642774 -0.09140479
000110 53 81 90 bd 22 ed e1 3c e1 8d f4 bc d7 a6 aa bc
       -0.07055917 0.027578894 -0.02985281 -0.020831509
000120 de 73 bb bb b7 61 80 bd 6f ee 0a bc 74 ed c7 bc
       -0.0057205996 -0.062686376 -0.008479699 -0.024405219
000130 bb 08 e2 3c db d2 8f 3d b5 f4 6a bc d6 d1 8c 3c
       0.027592054 0.07022639 -0.014340569 0.017189901
000140 99 2f 25 3d 5e b6 52 bc ed 2c d8 bc 86 66 28 bc
       0.040328596 -0.012860863 -0.02638861 -0.01027835
000150 10 8e 5a bb 1d 93 0b 3d 0b 60 de bb 54 13 37 bc
       -0.0033348836 0.034075845 -0.0067863516 -0.011174042
000160 26 dc db bc db 7f dc 3c 52 fb 19 3d f9 11 b1 bc
       -0.026838373 0.026916435 0.037593193 -0.021615015
000170 89 8a b5 bc bb 87 ad 3b 43 0f 3c bd 3b 58 6f bb
       -0.022160785 0.0052957213 -0.045912992 -0.0036521095
000180 7a 96 97 bb dc d6 a7 bc ec 6c 61 bc 48 a1 c8 ba
       -0.0046260925 -0.020488195 -0.013758879 -0.0015306855
000190 27 32 7a bc 0f cd 00 ba 68 e3 db 3a e5 c4 f4 bc
       -0.015270746 -0.00049133686 0.0016776146 -0.029879043
0001a0 6b cc 13 b9 00 3d 47 3b 77 b4 39 3d 82 d5 3c 3d
       -0.00014095164 0.003040135 0.04533812 0.046102054
0001b0 08 44 10 3d 0a cd 48 bc 6b 7b 9c bc b9 79 2e bc
       0.03522113 -0.012255916 -0.019101819 -0.010649138
0001c0 b5 db b2 3c 22 f7 9b 3d e6 6d 20 3d 73 65 47 3c
       0.02183328 0.07615496 0.039167307 0.0121701835
0001d0 c6 0c 08 bd 01 57 39 3c 23 a7 06 3c 14 0f a1 3d
       -0.033215307 0.011312247 0.008218559 0.07864204
0001e0 2a e5 9c bc 3f a5 14 bd 22 b6 1c bd b5 38 1b bd
       -0.019152243 -0.036290403 -0.038259633 -0.037895877
0001f0 b0 5e 51 bc 48 5b 73 bd 77 f1 32 bd 3a 49 17 3d
       -0.012778923 -0.059413224 -0.04368731 0.03693507
000200 07 eb b0 3c a5 51 a7 bc f3 e4 e5 bc 07 cc 03 bd
       0.021596445 -0.020424673 -0.028063273 -0.032176998
000210 7f 90 83 3c 17 59 55 bd 86 88 b0 bc 53 59 87 3b
       0.016060112 -0.052086916 -0.021549474 0.0041305213
000220 6e e8 17 bb 5c ca 86 bc 8d 41 46 bd 0c 31 aa 3c
       -0.002317931 -0.016453914 -0.048402358 0.02077534
000230 9f 54 6e 3d 4b c8 50 3d 37 bd c6 3c d8 7d c5 3c
       0.05818617 0.050972264 0.024260147 0.024107859
000240 fc 8d 28 3d f6 09 5c 3d 2a ec a4 3d f7 6b a4 3d
       0.04115103 0.053720437 0.08052857 0.08028405
000250 4f 3b 19 3d b6 83 ce 3d b9 f2 ef bb 60 be b1 3b
       0.037410077 0.100837156 -0.007322636 0.005424306
000260 c8 d7 8d bb 3d 83 3f 3c 69 2e f1 3c a7 5c 0a 3d
       -0.0043287016 0.0116890045 0.029441075 0.033779766
000270 15 67 62 bd de 7f e6 bd 2d 60 a7 bc 80 11 16 3d
       -0.055274088 -0.112548575 -0.020431602 0.036637783
000280 23 05 45 3d ba 94 87 bd 32 e1 09 be 41 76 0a bc
       0.048100602 -0.06620164 -0.13464811 -0.0084510455
000290 3d 26 84 3d f2 37 b1 3c 16 e0 77 bd ed b9 ed bc
       0.06452606 0.021633122 -0.06051644 -0.02901932
0002a0 ea 7e 18 3d 9a 3c 79 3c fb f1 74 bc 5c 45 1a 3c
       0.03723041 0.015212202 -0.014950271 0.009415951
0002b0 93 de 40 3c a5 4f 82 bc d9 aa 0d bd 83 be 57 3d
       0.011771816 -0.015907118 -0.03458676 0.05267192
0002c0 64 f2 66 3d 88 bc 50 3d 3d 55 7a 3c 27 c4 69 3c
       0.056383505 0.050961047 0.015279111 0.014267958
0002d0 bd 96 82 3c b2 9c 82 bd 42 81 c0 bd 1d e1 12 bd
       0.015941018 -0.063775435 -0.09399654 -0.035859216
0002e0 8a f6 0e 3d 73 97 13 bb 4d c1 f9 bd 10 68 a8 bd
       0.034903087 -0.002252069 -0.12195072 -0.08222973
0002f0 20 92 bf ba f2 38 4a 3d 29 6c 0a bd 3f 51 45 bd
       -0.0014615692 0.049370714 -0.033794556 -0.048173185
000300 e0 22 0e bd cb 80 8a 3a 03 b7 1c 3d 8c df 79 3b
       -0.03470123 0.0010566948 0.03826047 0.003812763
000310 9c 8c 87 bc c0 af e0 3b 8d 6a 12 3d 22 4a a1 3d
       -0.01654654 0.0068568885 0.035746146 0.07875468
000320 88 6e db 3b 97 b5 19 3c b2 bc 82 3b 97 50 07 bd
       0.006696526 0.009381673 0.0039897794 -0.03303584
000330 d5 ac 71 3b bb ce 6b 3c 91 33 ef 3c fc 09 91 bb
       0.0036876698 0.01439255 0.029199393 -0.004426239
000340 8b cc 3a bd e4 be ab bb 96 1f 36 bc fd ae a4 bd
       -0.045605224 -0.005241262 -0.011115929 -0.08041189
000350 84 f3 96 bd 6e d1 2d bc 3a 83 a2 3d 20 0b 26 3c
       -0.07370666 -0.010609014 0.07935186 0.010134488
000360 7e 5e bf bd d3 ec 50 bd b5 8e 9d 3d 29 24 0f 3e
       -0.09344195 -0.051007103 0.07693235 0.13978638
000370 54 37 fb bb 84 5d 5c bd ba 55 29 bd 3b 7f f4 3c
       -0.0076665077 -0.05380012 -0.04134152 0.029845824
000380 a7 d9 3c 3d 8b 42 17 bc 88 68 96 3a cf 8c 87 3c
       0.046106007 -0.009232174 0.0011475245 0.016546635
000390 66 fb 34 3c e8 7c dc 3c 6f 50 b9 3b dc ae db bc
       0.011046266 0.026915029 0.0056553404 -0.026816778
0003a0 4c d4 04 bd 81 5b 06 3c b0 57 a1 3c 9c e6 27 3c
       -0.032429025 0.008200527 0.019695133 0.010247853
0003b0 6a b6 00 bd 20 31 cc bc 87 43 52 3c 1d c6 da 3c
       -0.031423964 -0.024925768 0.012833483 0.026705796
0003c0 3f a4 00 3d 37 58 f0 bc 06 13 7d bc ff e1 9a 3c
       0.031406637 -0.02933894 -0.01544643 0.018906591
0003d0 4a c5 93 3c 73 47 c8 3c 92 88 1d 3a 97 0a e7 bc
       0.01803841 0.024448132 0.0006009425 -0.028203292
0003e0 0a d4 c5 bc 32 d4 e5 ba be 17 1d bc 24 f7 52 3c
       -0.02414896 -0.0017534553 -0.00958818 0.012876306
0003f0 5a 3d 44 3c 91 2a 17 3c 1a 22 81 bc 63 a2 53 3c
       0.011977518 0.009226457 -0.015763331 0.012917134

bias f4 [16]
000000 e3 8d c1 36 d4 b9 3d b6 98 b3 e1 b5 69 6d b8 b7
       5.768366e-06 -2.827136e-06 -1.6816075e-06 -2.1985457e-05
000010 23 c0 25 b7 de a7 17 b7 86 d9 09 b8 0e 07 fc b6
       -9.879502e-06 -9.039386e-06 -3.286593e-05 -7.5110065e-06
000020 38 9d 23 b5 e8 1c b1 38 d5 c2 b5 b6 16 fd 99 37
       -6.0951015e-07 8.445402e-05 -5.416902e-06 1.8356874e-05
000030 b5 40 5b 37 e6 ef ae 36 a6 78 d4 b6 3c 5a 06 36
       1.3068483e-05 5.213532e-06 -6.3321377e-06 2.002008e-06

weight f4 [16]
000000 8b a9 8b 3f b0 51 a1 3f a9 5b 7f 3f 43 0b 91 3f
       1.0911115 1.2603054 0.9974924 1.1331562
000010 24 a3 76 3f f2 01 9a 3f fd 1b 95 3f a2 6b 8a 3f
       0.9634268 1.2031844 1.1649166 1.0814097
000020 25 d0 93 3f 25 f1 91 3f c2 ac aa 3f 11 01 87 3f
       1.1547896 1.1401716 1.3333972 1.05472
000030 bb f1 ae 3f c0 fa 8a 3f a7 78 a4 3f 94 9a 93 3f
       1.366752 1.0857773 1.284932 1.1531549

bias f4 [16]
000000 97 74 37 3d 8e 22 ad bd 95 8a 5d 3d 96 bd ff 3d
       0.044788923 -0.084538564 0.05408724 0.124873325
000010 89 dc 46 3b 56 6a 35 bd 0b d8 ed 3d 9f db 8f 3d
       0.0030343852 -0.044290863 0.116134726 0.07024311
000020 13 9f 9c 3d 9e 58 10 3c 7e 82 12 3e 24 a8 b5 3d
       0.076475285 0.0088101905 0.14307591 0.08869961
000030 8e d4 8e 3d a4 2f 28 3d 85 22 12 3e 94 54 15 3e
       0.06974135 0.04106106 0.1427098 0.14583045

running_mean f4 [16]
000000 ff 45 54 3c 09 47 35 bd 5e 69 18 3d 0e c4 af bd
       0.0129561415 -0.044257198 0.03720986 -0.08582316
000010 87 03 5f bd 11 ba 96 bd f8 c7 d9 bd f1 b2 95 3c
       -0.054446723 -0.07359708 -0.10633844 0.018273802
000020 e1 c3 14 3d fa 87 12 bd 5c ba 71 bd c9 d7 3e 3c
       0.036319617 -0.03577421 -0.059015617 0.011648127
000030 9c 33 91 bb d2 6f 22 3d a2 d4 29 3b 7f 2b da 3d
       -0.004431201 0.03965742 0.0025914093 0.106528275

running_var f4 [16]
000000 21 b5 6e 3c ce cf ae 3c ba 52 9f 3c fc e7 c4 3c
       0.014569552 0.021339323 0.019448627 0.0240364
000010 b6 c6 18 3c 73 26 c0 3c e2 e5 62 3c ac 56 80 3c
       0.00932472 0.023455834 0.013848754 0.015666328
000020 06 d7 85 3c 51 66 a2 3c 41 2f b2 3c 4f 5a 61 3c
       0.016337883 0.019824179 0.021751048 0.013754441
000030 23 6d cb 3c 80 af b5 3c 29 3a da 3c eb b5 e6 3c
       0.024832314 0.022178411 0.026639061 0.028162917

weight f4 [120, 400]
000000 71 99 46 3c 02 18 91 3a aa d4 ab 3c b3 1d 0d 3d
       0.012121544 0.0011069777 0.02097543 0.03445215
000010 30 fc 26 bb da 0d 42 bc e9 ac 4a bc af 72 57 3b
       -0.0025479905 -0.011844123 -0.012370327 0.0032874753
000020 fa f3 35 3d 6e 21 89 3d 2e 8a d1 bc 43 7f db bc
       0.044422127 0.06695829 -0.025578585 -0.026794082
000030 b0 c3 24 bc cf af b9 3c 30 bc 5c 3d 4f 7a 30 bd
       -0.010056421 0.02266684 0.053890407 -0.043085393
000040 5a 35 2e bd f2 97 bc bc 71 69 88 bc 00 2b fb b8
       -0.04253135 -0.023021672 -0.01665184 -0.00011976622
000050 6a f1 db bc 06 db 0c bd 21 0b 25 bd a9 b1 a2 bc
       -0.026848514 -0.034388565 -0.040293816 -0.019860106
000060 3e 58 18 bd a0 05 5b 3c db 62 64 3c ba 66 08 3d
       -0.03719353 0.01336804 0.013939585 0.033301093
000070 0f 7b 83 3d 56 8d 49 3d 57 76 0b 3c 8f 58 14 bc
       0.06419956 0.049207054 0.008512101 -0.009054317
000080 77 43 8f bc af 1c a8 3c b9 23 59 3d e7 c3 e6 bb
       -0.017488224 0.02052149 0.053012583 -0.0070423963
000090 5e 6f aa bc 0a 71 e2 bc c4 db 30 bb 8d 1b 08 3d
       -0.020805057 -0.027641792 -0.002698646 0.0332294
0000a0 a7 76 a3 bc 9b f5 13 bd d8 e5 0c bb ec b0 eb bc
       -0.019954039 -0.0361229 -0.0021499302 -0.028770886
0000b0 6f 9f 0a bc 1b b3 cd bc 5f d7 f5 bc 72 18 07 bc
       -0.0084608635 -0.025109818 -0.030009924 -0.008245574
0000c0 08 e9 3a bc 44 19 82 bd 1d ed fd 3b 38 e5 62 bc
       -0.011408098 -0.06352475 0.0077492134 -0.013848595
0000d0 a3 e7 e3 bc 8a 86 82 bc 46 03 b4 3b 00 95 d5 bc
       -0.027820414 -0.015933294 0.0054935543 -0.026072025
0000e0 d6 89 8d bd 6b 01 89 bd 43 31 07 bb e2 05 d0 3c
       -0.06911056 -0.066897236 -0.0020628728 0.02539343
0000f0 d4 d3 2e bd 37 c7 58 bd 85 13 99 bc 34 ac c9 bc
       -0.042682484 -0.05292436 -0.018686065 -0.024618246
000100 c6 fc 22 bc af e7 3f 3b 57 bc fa bb 35 fd 31 bc
       -0.009947961 0.0029282381 -0.0076518464 -0.010863592
000110 35 bc 57 bd 0b 82 0c bd af 5d cf 3b cd 06 4e 3c
       -0.052669723 -0.034303706 0.0063283066 0.012574864
000120 89 f8 e0 bc 0f bb 2f bd 6a 27 ea bb fa c0 9a 3c
       -0.02746226 -0.042903002 -0.007145812 0.018890847
000130 35 9e 16 3d 3a 0c 3f 3d 36 ec 3f 3d de d3 29 3d
       0.03677197 0.04664252 0.046856128 0.041461818
000140 6c c8 2e bb 2b ba 1a bc 1e 15 a5 3b f7 14 1a 3d
       -0.0026669754 -0.0094438 0.0050379178 0.03761765
000150 46 b4 c6 3c 51 43 c1 3b 33 de 01 bb 36 bb 1b bd
       0.024255883 0.0058979173 -0.001981628 -0.038020335
000160 c0 8d 8d 3b d4 b9 1f bc ba 16 d4 3c 2f b1 f2 3b
       0.0043198764 -0.009748895 0.025889743 0.007406376
000170 c9 c5 2c 3a 9f bd 18 bd 4b ac 3a bd b7 f9 90 3c
       0.00065907516 -0.03729021 -0.045574468 0.017697198
000180 37 df a9 3c 00 cc 81 bb 0a 5c 32 bd 32 d2 45 3d
       0.02073632 -0.0039610863 -0.043544807 0.04829616
000190 04 fe 21 3d eb b8 65 3c fe e6 04 3c 9d cc f5 3c
       0.03954889 0.014021139 0.008111713 0.030004794
0001a0 5e a3 b9 3c 61 7f 84 3c ae 79 5d 3b 11 28 1d bd
       0.022660907 0.01617402 0.003379445 -0.03836829
0001b0 46 e5 33 3c e3 f2 cc 3c e6 90 ba 3c 57 1e 27 bc
       0.010979956 0.025018161 0.022774171 -0.010200105
0001c0 3a f1 85 3c f1 56 82 3b 85 91 88 b9 fa 8d c7 3b
       0.016350377 0.0039776494 -0.00026048362 0.006089923
0001d0 34 97 d3 bc cb c7 4d 3c 20 1a aa 3c e0 d1 db ba
       -0.025828935 0.012559841 0.02076441 -0.0016770922
0001e0 dc c7 97 ba 26 6a 07 bd fa ad a3 bc 83 4d ba 3b
       -0.0011579948 -0.033060215 -0.01998042 0.0056855096
0001f0 3f d6 d6 3c b4 f1 9c 3c 6f dc 8f bb 0f cf d4 bc
       0.026225207 0.019158222 -0.0043902914 -0.02597764
000200 01 62 13 3d a3 74 73 3d c4 d7 24 3c 59 cb 27 3c
       0.035982136 0.059437405 0.010061208 0.010241353
000210 dc 16 0c 3d de df 9c 3b b7 a4 2e 3d b9 e7 94 3b
       0.034201488 0.0047874292 0.042637553 0.004544225
000220 5b 0d 20 3d 11 14 f7 3c 89 70 97 3d 24 26 82 3c
       0.039075237 0.030160936 0.07394511 0.015887327
000230 71 68 41 bc 64 a2 15 3d 41 5a b5 3d 77 ed a1 3d
       -0.011804686 0.03653182 0.08855105 0.07906621
000240 54 6b 62 3c 29 2e d1 3c 65 66 33 bb a3 03 58 3d
       0.013819534 0.025534706 -0.0027374264 0.052737843
000250 96 0a fb 3c 88 73 03 bc 9a 43 2d bb dc 7a 1e 3b
       0.030644696 -0.00802315 -0.0026437999 0.0024182117
000260 c0 db 87 3b 84 6d 0c bd 20 24 87 bd aa 9e 82 3b
       0.0041460693 -0.03428413 -0.06598687 0.0039861994
000270 c5 f9 66 bc e4 9c bb bc 42 49 70 bc 67 cc 0d bd
       -0.014097636 -0.02290196 -0.0146659035 -0.03461876
000280 f3 57 34 bb 24 56 0c bd 6c ad 00 bd 6a 7d d4 bb
       -0.0027518242 -0.034261838 -0.031415388 -0.006484677
000290 0a e4 90 3c 40 49 ce 3c fc 17 8c 3b 3e bf dc bc
       0.017686862 0.025181413 0.00427532 -0.02694666
0002a0 0b 53 52 bc f0 cf e1 3c cf 06 d8 3c 9e ce 4e 3d
       -0.012837182 0.027564973 0.026370434 0.050490014
0002b0 09 83 a7 3b b7 6f 16 bd 55 f5 c2 bc 7a 8f 98 ba
       0.005112056 -0.036727633 -0.023798624 -0.0011639439
0002c0 31 27 82 bc fc f1 6b bd bd c1 71 bd 19 df 4e bd
       -0.015887829 -0.05760382 -0.059022654 -0.05050573
0002d0 c1 a0 bd bc d6 9e 4c bc c2 82 54 3c e3 ac 2c bc
       -0.023147942 -0.012489041 0.012970628 -0.010539266
0002e0 87 6a 12 bd 3f bb 15 bc f6 11 e5 3c 1e 00 b8 bc
       -0.035746124 -0.009138881 0.027962666 -0.022460993
0002f0 a1 13 94 3c 3d 7a 24 bc 7a f4 84 3b b8 89 4a 3d
       0.018075766 -0.0100389095 0.004057464 0.049447745
000300 52 ca 11 3d d6 e1 a6 bc 91 f3 1d 3d 84 84 37 3c
       0.03559334 -0.020371359 0.03856236 0.011201028
000310 25 06 03 3d 76 9d 5e 3d fa 84 48 3d 76 d5 19 3d
       0.03198828 0.054349385 0.04895494 0.037557088
000320 b9 0c 5a bc 67 5c 6c bc 03 2b fe 3c e9 87 f8 3c
       -0.013308697 -0.014426327 0.031026369 0.030338245
000330 29 10 f7 ba 3a d6 8b b9 d4 ca 03 3d 84 f0 b4 3d
       -0.0018849421 -0.00026671757 0.032175854 0.08834937
000340 87 bf 8e 3d 2e bf af 3c 32 72 59 bb cf 13 aa 3b
       0.06970125 0.021453466 -0.0033179638 0.0051903496
000350 2c 2f bf 3c 9c 88 6d 3d 94 5b d9 3b 4b 1e 82 bb
       0.023337923 0.05799161 0.0066332314 -0.0039708964
000360 60 e6 af ba ba 60 c0 bc 56 99 98 3a b4 de c6 3c
       -0.0013420098 -0.023483623 0.0011642377 0.024276115
000370 f7 39 1c 3d e0 5d e9 b7 94 fb de bb 68 e6 ef ba
       0.038141217 -2.7819478e-05 -0.006804893 -0.0018302919
000380 7c e9 bd 3c f2 fd 97 3c d2 f1 f7 3a 53 08 fb bc
       0.023182623 0.018553708 0.0018916673 -0.030643618
000390 f7 77 25 3c 87 27 7b 3d 5c e5 74 3c f5 4e e6 3b
       0.010099403 0.061316993 0.014947262 0.0070284554
0003a0 80 e9 16 3a 87 ad 48 3d 67 f0 3c 3d 8c d7 cc ba
       0.000575684 0.048993614 0.046127703 -0.0015628203
0003b0 f1 dc 0f 3c da d0 52 3d 8a 2d 6f 3d a2 ed a4 3d
       0.008780704 0.051468708 0.05839304 0.08053137
0003c0 0c 10 16 3c 13 e6 a6 3b f5 54 65 3d 0f 5d 04 3d
       0.009159099 0.005093345 0.055989224 0.03231531
0003d0 13 09 a2 3d dc 22 de 3c 59 e4 8c bc 2f d6 49 bd
       0.07911887 0.027116232 -0.017198728 -0.049276527
0003e0 c3 94 9b bc 3b 6f 64 ba be 5d d3 3c 6a 94 57 bb
       -0.018991834 -0.00087140844 0.025801536 -0.0032894858
0003f0 38 27 b9 bc de 75 cb bb cd 55 c3 3c 8d 22 1a bc
       -0.022601709 -0.006209119 0.023844624 -0.009407652

bias f4 [120]
000000 ab e4 8e 3b 66 b3 a6 3c e5 83 0e 3c 90 b0 96 ba
       0.0043607554 0.020349216 0.008698438 -0.0011496712
000010 bc b3 4c bb 0d 68 1c 3c ff f4 04 bb 71 9d 91 3b
       -0.003123506 0.009546292 -0.002028763 0.0044438173
000020 d5 fe d3 b6 4d b1 20 b5 60 00 01 3c 8d f2 9b b9
       -6.3179564e-06 -5.986265e-07 0.007873625 -0.00029744618
000030 40 ab ce 37 9e 83 35 3c 28 31 54 ba c5 45 64 bc
       2.4636858e-05 0.011078743 -0.0008094483 -0.01393265
000040 ee 84 4a 3b 72 a8 00 3c 76 f9 4b 3c f0 89 94 3b
       0.0030901986 0.0078526605 0.012449613 0.004533045
000050 a1 66 be 3b b2 da 6f b3 5e d7 1a bb f3 8d d9 3a
       0.005810574 -5.5845426e-08 -0.0023626904 0.001659809
000060 07 97 15 bb 5d e3 52 3c 3d 2d 92 af fe 11 57 3b
       -0.0022825615 0.01287159 -2.658939e-10 0.003281712
000070 4d 68 cc b3 4c f7 90 3b 76 b2 61 b8 ab dc 08 b7
       -9.5184625e-08 0.0044240113 -5.3810385e-05 -8.15761e-06
000080 44 51 e9 3c 60 d5 fc 36 49 7b 33 3b 62 96 c7 ba
       0.028481133 7.5350254e-06 0.0027386716 -0.0015227313
000090 7e ec ed 39 44 d2 b0 bb ec 66 08 3c 8f 23 31 3c
       0.00045380363 -0.0053961594 0.00832532 0.0108117005
0000a0 3c 6b ef 3b fe 00 d2 3c 88 0f 73 3c fa c8 83 b9
       0.0073064845 0.025635239 0.014835246 -0.00025136006
0000b0 1d 74 00 3c 05 c9 38 3b d4 95 30 3b b7 b4 d2 b5
       0.007840184 0.002819599 0.0026944773 -1.5698814e-06
0000c0 5e c4 2a b6 f1 8b 00 bc b0 93 41 b9 8c fd f4 39
       -2.5446275e-06 -0.007845865 -0.00018460932 0.00046728214
0000d0 6c ef 08 3b a1 08 ca 3a 94 1e 76 3b bd 94 74 bc
       0.002089466 0.0015413949 0.0037554847 -0.01492804
0000e0 e0 8a 82 3c fc 86 12 3b 02 61 29 3a ef c6 aa 3b
       0.015935361 0.002235829 0.00064612937 0.005211703
0000f0 a9 93 7b 3b 48 11 95 3b 5c 2b 93 3b 1c 4c b1 3c
       0.0038387573 0.004549179 0.004491253 0.021642737
000100 c6 e6 6e 3b 00 8d 22 3c 2d 5d 6c 3c 62 17 84 3b
       0.003645347 0.009921312 0.014426512 0.0040311078
000110 5b 33 50 b8 70 89 f4 b5 2c 53 a0 3b 81 48 2b 37
       -4.9638893e-05 -1.8219416e-06 0.0048927274 1.0209275e-05
000120 e2 e8 0a 3b 28 d1 e8 39 71 3f 12 3b 24 67 5b 39
       0.0021195938 0.00044406322 0.0022315646 0.0002092389
000130 be 2f 0b 3c 99 53 d2 3b 8a 91 1b 3c df 2e 89 af
       0.008495269 0.006418657 0.009495148 -2.495346e-10
000140 a7 87 db 3c f4 c1 0b 3c 48 1c 3a 3c a4 4b 5f 3b
       0.026798083 0.008530129 0.011359282 0.0034072185
000150 98 4d ad 3a 36 7f 22 3b 14 f8 75 3c f2 6a 47 3c
       0.0013221977 0.0024795062 0.01501276 0.012171494
000160 b6 6f 02 3c f7 14 e2 3b 17 7f e7 3a 64 fd 0f 3a
       0.007961204 0.006899472 0.0017661777 0.0005492775
000170 46 70 6d 3c 50 3e ba 3b 02 eb f3 3c eb 8d 1d 3c
       0.0144921 0.0056836978 0.029775146 0.009616355
000180 c2 fd 56 3c 2b 87 7a b7 d6 5d c1 3a 29 70 0d 3c
       0.013122024 -1.4932632e-05 0.0014752697 0.008632698
000190 39 54 9a 3b 5d 9f 8c 3c 01 7a 55 3c e4 d9 9c 3a
       0.004709747 0.017165834 0.013029576 0.0011966792
0001a0 d0 50 59 b7 3a 6c 8e b9 e2 6e 80 3c dc f2 4b 3b
       -1.29530235e-05 -0.00027164986 0.015677873 0.0031120097
0001b0 e1 f4 11 3c 84 35 d9 ab ba aa 40 b0 22 fe 23 bb
       0.008908481 -1.5433631e-12 -7.009181e-10 -0.00250233
0001c0 0d 08 05 3c 36 25 4c bb 61 7f 5d 3c 2a 97 d7 3b
       0.008119595 -0.003115011 0.013519139 0.0065792995
0001d0 ae 2e 81 3a 2d 53 92 bb f5 66 23 3c de 1d 5e 3c
       0.000985583 -0.0044654817 0.009973277 0.013556926

weight f4 [84, 120]
000000 87 b2 ef bc dc 43 85 bd 84 59 61 bc 56 07 b2 3b
       -0.029259933 -0.06507084 -0.013754252 0.0054330034
000010 5d ca 65 3e 7b 07 29 bd 5f 51 f3 bd 2d b1 5d bd
       0.22440477 -0.0412669 -0.11880755 -0.054124046
000020 e0 2f 93 b8 54 41 26 39 75 a2 6a bd bd 4f 11 3b
       -7.018424e-05 0.0001585533 -0.057283837 0.0022172772
000030 d6 0c 76 bd 80 6d 21 3d f8 e5 1d 3b 13 59 da bd
       -0.060070835 0.039411068 0.002409337 -0.10661521
000040 21 c2 8a bd 36 2b 15 bc 13 ae 17 3d 4a f1 4b 3d
       -0.067753084 -0.009104541 0.037031244 0.049790658
000050 a2 ee 85 bc 61 07 10 b7 9a d8 a6 3d 11 ac 10 3e
       -0.01634914 -8.584787e-06 0.08146782 0.14128138
000060 76 01 36 3d 72 9b b4 3c 57 ca ff 30 e6 4e 32 3c
       0.044434987 0.022046778 1.86112e-09 0.010883069
000070 af 90 d8 b4 03 41 45 bd 70 0b ef 39 c2 86 9a b7
       -4.0338406e-07 -0.048157703 0.00045594154 -1.8420982e-05
000080 2f 23 2f 3e fb 9d 9d 39 f9 cf 8f 3b c7 c9 b7 3d
       0.17103265 0.00030063078 0.004388806 0.08974033
000090 5b a9 e5 3d 64 87 b0 bd 5b 3c 77 3e 2c c6 4c bd
       0.112139426 -0.08619574 0.24144118 -0.04999368
0000a0 26 0f a4 3c e0 40 5f 3b cb 50 21 be b2 de ae bc
       0.020026755 0.0034065768 -0.15753476 -0.021346424
0000b0 81 6b cd bd d4 78 b6 38 c8 10 23 3e 90 69 d2 b5
       -0.1003027 8.700942e-05 0.1592437 -1.5676942e-06
0000c0 ae 44 b5 38 c5 b2 a7 3d bc bd f6 3c 2b 38 52 3b
       8.643545e-05 0.081883945 0.03011977 0.0032076936
0000d0 1f 38 9b bc 26 b4 e6 3d 9b 4c ed 3d 28 49 80 3c
       -0.018947659 0.11264829 0.11586877 0.015659884
0000e0 7e 2f 99 3d c5 63 f2 ba 98 7e 00 bd be c4 3f bc
       0.074797615 -0.0018492868 -0.03137073 -0.011704622
0000f0 35 ed bf bc 46 eb 08 be 6f ba 99 bd 01 dd e2 3d
       -0.023428539 -0.13371 -0.075062625 0.110773094
000100 31 7c 72 bd 54 30 02 be a2 e6 e3 3b da 0c a5 3d
       -0.05920047 -0.12713748 0.006954984 0.08059092
000110 c1 be ff 37 1f 52 fe 36 68 49 12 3b 5a 35 e4 b7
       3.0487196e-05 7.57935e-06 0.0022321586 -2.7204562e-05
000120 28 89 15 3e 77 fb f2 3c e3 42 90 3c 03 c2 59 3d
       0.14603102 0.029660923 0.01761002 0.05316354
000130 f6 9a f9 3d 4d fb 82 3d c4 02 d8 3d 68 6f 3b 31
       0.121877596 0.06395588 0.105474025 2.7275409e-09
000140 01 58 b7 3d b4 64 77 3d 97 6a 31 be 3c 5c 27 bd
       0.08952332 0.060398772 -0.17325817 -0.040859446
000150 d8 60 07 bb 42 43 0a be 3f ef 98 3b 37 46 72 bd
       -0.0020657089 -0.1350222 0.004667192 -0.059148993
000160 29 39 ac 3c d6 36 b7 bd 19 f1 87 3d 80 c5 61 bc
       0.02102335 -0.08946006 0.066377826 -0.013779998
000170 c3 0d 92 3d b1 1b 4b bd df 6e 6c 3d 07 c6 62 bd
       0.07131531 -0.049586955 0.057722922 -0.055364635
000180 f1 f0 07 be 25 a9 71 39 66 2f b1 3d d2 12 29 3e
       -0.13275506 0.00023046562 0.08651619 0.16511086
000190 c0 d4 cb ba c9 d6 eb bd 3a 4d 5d bd c3 fb 38 3b
       -0.0015551075 -0.115155764 -0.054028727 0.0028226234
0001a0 aa f0 34 b8 74 76 26 bc 6f 52 4c 3e ea 0c 7b bd
       -4.313948e-05 -0.010160077 0.19953321 -0.061291613
0001b0 e7 8c a8 3d 37 eb 01 a9 16 72 14 31 0a f5 d5 3d
       0.0823 -2.884777e-14 2.1601685e-09 0.10447128
0001c0 a0 63 e7 3d e1 3d 36 bc c0 4a 01 be 2a 9e 35 bc
       0.11298299 -0.0111231515 -0.12626171 -0.0110850725
0001d0 14 96 c8 bc c9 62 30 bc 37 b6 45 bd d6 fe 01 bd
       -0.024485625 -0.01076574 -0.048269477 -0.03173717
0001e0 be 23 a3 bd 18 c3 4c bc de 3f 12 3d 6a f7 1a 3e
       -0.07965802 -0.012497686 0.03570544 0.15133443
0001f0 8a 54 09 3d c5 20 02 bd 28 8f 15 bd ee f2 17 3e
       0.03352789 -0.031769533 -0.036513478 0.14838764
000200 42 be b6 38 d5 d1 83 37 7d 06 c4 3d 02 0a 17 bb
       8.7138746e-05 1.5714128e-05 0.0957155 -0.0023046737
000210 1f 37 69 bc 76 f0 73 bd 5e 03 2e bd aa bf 4e 3e
       -0.014234333 -0.059555493 -0.04248368 0.20190302
000220 b3 02 19 ba a2 74 e7 3d ec bb 8f bd 91 33 ff 3c
       -0.0005836889 0.11301543 -0.07018265 0.031152518
000230 d7 ab f1 3c cf 14 e7 34 f2 d3 59 3c 9c 09 03 3b
       0.029500885 4.3042243e-07 0.013295161 0.0019994741
000240 74 0d 28 3c 8a 4e 66 3d 95 cc 98 b1 16 04 37 bc
       0.010257114 0.056227244 -4.4470405e-09 -0.011170408
000250 dd a1 d2 35 f5 6c ab 3c 18 22 80 39 07 c2 42 b7
       1.5693328e-06 0.020925978 0.00024439464 -1.1608477e-05
000260 20 e3 a4 bd ec b2 32 ba 97 e2 63 3d af 2a dd 3d
       -0.08051133 -0.00068168226 0.055636015 0.10799157
000270 3a 2c e7 3c 4a 60 7b 3c 31 36 50 bc 6f 5a 2e bb
       0.028219331 0.015342781 -0.012708233 -0.0026604196
000280 71 c0 44 3c f6 89 ca bd b9 0e 2c 3d ba a3 b2 bc
       0.012008772 -0.09889595 0.042006228 -0.021806587
000290 a6 43 89 bc 61 33 23 3d 2a 60 04 3d 35 2a 5e 35
       -0.01675589 0.03984392 0.03231827 8.2762864e-07
0002a0 4a 39 5c b7 78 38 0c bd 78 23 8c 3b de b1 f0 b8
       -1.31263605e-05 -0.03423354 0.004276689 -0.00011477222
0002b0 f5 06 35 3a 43 9e a4 3d 01 d3 9a 3d 4d 13 ed 3d
       0.0006905639 0.080379985 0.07559777 0.11575947
0002c0 78 5e f0 3c b0 67 03 3e f2 e8 c7 3d 9a 9e ba bb
       0.029341921 0.12832522 0.09761228 -0.0056951763
0002d0 36 8d 54 3c f3 b3 6e 3d c7 63 25 3d 1e ab be 3d
       0.01297312 0.05827708 0.04037836 0.09309982
0002e0 bc 24 33 3c d8 27 f2 bd 44 ce 1b 3c 46 bc b0 3d
       0.010934051 -0.11824006 0.009509627 0.0862966
0002f0 7d e2 45 b9 33 5b f7 b5 44 f5 f0 3d d5 20 e4 38
       -0.00018871757 -1.8429477e-06 0.11765531 0.00010878003
000300 7a 7f 8b 3a ec 34 43 3b a5 83 a4 bc ba 2a 37 3d
       0.0010642849 0.0029786183 -0.020082304 0.04471848
000310 7a 84 25 3d 9c d2 1e bd fe 5f 42 3c c8 aa 8b 2e
       0.040409543 -0.03877507 0.011863707 6.351325e-11
000320 16 ea 96 bd df 10 a4 bb 06 9d 01 bd ee f0 62 bd
       -0.07368867 -0.005006894 -0.03164389 -0.05540555
000330 92 d5 1a bc ac 3e 00 3e 2d d7 94 bd 72 7e cf bc
       -0.009450333 0.12523907 -0.07267604 -0.025328849
000340 59 9a 07 3d 78 4f 33 3c be c0 02 3d d7 96 38 3e
       0.03310618 0.01094424 0.031922095 0.18026291
000350 7b e0 e9 3a 5e 76 d5 bc 5d b7 82 bc b9 6c 0c bd
       0.001784339 -0.026057418 -0.015956575 -0.034283374
000360 0f a6 d4 bc 60 35 21 38 8b 58 11 3d 05 48 a4 3d
       -0.02595809 3.84351e-05 0.03548483 0.08021549
000370 26 c4 4b bd 1b ed d7 bb 96 6b 38 bc 55 29 a1 3c
       -0.04974761 -0.0065895445 -0.011256119 0.019673029
000380 99 e3 6d b7 01 55 11 3a 31 6d ad 3c 47 a6 9c bc
       -1.41792925e-05 0.00055439776 0.02117023 -0.019122256
000390 4e 66 ac bd a9 59 53 2c de c6 02 b1 af 22 26 3e
       -0.084179506 3.0034675e-12 -1.9030533e-09 0.16224168
0003a0 36 da 18 bc e2 de 34 bc 60 a0 0b bb 96 52 9c 3d
       -0.009329369 -0.0110394675 -0.0021305308 0.076329395
0003b0 09 3f 1a bc 09 f4 9b bc 81 46 3d bd 40 45 32 ba
       -0.009414443 -0.019037263 -0.046209816 -0.000680048
0003c0 18 ed f2 3d c3 65 2d 3d b5 54 16 bb 74 20 2d bd
       0.11861628 0.042333376 -0.0022938673 -0.042267278
0003d0 48 6e 0c be 1b 7a 4d bc bf be 0e 3e 15 af 85 bc
       -0.13713944 -0.012541319 0.13939951 -0.016318837
0003e0 f7 53 45 b9 b2 fa 8c b8 70 40 52 3d ef 7a 72 3a
       -0.00018818663 -6.722416e-05 0.051330984 0.0009249886
0003f0 f5 83 d6 3d 57 68 9c bb c5 d7 84 3c c2 d4 8b bc
       0.104743876 -0.0047731805 0.016216168 -0.017069224

bias f4 [84]
000000 40 cd b9 3c b8 70 74 ba 4a a7 26 3c e8 0a 83 3c
       0.022680879 -0.0009324658 0.010171721 0.015996411
000010 bb a7 60 3c 0e 51 be 3a f9 f9 b8 b4 ba 69 c6 3b
       0.013711865 0.0014520006 -3.445455e-07 0.006055084
000020 2c 66 81 3c 8c 65 51 3c e8 4d e9 3b 5a 30 da 3b
       0.01579579 0.012780558 0.007119883 0.006658596
000030 76 47 1a 3c 25 6d 98 2c 3a 15 cf 3b f4 d4 9a 3b
       0.009416452 4.3322173e-12 0.006319669 0.004725093
000040 3e 5f 72 3a ac 85 a3 3b a2 f2 73 b1 39 e7 a5 b8
       0.00092457596 0.0049903 -3.5499075e-09 -7.910882e-05
000050 44 df 87 3c 96 13 23 3c 5d 34 fa 3b e6 c2 73 23
       0.016585954 0.0099534 0.0076356367 1.3214328e-17
000060 79 c5 aa 3c da 7a 19 3c ce d1 24 3c c7 26 a7 04
       0.020846115 0.009367669 0.010059787 3.9297123e-36
000070 58 8b 34 ad fe a2 14 3b e8 d6 1e 3c 8d 81 28 3c
       -1.0262756e-11 0.0022680159 0.009694792 0.010284794
000080 04 42 ab b8 c8 a8 4f bb 08 fb 6c 3a 4a c3 0b 3c
       -8.166212e-05 -0.0031686295 0.0009040092 0.008530447
000090 fd ab 37 3b a8 d4 87 3c 2e ea 4e b7 e8 92 89 37
       0.0028026097 0.016580895 -1.2333081e-05 1.6400081e-05
0000a0 74 9f d3 3b 20 66 26 ba 9c 66 47 3b da 69 84 35
       0.0064582173 -0.0006347615 0.003042615 9.865573e-07
0000b0 00 c2 77 3c 92 08 06 3c 55 e1 b0 3c da d5 a8 3c
       0.015121937 0.008180754 0.021591822 0.020609785
0000c0 de 5b 97 3b 60 25 d0 b8 5c 09 44 3c 17 c6 53 bb
       0.0046191057 -9.9251745e-05 0.011965122 -0.0032314116
0000d0 7a 53 fe 3b f3 e2 20 bb 09 c8 db 3b f7 e6 7e 3b
       0.007761416 -0.0024549335 0.0067071957 0.003889499
0000e0 7b 79 21 3c b7 e3 1f 3c 0f 38 0f 3c ca 3e 45 3b
       0.009855623 0.009758881 0.008741393 0.003009724
0000f0 66 86 90 3b 22 98 91 3b 47 a8 be 3c d2 5f 60 3c
       0.004410553 0.0044431845 0.0232736 0.01369472
000100 db 5e d9 3c 9b 21 ad 3c ba 09 ab 3c 49 84 da 3c
       0.026534488 0.021134188 0.020878661 0.026674407
000110 6b 4f 76 3c 52 65 b4 39 b7 f7 9e 3c e4 f2 c9 3c
       0.015033583 0.00034407765 0.019405229 0.024651952
000120 c5 75 87 3a 24 d1 54 b9 7d ef 23 32 5f 89 a2 3c
       0.0010334781 -0.00020295806 9.542302e-09 0.019840894
000130 b7 d9 67 3c 84 ab 2f b8 6e 76 5f 3c 46 16 a7 86
       0.014151028 -4.1882988e-05 0.013639076 -6.2851146e-35
000140 50 83 00 b7 d7 93 c9 38 7f 4b 5f 3c a2 20 2b 3b
       -7.659968e-06 9.611964e-05 0.0136288395 0.002611198

weight f4 [26, 84]
000000 53 f2 19 3e 91 60 13 3e 2c 3f 36 bd 78 3e e3 bd
       0.15033846 0.14392306 -0.04449384 -0.11095899
000010 38 ee db bc 4f 74 96 3d a4 4e 47 35 84 ff 11 3e
       -0.02684699 0.07346403 7.4247714e-07 0.14257628
000020 98 67 01 3d 4a f7 6e 3d ad 6a 18 be 50 23 81 be
       0.031592935 0.058341302 -0.14884444 -0.25222254
000030 70 2a 76 bc 2d 44 77 a8 8f 2b e8 bd da 40 ff 3d
       -0.015024766 -1.3726038e-14 -0.11336433 0.12463541
000040 24 a9 25 3e 8f 17 3e bd 4f bc 1d b1 f7 a2 c7 b9
       0.16177803 -0.046409186 -2.2953548e-09 -0.00038077656
000050 57 4f 92 bb 80 4d 8f 3d 6f 61 0d 3b 56 49 de b2
       -0.0044650245 0.06997204 0.0021572968 -2.587755e-08
000060 9d d6 05 3e 46 0c 88 bd 76 4d 64 be 2b a2 97 ae
       0.1307015 -0.06642966 -0.22295174 -6.895492e-11
000070 69 64 76 ad ab e1 30 be ab 99 fb bd 72 52 9d 3c
       -1.4005777e-11 -0.17273585 -0.12285169 0.019204352
000080 58 5a 80 b9 a1 33 a6 bd ad 82 a8 bd c7 30 1c 3e
       -0.00024481374 -0.08115316 -0.082280494 0.15252982
000090 25 8d cb 3d b3 89 19 3e fe b9 ac 37 65 6d 80 b9
       0.099390306 0.14993934 2.0590607e-05 -0.00024495568
0000a0 1b 62 7a 3d 3f 42 40 3b 40 79 06 3e fa ab 90 35
       0.061128717 0.002933636 0.1313219 1.0778888e-06
0000b0 50 fd 67 bd bd 48 7c 3d 0e 5a 6f 3b b9 c6 c7 bd
       -0.056638062 0.061592806 0.0036522183 -0.097547
0000c0 23 cc 5a 3e 32 d1 1a ba ab 0b d8 3d 5a 1e 45 bd
       0.21366934 -0.00059058063 0.105491005 -0.04812465
0000d0 14 5d 3b bc 83 e2 f1 bd 80 89 87 3d 3c 41 3b 3e
       -0.011435766 -0.11810782 0.06618023 0.18286604
0000e0 ca 47 13 be f6 d7 31 3d 24 6c 95 bd 35 11 e0 bc
       -0.14382854 0.043418847 -0.07296017 -0.027351955
0000f0 af d7 d3 bd e4 45 3b 3d 16 64 5b 3c 18 8c 2d be
       -0.10343873 0.04572095 0.013390562 -0.16947973
000100 85 84 e9 3d db 36 19 3e ec c8 18 3e 77 77 37 be
       0.11402229 0.14962332 0.14920396 -0.17916666
000110 87 be 43 be 54 16 13 be e0 88 af bd 84 31 96 bd
       -0.19115649 -0.14363986 -0.08571029 -0.07333663
000120 a6 d3 7d bd ab fe 73 b9 64 6f dd 32 d5 da 0b be
       -0.06196942 -0.00023269157 2.577844e-08 -0.13657697
000130 d7 d9 c4 bd 3c 75 b4 b7 51 2f 7a bd ba a1 cb b1
       -0.09611862 -2.1512264e-05 -0.06108028 -5.9264638e-09
000140 23 c0 af 38 4d 8b 97 39 78 29 04 be b4 5b 67 bd
       8.3804385e-05 0.00028904752 -0.12906444 -0.05648394
000150 3b 82 8d 3e fd e9 89 bd 02 ad fa bd 28 34 9d bd
       0.2763842 -0.06734083 -0.1224003 -0.07675964
000160 82 e3 31 3e ad dd 1a 3c 60 d6 85 b4 9b 46 8d bd
       0.17371944 0.009452266 -2.492916e-07 -0.068982325
000170 43 f1 9b bd 92 13 31 bd 5f 35 f6 3d 81 32 27 3d
       -0.076143764 -0.043231554 0.120218985 0.04081965
000180 22 ce b3 3c c3 b6 6a a6 3c f0 57 bb 66 e2 31 3e
       0.021948878 -8.1432747e-16 -0.0032949587 0.1737152
000190 58 d2 88 bd 02 f0 02 3e 60 8f 93 b0 71 e3 df b6
       -0.06680745 0.12786868 -1.0736407e-09 -6.6723956e-06
0001a0 b5 0b e3 bd 04 2e 14 be 8d f3 8b 3d d9 5d 2b 24
       -0.11086217 -0.14470679 0.06833563 3.7159206e-17
0001b0 92 d9 c3 bd d7 1a e4 bd 16 c9 33 3e 0c ae 3c 24
       -0.095629826 -0.11137932 0.17557177 4.0913425e-17
0001c0 3e ef 0c 2f e8 07 1d 3e ad cb ad 3d f6 96 2a be
       1.2817922e-10 0.15335047 0.08486114 -0.1665915
0001d0 40 83 10 bc d5 94 e6 bd e5 44 57 bc 00 f0 c2 3d
       -0.008820355 -0.11258856 -0.013138984 0.095184326
0001e0 52 78 ea bc 18 43 20 be 4d b4 9b b7 28 87 0f ba
       -0.028621826 -0.15650594 -1.8561399e-05 -0.0005475157
0001f0 e7 d6 5e 3c d3 79 3c 3e de 26 c6 bc c7 31 bb 35
       0.013601041 0.18405847 -0.024188455 1.3947073e-06
000200 85 13 0a bd 01 0d 06 3e 1a 34 69 3d 9e 5f 02 be
       -0.03371002 0.13090898 0.056934454 -0.12731788
000210 65 e2 b2 bd 1e 96 2e 39 25 98 a2 bd 41 b2 c8 bd
       -0.087345876 0.00016649856 -0.079391755 -0.09799624
000220 6a 73 ce 3d df a7 01 3e 01 98 e7 3c 79 3b 10 be
       0.10080607 0.12661694 0.028270723 -0.14085187
000230 8d 32 dd bd b9 85 55 bd c4 0e 33 bd e6 9c 8a 3e
       -0.108006574 -0.05212948 -0.043715253 0.2707283
000240 fc 7a 9e bd 04 27 8c bc 67 dd 50 bd 36 a1 c9 3d
       -0.07738301 -0.017108448 -0.050992396 0.09845202
000250 63 4a a3 bd b8 b7 1a be e6 62 95 bc 54 dd c3 bd
       -0.079731725 -0.15109146 -0.018235635 -0.09563699
000260 69 04 e3 bd 24 c8 ac 3d 8c 0a f8 bd 79 a4 f2 bd
       -0.110848255 0.08436611 -0.12111387 -0.11847777
000270 d9 72 49 3e 6c 51 26 b9 cd 71 f8 31 a4 38 b6 3d
       0.19672717 -0.00015861326 7.2306876e-09 0.08897522
000280 f5 3f 8c 3d 94 42 5f 37 a3 62 af 3d 0c d8 bb 25
       0.06848136 1.3307337e-05 0.08563735 3.2585728e-16
000290 fb 0d d3 b7 52 df 2d b7 2c 16 aa 3b 5d dd 12 be
       -2.515967e-05 -1.0363599e-05 0.0051906314 -0.14342256
0002a0 8e 54 19 be 95 d8 c4 3d 53 b1 00 3d 97 9b 7c 3b
       -0.14973661 0.09611622 0.03141911 0.0038544887
0002b0 97 1c cf bd 60 35 94 3c 6d 65 9d b4 ec 95 70 bb
       -0.10112875 0.018091857 -2.9317326e-07 -0.0036710454
0002c0 01 31 db bd 7f 01 1e 3e 05 4c 8f bd 78 a2 05 bd
       -0.10702706 0.15430258 -0.069969214 -0.032625645
0002d0 a6 1a c2 3c 6c 4f 87 2a f1 79 b4 bd 56 c7 b1 bd
       0.023694348 2.4035927e-13 -0.08812321 -0.086805984
0002e0 41 bb 8f 3d 84 6f e8 bd 69 2e a2 b0 3a 7b 0a b8
       0.07018138 -0.11349395 -1.1800242e-09 -3.3016528e-05
0002f0 16 f7 e8 3d 66 e3 44 3e e7 65 b2 bd f7 5c a5 33
       0.11375253 0.1922737 -0.087108426 7.7003214e-08
000300 b1 e9 d3 3d 40 74 09 be a4 f2 fb bd 6b f4 c3 ae
       0.103473075 -0.13423252 -0.123021394 -8.910991e-11
000310 8e 1a f6 af 5f 1e 8a 3d 7c a0 1a be 1e b8 57 3e
       -4.4766008e-10 0.06744074 -0.15100282 0.21066329
000320 f1 cb 6f b9 e8 df ad 3d 2c 5f de bd 17 73 3e bc
       -0.0002286879 0.08489972 -0.10857996 -0.011624119
000330 2a 40 c5 3d b4 22 30 3e c3 f7 29 37 51 7c 02 b9
       0.09631379 0.17200738 1.01308715e-05 -0.00012444078
000340 0f 1b dc 3d 49 51 de bd b0 92 2e bc 16 1c 04 b5
       0.107473485 -0.10855348 -0.01065509 -4.92147e-07
000350 e9 09 0b be 03 5a ba bd 33 6b 3c bc 6e 22 18 be
       -0.13577999 -0.090991996 -0.011500168 -0.14856884
000360 aa f0 b0 3d cb 99 d8 b9 c5 22 92 bd df 2d 05 3d
       0.08639653 -0.00041313315 -0.07135538 0.03251445
000370 ed 20 0e bd 45 64 ee bd 29 f2 96 bc df 96 f5 3d
       -0.03469937 -0.11640219 -0.018426018 0.11991667
000380 7f b8 ef 3d 6b e3 83 bc 45 cb 7a 3d ba 43 0d be
       0.11705112 -0.016099652 0.06122901 -0.13795367
000390 33 b7 94 3d ce 05 83 bd 34 3c e1 bd 67 84 a0 bd
       0.07261505 -0.063975915 -0.10997811 -0.07837754
0003a0 6e 48 ca 3c 9f 3e 2c 3d b5 22 11 be fc 9b 05 bc
       0.02469274 0.042051908 -0.14173396 -0.008154865
0003b0 e1 47 18 3e 3f 80 2b 3c 76 06 fc bd 48 96 6b 3e
       0.1487117 0.010467588 -0.1230592 0.23006546
0003c0 4a ab 35 bd 5c 58 97 b9 64 d7 83 32 55 2f e4 bd
       -0.044352807 -0.00028866797 1.5348355e-08 -0.1114184
0003d0 f2 62 a4 bd 19 80 7b b8 34 75 be 3d 48 d1 27 ab
       -0.08026685 -5.9962364e-05 0.092996985 -5.9620755e-13
0003e0 8d 93 37 b7 e2 36 31 39 4b 21 29 be 37 d2 e8 3c
       -1.0942004e-05 0.00016900481 -0.16516607 0.02842055
0003f0 14 2e ec bc 1a 63 38 3e 30 b3 e6 bd 3c ae 99 ba
       -0.028830566 0.18006554 -0.11264646 -0.00117249

bias f4 [26]
000000 59 ce 72 3c aa e0 5f 3c 32 da 14 3b 2b 2d 2f bc
       0.014819705 0.013664404 0.0022713062 -0.010691921
000010 4a 8f f8 ba d8 30 da bc 56 2a 1b bb 64 28 d9 3c
       -0.0018963602 -0.026634619 -0.0023676357 0.026508518
000020 1f 20 82 bc d6 56 bf bb 9b 30 6b bb af f9 c8 ba
       -0.015884457 -0.005839209 -0.0035887125 -0.00153332
000030 34 9a c2 bb 3e 06 f0 bc 0f 6b ae bb 41 12 76 bc
       -0.0059387926 -0.029299852 -0.005322821 -0.0150190005
000040 c5 c9 8a bc 5c 7e f6 3b d1 fd 8e 3c 28 10 07 3a
       -0.016941914 0.0075223874 0.017455013 0.0005152249
000050 8d 82 51 3c ae 1a 50 3c 32 83 32 3c f7 f5 1b 3d
       0.012787473 0.012701673 0.010895537 0.038076367
000060 62 7e 54 bc 44 dc be bb
       -0.012969585 -0.0058245976
