properModelV1.pth (torch, 261805 bytes, 18 tensors)

weight f4 [6, 1, 5, 5]
-0.027532076 0.07349343 -0.028408676 -0.023152687 -0.21646355 -0.016821578 -0.08866107 0.28454727
0.029160025 -0.32340226 0.009537037 0.021877509 0.08738824 -0.010448991 -0.016522178 -0.055568114
0.022718081 0.061576832 0.13392366 0.07752801 0.061462156 -0.08665931 0.03464232 -0.0763488
0.036908038 0.08140031 3.6482197e-05 0.036491588 -0.017314719 -0.013398626 -0.0833807 0.054628313
0.10073775 0.14582631 0.08473676 -0.16105396 -0.20360097 0.022982605 0.08430268 0.16057143
-0.08030726 -0.13952562 -0.056604084 -0.052802395 0.09202141 0.09840691 -0.075940184 -0.09769519
-0.05165954 0.036438227 0.043746978 0.12741657 -0.027523553 -0.12078519 0.01166265 -0.012179026
0.055604156 -0.14742896 -0.16987963 0.064101875 0.0051570176 -0.093807355 -0.15482551 -0.05399209
0.14331652 -0.07112834 0.016896075 0.041914992 0.03882767 0.1370304 0.043692544 0.00021221404
0.0596582 0.08771151 -0.009919593 0.12050576 0.09523687 0.074997306 -0.043023326 -0.101016566
0.1279824 0.045227405 0.00052842125 -0.058239255 -0.088127404 0.098320454 0.058337886 0.059789255
-0.08214008 -0.18791167 0.057389464 0.0660135 0.006196801 -0.043284018 -0.053588822 0.042895913
0.086331904 -0.032849744 -0.0987943 -0.117971435 0.14916855 -0.028627267 -0.039845787 -0.008505272
-0.081079125 0.098968394 -0.05668309 -0.061386928 -0.06625847 -0.14007708 0.110133745 0.003978354
0.0041568507 -0.0060651987 -0.095654614 0.036158606 0.035143137 0.047159098 0.02261645 -0.04474901
-0.026288169 -0.013309044 0.019578684 0.020554373 0.081679866 0.122671805 0.13581412 0.14307925
0.15467839 -0.048059314 0.12260568 0.06546157 0.089099415 0.07171836 0.008772728 0.015002234
-0.087220296 0.03075787 -0.06090552 -0.040933855 0.02812571 -0.023949265 -0.0027787918 -0.13324769
-0.04768707 -0.15111601 -0.022649176 -0.15684205 -0.11075553 -0.042912588
00000000: f38a e1bc b983 963d 50b9 e8bc b4aa bdbc
00000010: 9fa8 5dbe 68cd 89bc ef93 b5bd 2eb0 913e
00000020: 01e1 ee3c fb94 a5be 3c41 1c3c 7638 b33c
00000030: 9bf8 b23d 3f32 2bbc 8559 87bc 649b 63bd
00000040: 451b ba3c fd37 7c3d 4923 093e 01c7 9e3d
00000050: bebf 7b3d 707a b1bd 1be5 0d3d c25c 9cbd
00000060: e22c 173d 35b5 a63d 7604 1938 3478 153d
00000070: 99d7 8dbc e985 5bbc 80c3 aabd f0c1 5f3d
00000080: 984f ce3d 7e53 153e 778a ad3d 54eb 24be
00000090: c67c 50be 0446 bc3c e2a6 ac3d d66c 243e
000000a0: 2278 a4bd cedf 0ebe afd9 67bd 5347 58bd
000000b0: b975 bc3d 9089 c93d 8786 9bbd 6a14 c8bd
000000c0: f498 53bd 4040 153d 0830 333d 7d79 023e
000000d0: 1379 e1bc 3a5e f7bd b314 3f3c 8a8a 47bc
000000e0: 2fc1 633d 9ef7 16be edf4 2dbe d847 833d
000000f0: 33fc a83b 121e c0bd 948a 1ebe cf26 5dbd
00000100: 91c1 123e bcab 91bd a369 8a3c 0eaf 2b3d
00000110: c309 1f3d b251 0c3e f4f6 323d c685 5e39
00000120: 285c 743d 18a2 b33d ca85 22bc b9cb f63d
00000130: 8c0b c33d 3098 993d 3a39 30bd c6e1 cebd
00000140: d10d 033e 5f40 393d c085 0a3a 498c 6ebd
00000150: 247c b4bd 3c5c c93d b5f3 6e3d 94e5 743d
00000160: 0f39 a8bd eb6b 40be 3711 6b3d 1632 873d
00000170: 890e cb3b 954a 31bd f47f 5bbd a0b3 2f3d
00000180: c8ce b03d 748d 06bd aa54 cabd 029b f1bd
00000190: a4bf 183e bb83 eabc 5635 23bd b259 0bbc
000001a0: d00c a6bd f1af ca3d 872c 68bd dc70 7bbd
000001b0: 85b2 87bd 5e70 0fbe cd8d e13d da5c 823b
000001c0: 3136 883b 93be c6bb 91e6 c3bd 0c1b 143d
000001d0: 40f2 0f3d e629 413d 2246 b93c bd4a 37bd
000001e0: 495a d7bc 2d0e 5abc 7a63 a03c a561 a83c
000001f0: c647 a73d 5b3b fb3d db12 0b3e 5e83 123e
00000200: 0364 1e3e d8d9 44bd b018 fb3d b710 863d
00000210: c179 b63d 13e1 923d 7dbb 0f3c eecb 753c
00000220: 8ea0 b2bd eef7 fb3c 1178 79bd 42aa 27bd
00000230: e467 e63c 4031 c4bc 641c 36bb 1572 08be
00000240: 8453 43bd 28be 1abe c48a b9bc 349b 20be
00000250: ccd3 e2bd 1cc5 2fbd

bias f4 [6]
-2.6792752e-06 -7.2942935e-06 -5.7940188e-06 -1.6717246e-05 -2.5276606e-06 -9.9658155e-06
00000000: 99cd 33b6 81c1 f4b6 3e6a c2b6 033c 8cb7
00000010: e1a0 29b6 da32 27b7

weight f4 [6]
0.35894188 0.3628847 0.31188637 0.4564182 0.37767702 0.42158562
00000000: 3bc7 b73e 06cc b93e 92af 9f3e a5af e93e
00000010: e25e c13e 12da d73e

bias f4 [6]
-0.02906466 -0.033298407 -0.066437505 -0.034733824 -0.28709307 0.0724387
00000000: 0319 eebc e963 08bd 6310 88bd 0e45 0ebd
00000010: ddfd 92be be5a 943d

running_mean f4 [6]
-0.06508672 -0.040980592 0.020032443 0.0430376 -0.07408907 0.110823415
00000000: 304c 85bd 44db 27bd 141b a43c 3248 303d
00000010: 03bc 97bd 63f7 e23d

running_var f4 [6]
0.029270478 0.056214776 0.027328076 0.14286794 0.031332284 0.08436423
00000000: a4c8 ef3c 7741 663d 21df df3c f94b 123e
00000010: 4856 003d 27c7 ac3d

weight f4 [16, 6, 5, 5]
0.03309055 -0.008504726 -0.0091878 -0.049220122 0.009328913 -0.06718829 -0.03466094 -0.052921236
-0.06425801 -0.021204 -0.011548742 -0.0034184705 -0.05998306 -0.055674877 -0.005502531 -0.02015855
-0.007749018 -0.02977269 -0.0064820414 0.016523082 -0.02952233 -0.020273298 -0.022907635 0.030688314
0.0072289575 -0.03302866 -0.030754881 -0.05160596 -0.024041822 0.01099753 -0.0109091485 -0.013649692
-0.022623181 -0.0011015906 0.039014608 0.004358551 0.02356862 0.019117564 0.02306867 0.044795007
0.007984186 0.027532622 0.055183392 0.0390179 0.012533095 0.048458364 0.031005275 0.024349833
0.024473295 -0.01614168 0.067354426 0.057382036 0.01713521 -0.025021255 -0.0017763302 0.014148222
0.086699896 0.03195165 0.00011588217 -0.01761043 0.023522766 0.032362856 -0.017911956 -0.030285396
-0.022637937 0.010620125 0.014996001 -0.0044657947 -0.02907779 -0.021642616 0.00814214 -0.013521776
-0.034137525 -0.02964952 -0.017287754 -0.049554907 -0.0076016546 0.018150624 -0.009494426 -0.052244887
-0.0050431103 0.10547335 0.038328808 0.016430575 0.026382737 0.026458379 0.07943211 0.055328947
0.05558265 0.056347013 0.00015722877 0.053815782 0.05580088 0.08232482 0.011554376 -0.03728376
-0.037353262 -0.0054664733 0.0031724153 -0.065506265 0.014989645 0.005184407 0.038029693 0.05118373
0.055693217 -0.0010644788 -0.020260775 0.032298945 -0.0005038156 0.0037797615 -0.04510355 0.04126635
0.037554502 -0.019723974 0.00080663926 -0.0033408657 0.04726728 0.06810943 -0.026976734 -0.028482195
0.00059724 0.020428691 0.00849123 -0.010620159 -0.013366655 -0.056487896 -0.0023043868 0.09366894
0.09938276 -0.0012599566 -0.04058364 0.028849173 0.034764152 0.067993335 -0.068361804 -0.040667836
-0.013148652 0.01324176 -0.03115106 -0.051878475 -0.04184435 -0.01047803 -0.008285972 -0.034334622
0.013252446 -0.026964724 -0.021308893 -0.028941995 -0.035615377 0.031980604 -0.0028069392 0.015577273
-0.01322156 0.005297542 -0.013653757 0.05041084 0.10938226 -0.02001733 0.053385243 -0.01067342
0.09065548 0.09388461 0.07905983 0.011053766 0.014965965 0.027948188 0.15965503 0.08481943
0.0908947 0.024002383 0.030188154 0.016750293 0.028163657 0.03212755 0.038961377 -0.0051068906
-0.029067352 0.0511443 -0.06795672 0.002489852 0.002006913 -0.05639383 -0.06132359 -0.09926643
-0.027009152 -0.023341369 -0.05310866 -0.02189691 -0.031056006 0.027406514 0.0047043357 0.01153582
-0.020680124 -0.025604073 -0.043634757 0.027712388 0.048114553 0.044544112 -0.010700399 -0.022705952
-0.02854849 -0.006065537 -0.007102451 -0.008006937 0.006177012 0.023852894 0.030420009 0.011087991
-0.00040466746 0.044866677 0.044822592 -0.03381843 0.12908085 0.056934837 0.05561085 0.034322925
0.013951563 0.08094237 0.091591895 0.09135777 -0.020930035 -0.08240108 -0.08849476 -0.0023453017
-0.0029719435 0.010411378 -0.023650357 0.022035066 -0.03081038 -0.01650483 -0.027092101 -0.094736814
0.014569185 -0.07181595 -0.03720823 0.020984987 -0.079001255 -0.025643062 -0.07124853 -0.034631547
0.009669855 0.0006396975 -0.08341063 -0.044848435 -0.046183437 0.04940601 0.041743577 -0.040654164
-0.065625906 -0.04623564 0.05373891 -0.016069915 -0.043420892 -0.007363769 0.042725578 -0.011783628
00000000: f589 073d 6857 0bbc 6d88 16bc 0a9b 49bd
00000010: 4cd8 183c 049a 89bd a1f8 0dbd f0c3 58bd
00000020: b499 83bd 03b4 adbc ef36 3dbc 6b08 60bb
00000030: ccb0 75bd 570b 64bd 934e b4bb 8b23 a5bc
00000040: 79eb fdbb dbe5 f3bc 4e67 d4bb 6a5b 873c
00000050: d0d8 f1bc 3014 a6bc cba8 bbbc 0f66 fb3c
00000060: e4e0 ec3b 0f49 07bd a9f1 fbbc c560 53bd
00000070: 5bf3 c4bc fc2e 343c 49bc 32bc f5a2 5fbc
00000080: 4054 b9bc 3f63 90ba c8cd 1f3d 2dd2 8e3b
00000090: fb12 c13c 709c 9c3c 82fa bc3c f87a 373d
000000a0: 1ad0 023c 188c e13c fb07 623d 3cd1 1f3d
000000b0: 9c57 4d3c 477c 463d c6fe fd3c 4d79 c73c
000000c0: 387c c83c 8e3b 84bc 1ef1 893d 6d09 6b3d
000000d0: 245f 8c3c 60f9 ccbc c0d3 e8ba f2cd 673c
000000e0: b78f b13d bcdf 023d c405 f338 c043 90bc
000000f0: d1b2 c03c ea8e 043d 18bc 92bc 1419 f8bc
00000100: 3273 b9bc 0800 2e3c c9b1 753c cd55 92bb
00000110: 8c34 eebc db4b b1bc 9c66 053c 708a 5dbc
00000120: cad3 0bbd 8de3 f2bc 0c9f 8dbc 16fa 4abd
00000130: 4d17 f9bb 9eb0 943c 828e 1bbc bcfe 55bd
00000140: ad40 a5bb 6902 d83d abfe 1c3d 6a99 863c
00000150: 9c20 d83c 3ebf d83c 4dad a23d 9ba0 623d
00000160: a2aa 633d 20cc 663d c7dd 2439 f06d 5c3d
00000170: 778f 643d ea99 a83d 914e 3d3c dbb6 18bd
00000180: bcff 18bd 1a20 b3bb 4ce8 4f3b 2628 86bd
00000190: 2197 753c f5e1 a93b 06c5 1b3d 08a6 513d
000001a0: 921e 643d fb85 8bba edf9 a5bc e64b 043d
000001b0: 7e12 04ba e0b5 773b 80be 38bd e706 293d
000001c0: c0d2 193d 2c94 a1bc a574 533a 6df2 5abb
000001d0: 569b 413d f57c 8b3d 50fe dcbc 7e53 e9bc
000001e0: 1990 1c3a 125a a73c cd1e 0b3c 2d00 2ebc
000001f0: d1ff 5abc da5f 67bd 3205 17bb 80d5 bf3d
00000200: 3089 cb3d 2125 a5ba 083b 26bd 1a55 ec3c
00000210: db64 0e3d 1740 8b3d 4601 8cbd 5193 26bd
00000220: 726d 57bc f8f3 583c 8230 ffbc 867e 54bd
00000230: fb64 2bbd 0bac 2bbc e3c1 07bc 76a2 0cbd
00000240: ca20 593c 20e5 dcbc fd8f aebc c317 edbc
00000250: 6ee1 11bd 18fe 023d a0f4 37bb d237 7f3c
00000260: 3e9f 58bc 0197 ad3b 02b4 5fbc 997b 4e3d
00000270: ce03 e03d 62fb a3bc 7caa 5a3d 91df 2ebc
00000280: 95a9 b93d 9346 c03d 1fea a13d db1a 353c
00000290: cf33 753c 99f3 e43c 9c7c 233e cfb5 ad3d
000002a0: 0027 ba3d a5a0 c43c 264d f73c e937 893c
000002b0: 78b7 e63c 2e98 033d f795 1f3d b457 a7bb
000002c0: a81e eebc af7c 513d e52c 8bbd c92c 233b
000002d0: 6a86 033b 37fd 66bd 722e 7bbd 334c cbbd
000002e0: 4c42 ddbc 6636 bfbc 7788 59bd 2661 b3bc
000002f0: 2a69 febc a083 e03c d426 9a3b bc00 3d3c
00000300: 5d69 a9bc a2bf d1bc 5cba 32bd 1705 e33c
00000310: c413 453d e373 363d ba50 2fbc d501 babc
00000320: 86de e9bc 6ac1 c6bb adbb e8bb 872f 03bc
00000330: 8868 ca3b 2567 c33c 6233 f93c 68aa 353c
00000340: 8c29 d4b9 1fc6 373d e597 373d 3285 0abd
00000350: c52d 043e 8134 693d 34c8 633d 3296 0c3d
00000360: 1995 643c 1dc5 a53d 8894 bb3d c819 bb3d
00000370: 7775 abbc e6c1 a8bd be3c b5bd a2b3 19bb
00000380: f0c4 42bb 7c94 2a3c 65be c1bc e282 b43c
00000390: 0d66 fcbc 2335 87bc 41f0 ddbc 6005 c2bd
000003a0: 97b3 6e3c 3e14 93bd a867 18bd b5e8 ab3c
000003b0: 69cb a1bd 6611 d2bc c0ea 91bd cfd9 0dbd
000003c0: 506e 1e3c 5fb1 273a 31d3 aabd feb2 37bd
000003d0: d82a 3dbd f55d 4a3d 50fb 2a3d fb84 26bd
000003e0: e066 86bd 9561 3dbd 551d 5c3d 0ea5 83bc
000003f0: 1bda 31bd c64b f1bb 0401 2f3d 1e10 41bc

bias f4 [16]
8.938288e-06 1.6433562e-05 -3.0315837e-06 -6.4318783e-07 1.9932428e-05 2.8588556e-06 -1.2967408e-05 -5.907167e-06
-3.1768617e-05 6.1593573e-07 1.3553736e-06 -3.2453595e-06 -7.514478e-06 -4.4695415e-05 -4.725627e-06 -4.659818e-06
00000000: a8f5 1537 ceda 8937 3672 4bb6 88a7 2cb5
00000010: 9034 a737 c4da 3f36 988e 59b7 2e36 c6b6
00000020: 4b3f 05b8 c856 2535 48ea b535 daca 59b6
00000030: e024 fcb6 5677 3bb8 d490 9eb6 885b 9cb6

weight f4 [16]
1.0929618 1.4881784 1.1464025 1.0355064 1.2903658 1.171724 1.1822042 1.0538589
1.1578385 1.0641427 1.1437806 1.1191312 1.0300922 1.2683122 1.1024595 1.372996
00000000: 2ce6 8b3f a17c be3f 51bd 923f 798b 843f
00000010: b52a a53f 0dfb 953f 7852 973f d9e4 863f
00000020: 0d34 943f d435 883f 6767 923f b13f 8f3f
00000030: 10da 833f 0e58 a23f 651d 8d3f 55be af3f

bias f4 [16]
0.05117904 0.13477525 0.072742224 0.0840139 0.05343495 0.036085848 0.051420413 0.0009000607
-0.02901778 0.1353935 0.009853653 0.055284064 0.031979114 0.09101338 0.08994386 0.17236881
00000000: 1da1 513d 8602 0a3e e0f9 943d 7b0f ac3d
00000010: 9bde 5a3d c1ce 133d 369e 523d 0df2 6b3a
00000020: b2b6 edbc 98a4 0a3e 3771 213c 8b71 623d
00000030: 88fc 023d 3965 ba3d 7d34 b83d 7381 303e

running_mean f4 [16]
0.051497847 0.09106023 0.08113377 0.094248965 -0.024110025 0.06883041 0.047472578 -0.058708664
-0.044052314 0.025880408 -0.013252726 -0.016348194 0.005305346 0.118025064 -0.14184615 0.03256849
00000000: 68ef 523d c97d ba3d 7629 a63d 9a05 c13d
00000010: 6382 c5bc f5f6 8c3d 9b72 423d 7f78 70bd
00000020: 3370 34bd 2603 d43c f621 59bc a6ec 85bc
00000030: 78d8 ad3b 20b7 f13d 1e40 11be 8966 053d

running_var f4 [16]
0.021833513 0.028128834 0.020727718 0.0142470775 0.023033 0.017993111 0.017956955 0.019144803
0.019365352 0.018244658 0.018063031 0.015316783 0.023088332 0.03732878 0.012775864 0.01853815
00000000: 32dc b23c 716e e63c 2dcd a93c 936c 693c
00000010: b4af bc3c 4a66 933c 771a 933c 90d5 9c3c
00000020: 16a4 9e3c d275 953c ecf8 933c 3ff3 7a3c
00000030: be23 bd3c 10e6 183d dc51 513c 51dd 973c

weight f4 [120, 400]
-0.006918203 0.056051593 0.06354236 0.026029 0.028671127 0.019995023 0.0032262516 0.0016415409
0.028770264 0.008816406 0.01399085 -0.034051903 -0.011157671 0.02040392 0.024240172 0.019638835
0.044272993 0.07283881 0.012390708 -0.0024400302 0.042059228 0.04060987 0.015495748 -0.036689714
-0.041746758 -0.031294703 -0.09506754 -0.05579211 -0.024296667 0.033237863 -0.06385913 -0.06523037
-0.13447852 -0.08818383 0.009810415 -0.043961715 -0.017919332 0.0025787705 -0.056897357 0.005780355
0.06581614 0.06637286 -0.0046720123 -0.06012643 -0.010607564 0.07488983 0.058957502 0.06382937
0.042786483 0.051029827 -0.04546786 0.016311508 0.13128538 0.12119284 0.075209446 -0.059030917
-0.020151373 0.0792108 0.09811955 0.03270754 -0.07544333 -0.048879195 0.0657142 0.09726671
0.0024368148 -0.1129096 -0.025906475 0.14229423 0.06704154 -0.026596174 -0.1188661 -0.03706353
-0.009168822 -0.014935396 -0.013606597 -0.010717374 0.0002573846 -0.038062096 -0.0960653 -0.016396645
-0.036143605 -0.010038958 -0.023165526 -0.05206736 -0.104280315 -0.004357736 0.027245004 0.008095967
-0.04626221 -0.051463954 0.094485626 0.056903917 0.056094345 0.03183954 -0.019467836 0.036774892
0.04601512 0.034357235 0.019748032 0.009855623 -0.033546165 0.013327716 0.025982635 0.08742976
0.06413627 -0.0062224586 0.008924075 0.044697855 0.07065229 0.079740085 0.017569702 0.015139155
0.019699955 0.011819072 0.088254906 0.045848724 -0.0146053005 -0.0075626774 -0.015120262 -0.01805622
0.04742999 0.010992423 0.007986094 -0.06750824 -0.020655116 0.008913814 0.07152651 0.050403688
0.0051490846 -0.041576475 -0.079721496 -0.022308016 -0.012160256 0.011122947 0.018282935 -0.044324376
-0.034018755 0.01309693 0.0016295256 -0.032072328 -0.049445517 0.02822121 -0.010138314 -0.0027785648
-0.054167937 -0.032334838 -0.013568066 0.06688075 0.010865933 -0.0007563975 -0.005796904 -0.021152357
0.048146255 0.063037515 0.03099624 -0.040191554 -0.041287746 -0.022312457 -0.0319726 0.0327007
-0.051375236 -0.06399632 -0.15296929 -0.024500433 0.054957315 0.015448067 0.05993794 -0.028831447
-0.030128594 0.032325756 0.040743835 0.03798587 0.030433906 0.055292044 0.048739135 0.03347393
0.04076455 0.0044096904 -0.051988237 -0.06212339 0.010565735 0.023661619 -0.0069732494 -0.02946867
-0.02380316 -0.0028369548 -0.010386362 -0.03107381 0.013808519 -0.0011898825 0.00038045007 0.04847132
0.058654826 0.035684437 -0.00860006 -0.018793363 0.015263363 0.040997904 0.050344486 -0.009125439
-0.012470908 0.048785776 0.1766583 0.20185289 0.0478622 0.0010364302 0.08282699 0.18044733
0.22159883 0.12047328 -0.008308726 0.022740232 0.09104049 0.12997045 0.025817297 -0.024331227
0.0020756952 0.047886252 0.059960373 -0.026650503 -0.026942957 0.0035177562 0.045138177 0.025662903
-0.025293149 0.025181146 0.093657225 0.09894333 -0.022165451 -0.049726326 -0.015341742 0.041097336
0.054048147 -0.013008859 -0.110114366 -0.014492112 0.0084890695 0.035344258 -0.03899079 -0.05001654
-0.0064302883 0.009652649 0.031935807 -0.019884942 -0.020905327 0.0051440643 0.033912685 0.00016401094
-0.031730045 -0.035304237 -0.00811696 -0.038271412 -0.07067765 -0.026130985 -0.0048631527 0.0056758854
00000000: 18b2 e2bb 5b96 653d 7f22 823d c53a d53c
00000010: b6df ea3c 9acc a33c 856f 533b f928 d73a
00000020: 9eaf eb3c b072 103c e139 653c 027a 0bbd
00000030: aace 36bc 1f26 a73c 5393 c63c 9fe1 a03c
00000040: 9957 353d 842c 953d 6502 4b3c eae8 1fbb
00000050: 4c46 2c3d 8956 263d e1e1 7d3c f447 16bd
00000060: a6fe 2abd e02e 00bd c5b2 c2bd 4486 64bd
00000070: ce09 c7bc 6d24 083d 93c8 82bd 8097 85bd
00000080: bdb4 09be b999 b4bd ddbb 203c 3311 34bd
00000090: 90cb 92bc 9700 293b 340d 69bd 2269 bd3b
000000a0: 9dca 863d 7eee 873d ae17 99bb 2247 76bd
000000b0: 59cb 2dbc d75f 993d 6c7d 713d f9b8 823d
000000c0: e140 2f3d a704 513d 823c 3abd b69f 853c
000000d0: ad6f 063e f433 f83d 6907 9a3d 67ca 71bd
000000e0: 7e14 a5bc 4639 a23d e7f2 c83d 57f8 053d
000000f0: 0882 9abd 8d35 48bd 2b95 863d c533 c73d
00000100: f8b2 1f3b 263d e7bd d139 d4bc 94b5 113e
00000110: 134d 893d 38e0 d9bc 1270 f3bd eecf 17bd
00000120: d438 16bc 97b3 74bc 34ee 5ebc ed97 2fbc
00000130: 94f1 8639 00e7 1bbd e2bd c4bd 4252 86bc
00000140: 510b 14bd 717a 24bc a1c5 bdbc 9644 55bd
00000150: eb90 d5bd 57cb 8ebb ea30 df3c f2a4 043c
00000160: 717d 3dbd decb 52bd ae81 c13d 1514 693d
00000170: 2fc3 653d 2d6a 023d 037b 9fbc 45a1 163d
00000180: 5a7a 3c3d 2cba 0c3d a0c6 a13c 7b79 213c
00000190: b467 09bd 7e5c 5a3c 89d9 d43c 600e b33d
000001a0: e059 833d c4e5 cbbb 4936 123c 1915 373d
000001b0: 26b2 903d c54e a33d 56ee 8f3c 380a 783c
000001c0: cd61 a13c c8a4 413c fdbe b43d dfcb 3b3d
000001d0: 124b 6fbc 56d0 f7bb faba 77bc a3ea 93bc
000001e0: f345 423d 9019 343c 1bd8 023c c341 8abd
000001f0: eb34 a9bc 3f0b 123c 7e7c 923d 1974 4e3d
00000200: a7b9 a83b 184c 2abd 0645 a3bd 4dbf b6bc
00000210: cf3b 47bc 053d 363c 18c6 953c 7a8d 35bd
00000220: 4057 0bbd 8294 563c ce95 d53a 465e 03bd
00000230: 6287 4abd 2b30 e73c 2c1b 26bc 9518 36bb
00000240: 33df 5dbd 8971 04bd 984c 5ebc c6f8 883d
00000250: 0707 323c fa48 46ba f5f3 bdbb b547 adbc
00000260: 0235 453d d019 813d d4eb fd3c e69f 24bd
00000270: 571d 29bd 9dc8 b6bc b3f5 02bd 2bf1 053d
00000280: d76e 52bd 8110 83bd fba3 1cbe 22b5 c8bc
00000290: ec1a 613d e419 7d3c 7c81 753d ed2f ecbc
000002a0: 3ed0 f6bc 0368 043d 02e3 263d 1297 1b3d
000002b0: 8750 f93c e979 623d b0a2 473d f61b 093d
000002c0: bbf8 263d 2a7f 903b 9ef1 54bd 1975 7ebd
000002d0: e81b 2d3c 03d6 c13c db7f e4bb 4868 f1bc
000002e0: d8fe c2bc 34ec 39bb 8f2b 2abc 818e febc
000002f0: 203d 623c d5f5 9bba 2577 c739 dd89 463d
00000300: 0b40 703d d829 123d 44e7 0cbc 8af4 99bc
00000310: 2f13 7a3c 6bed 273d 0536 4e3d de82 15bc
00000320: c852 4cbc 98d3 473d eae5 343e 86b2 4e3e
00000330: 270b 443d d4d8 873a 32a1 a93d 2fc7 383e
00000340: ceea 623e b2ba f63d 5321 08bc b949 ba3c
00000350: 7073 ba3d f916 053e cc7e d33c 4852 c7bc
00000360: 6308 083b 6024 443d 0299 753d 2852 dabc
00000370: 7ab7 dcbc 288a 663b cfe2 383d 023b d23c
00000380: 9433 cfbc b148 ce3c 5ccf bf3d cda2 ca3d
00000390: 5294 b5bc d5ad 4bbd ee5b 7bbc ae55 283d
000003a0: 9761 5d3d 1c23 55bc a483 e1bd 5370 6dbc
000003b0: bd15 0b3c 24c5 103d ceb4 1fbd 25de 4cbd
000003c0: 2bb5 d2bb 2526 1e3c 1fcf 023d bfe5 a2bc
000003d0: a641 abbc 8a8f a83b 07e8 0a3d 5afa 2b39
000003e0: 5df7 01bd 2d9b 10bd fffc 04bc 7cc2 1cbd
000003f0: 72bf 90bd a610 d6bc 155b 9fbb c7fc b93b

bias f4 [120]
-0.002947032 0.02066587 0.008364415 0.0007759153 -4.1578087e-06 -0.0014497247 0.002571489 0.011124236
0.0005798308 0.006200515 -0.0112951975 0.008961136 0.0017763936 0.012431066 -0.007342892 0.0070597637
0.0062871845 0.024161896 -0.0041840905 0.0007242505 -1.5162707e-06 0.008097068 0.0026554428 0.00859272
0.022290701 -6.0456154e-07 -6.284822e-05 0.0033801282 0.011333156 -0.0004156063 0.007930337 0.0054918574
0.01343859 -3.27022e-07 -0.00026528252 -1.5722268e-05 0.019110225 0.01244002 -0.0024915398 -0.0044039097
0.0012671257 8.470734e-05 0.00011073113 0.0016662588 0.015293335 -0.0045435717 -0.00070035586 0.013720316
0.000895399 -1.3966429e-05 0.0032829745 0.021221962 -2.5675996e-05 0.016226316 0.014176442 0.007075828
0.0062688747 0.0020429962 0.0019325183 0.018778224 -0.00071842177 -0.002500473 0.00534332 -4.8406247e-07
0.0011816013 0.0079308115 0.012481749 -0.010494608 0.0011445412 -0.0026699489 -0.0005796135 4.703484e-16
-0.002703863 0.002580282 -0.005537926 1.4980553e-05 0.008113103 -0.00056426885 0.007695405 -5.981581e-06
0.0023302322 -0.006811857 0.008051119 -0.0009991633 -0.002224165 -6.551017e-06 0.0016398493 -1.3664123e-10
0.015822127 0.010975027 -8.975812e-06 -0.004106626 0.005314127 0.0017503169 -0.00089527713 0.016589507
0.01379177 0.0062374743 0.0022846696 0.0030459454 0.0023903083 0.0073298914 0.020558838 0.0041608578
0.005467787 -0.003509523 0.010762846 0.00184572 0.0057141827 -0.0002295148 0.0014436793 -0.012163303
0.0061877887 0.021265758 0.0025254176 -0.0052931565 0.017248435 -0.004190482 0.012240896 0.021860385
00000000: fe22 41bb 784b a93c e60a 093c cb66 4b3a
00000010: 4e83 8bb6 b004 beba 6d86 283b 6d42 363c
00000020: c9ff 173a b12d cb3b 7e0f 39bc bbd1 123c
00000030: e1d5 e83a abab 4b3c a49c f0bb 9755 e73b
00000040: ba04 ce3b 2bef c53c b21a 89bb a1db 3d3a
00000050: aa82 cbb5 91a9 043c f006 2e3b 7bc8 0c3c
00000060: fd9a b63c 2749 22b5 62cd 83b8 2485 5d3b
00000070: b4ae 393c bce5 d9b9 3fee 013c 0af5 b33b
00000080: 882d 5c3c 9091 afb4 9e15 8bb9 50e3 83b7
00000090: 0c8d 9c3c 3ad1 4b3c 1a49 23bb ac4e 90bb
000000a0: af15 a63a e8a4 b138 5338 e838 5e66 da3a
000000b0: e590 7a3c 3ee2 94bb 1698 37ba 2dcb 603c
000000c0: 36b9 6a3a 5b51 6ab7 2c27 573b aed9 ad3c
000000d0: c862 d7b7 0ded 843c 4f44 683c 59dc e73b
000000e0: 226b cd3b cae3 053b 8e4c fd3a cad4 993c
000000f0: 7854 3cba fade 23bb 0417 af3b 85f0 01b5
00000100: f6df 9a3a 3cf0 013c 4080 4c3c 94f1 2bbc
00000110: 6e04 963a 4ffa 2ebb 34f1 17ba 9691 0726
00000120: 4b33 31bb f319 293b 7e77 b5bb fc54 7b37
00000130: d2ec 043c 71eb 13ba bc29 fc3b 64b5 c8b6
00000140: cfb6 183b 0036 dfbb d7e8 033c 5bf6 82ba
00000150: 4cc3 11bb cfd0 dbb6 36f0 d63a 163d 16af
00000160: 689d 813c 9ad0 333c d296 16b7 e090 86bb
00000170: 2122 ae3b e46a e53a 08b1 6aba b8e6 873c
00000180: e0f6 613c ba63 cc3b 65ba 153b 7c9e 473b
00000190: b8a6 1c3b 962f f03b 026b a83c ce57 883b
000001a0: 1f2b b33b 0700 66bb a656 303c 16ec f13a
000001b0: 0a3e bb3b e9a9 70b9 d739 bd3a 9748 47bc
000001c0: efc2 ca3b 8735 ae3c 7a81 253b 3772 adbb
000001d0: 974c 8d3c 5050 89bb 0a8e 483c 8d14 b33c

weight f4 [84, 120]
0.062101804 0.012478963 0.018967038 0.035666667 1.9182671e-06 0.06730905 0.022044938 -0.065182805
-0.010947131 0.018965933 -0.040958986 0.113535024 -0.03735779 -0.005114441 0.095706165 -0.03214404
-0.018337414 0.010847221 0.03293285 -0.008866252 4.1189873e-05 -0.00869098 0.09099093 0.066995114
-0.031024007 9.750159e-06 0.00014411657 0.028886208 -0.009954165 0.004141553 0.121300384 0.0019997992
0.08797311 1.0061575e-06 0.020473361 0.00015457222 -0.007029509 -0.009340485 0.051072225 0.066656575
-0.00065985817 0.0008297549 0.0032098957 -0.05409316 0.048284166 0.034242094 0.1013514 0.05360645
-0.002684811 -0.00010978764 0.013188386 -0.10156232 -3.3693137e-05 -0.056596685 0.010642729 -0.0504981
-0.019417817 0.0052039814 0.025066491 -0.03212622 -0.0015559562 -0.055857677 0.028012337 4.284053e-06
0.0012085391 0.009295759 0.048849825 0.11762693 -0.009440783 0.1539391 -0.0020355922 2.7248639e-06
0.022616217 -0.030284684 0.0019580156 -0.0003054719 -0.054759085 -0.000817261 0.1374886 -1.8249972e-05
-0.00015158243 0.03120322 -0.06699419 0.0029903445 -0.0051160622 2.4414574e-06 0.013623305 -4.783792e-07
-0.027594002 0.046654172 5.2952796e-06 0.0483347 -0.00792778 -0.007151071 0.12750398 0.12047608
0.004772506 0.05815746 -0.11441969 0.085295245 0.079153605 -0.03232047 0.025031134 -0.013822034
-0.033648912 -0.024135822 0.022450108 0.00039089491 -0.052871924 -0.005060324 -0.006105932 0.027468652
0.031536285 -0.04708206 0.039074417 0.06732169 -0.058412317 -0.03348499 -0.0809067 0.13303237
0.11060565 0.020718867 0.0064133583 0.025961919 -4.668735e-10 -0.04122778 0.04828971 0.0113045005
-0.0006346787 -0.011958711 0.0077775456 -0.056039087 0.07093252 0.0051378487 0.009834446 0.035563655
-0.00082765153 -0.055089783 -0.044567935 -0.06734181 -1.1729531e-06 -0.004728221 -0.049331844 -0.058535077
0.011776244 -4.5656358e-07 6.1239756e-05 0.060108326 0.0046220534 0.069767 -0.02887529 0.003504523
-0.023397747 1.411222e-06 0.0631294 2.4366505e-05 -0.004311318 -0.016235417 0.030538097 -0.030400164
0.0005440258 -0.00058770925 -0.0002771165 0.03517822 0.038349796 0.027254576 0.00071761466 -0.0013819785
0.066578984 -1.2985854e-05 0.11050263 0.020579243 8.059742e-06 0.046868157 0.079500556 -0.02359611
-0.035443496 0.0056606624 0.015748385 0.0021681942 0.0009831353 -0.029811032 -0.0038233465 1.7523568e-06
0.00019983601 0.015903134 0.09068974 0.08360313 0.17167847 0.02426875 -0.00091360713 -1.3399944e-05
0.013388218 -0.022392457 0.06564907 4.88531e-05 0.030571716 0.031665083 -0.07856016 1.9902349e-05
0.00096602534 0.01745997 0.009102694 -0.024503523 -0.010488975 -1.8959138e-06 -0.005391816 9.029943e-09
-0.040095296 0.03916236 4.255272e-06 0.011212476 0.036030598 0.07780665 -0.044984907 7.8765705e-05
-0.033142727 -0.041550487 0.09100051 0.05282534 -0.048574075 0.042086706 -0.058421135 0.027450992
0.0138112325 0.024916967 -0.0431114 -0.0045625833 0.016796278 -0.0011926242 -0.006979348 0.007130671
-0.030351724 -0.0034499823 -0.021906575 0.13371892 0.103887126 0.063635 -0.0014903833 -0.098895565
0.12866223 0.051505152 0.034500364 0.014789503 -2.241146e-09 0.012677464 0.022235967 0.06000293
-0.008723896 -0.07162068 0.0037051425 -0.0062342975 -0.056583468 0.010996128 -0.022409428 0.03638022
00000000: 765e 7e3d 9074 4c3c c360 9b3c 3617 123d
00000010: 94bb 0036 54d9 893d 9697 b43c 907e 85bd
00000020: 985b 33bc 725e 9b3c 9cc4 27bd 0d85 e83d
00000030: 7b04 19bd 0a97 a7bb 9801 c43d 78a9 03bd
00000040: 5838 96bc 8bb8 313c 99e4 063d c243 11bc
00000050: 4ac3 2c38 9d64 0ebc 7459 ba3d bc34 893d
00000060: 0f26 febc 9d94 2337 ff1d 1739 c5a2 ec3c
00000070: cb16 23bc ddb5 873b 566c f83d 100f 033b
00000080: 3f2b b43d 4f0b 8735 c0b7 a73c aa14 2239
00000090: cc57 e6bb d508 19bc 1c31 513d 3e83 883d
000000a0: 55fa 2cba e983 593a 1d5d 523b ca90 5dbd
000000b0: 9ec5 453d 7041 0c3d 5391 cf3d 7092 5b3d
000000c0: a7f3 2fbb ca3d e6b8 1a14 583c e8ff cfbd
000000d0: bb51 0db8 edd1 67bd d75e 2e3c 19d7 4ebd
000000e0: 1d12 9fbc 2986 aa3b 3e58 cd3c c996 03bd
000000f0: 3af1 cbba 05cb 64bd 217a e53c bcbf 8f36
00000100: d867 9e3a 3d4d 183c c116 483d 63e6 f03d
00000110: 84ad 1abc 36a2 1d3e 9267 05bb cedc 3636
00000120: a545 b93c 9617 f8bc 0d52 003b bf27 a0b9
00000130: 104b 60bd 753d 56ba d0c9 0c3e 8417 99b7
00000140: 19f2 1eb9 e59d ff3c 4034 89bd a8f9 433b
00000150: a4a4 a7bb ebd7 2336 4834 5f3c f869 00b5
00000160: d10c e2bc 7218 3f3d 1bae b136 9bfa 453d
00000170: 85e3 01bc 8853 eabb 6790 023e 2abc f63d
00000180: af62 9c3b 8436 6e3d df54 eabd 46af ae3d
00000190: 491b a23d 7862 04bd 180e cd3c d075 62bc
000001a0: 71d3 09bd 7db8 c5bc 4ae9 b73c 07f1 cc39
000001b0: 3b90 58bd 13d1 a5bb 4514 c8bb f005 e13c
000001c0: 312c 013d 1ed9 40bd 7f0c 203d f4df 893d
000001d0: c141 6fbd 8f27 09bd 69b2 a5bd a339 083e
000001e0: 3785 e23d 9dba a93c 2627 d23b 17ae d43c
000001f0: 4d55 00b0 76de 28bd 6ecb 453d 8336 393c
00000200: 9160 26ba 78ee 43bc c8da fe3b 3e89 65bd
00000210: 1245 913d 665b a83b a820 213c 32ab 113d
00000220: c1f6 58ba d3a5 61bd de8c 36bd 81ea 89bd
00000230: 5d6e 9db5 31ef 9abb 3010 4abd 7ac2 6fbd
00000240: 26f1 403c 9f1d f5b4 d86d 8038 2634 763d
00000250: 9874 973b 00e2 8e3d df8b ecbc 24ac 653b
00000260: a2ac bfbc 3869 bd35 fd49 813d ac66 cc37
00000270: f545 8dbb 2300 85bc 082b fa3c c409 f9bc
00000280: f49c 0e3a 8010 1aba f249 91b9 0a17 103d
00000290: ad14 1d3d fd44 df3c 4e1e 3c3a 8123 b5ba
000002a0: 905a 883d d1dd 59b7 344f e23d cd95 a83c
000002b0: 5438 0737 d3f8 3f3d 30d1 a23d a14c c1bc
000002c0: 332d 11bd 147d b93b c202 813c 4318 0e3b
000002d0: 8cdc 803a 4436 f4bc 1c91 7abb 8532 eb35
000002e0: 128b 5139 4a47 823c 8bbb b93d 1e38 ab3d
000002f0: 7bcc 2f3e 42cf c63c 237f 6fba 52d0 60b7
00000300: 425a 5b3c 6370 b7bc 0573 863d 9ee7 4c38
00000310: 8971 fa3c 3fb3 013d 26e4 a0bd f8f3 a637
00000320: dd3c 7d3a 3608 8f3c 7723 153c 9dbb c8bc
00000330: f3d9 2bbc 1a77 feb5 d5ad b0bb 1c22 1b32
00000340: f73a 24bd b668 203d 82c8 8e36 88b4 373c
00000350: d294 133d 1859 9f3d 1842 38bd 042f a538
00000360: abc0 07bd d830 2abd 7a5e ba3d 625f 583d
00000370: 9cf5 46bd 1c63 2c3d 004b 6fbd e7e0 e03c
00000380: 8248 623c ab1e cc3c 9495 30bd b981 95bb
00000390: 5998 893c d451 9cba 04b3 e4bb 67a8 e93b
000003a0: 2ea4 f8bc 1919 62bb 6b75 b3bc 9ded 083e
000003b0: c6c2 d43d 1153 823d f758 c3ba c289 cabd
000003c0: 08c0 033e 11f7 523d 4150 0d3d ac4f 723c
000003d0: a802 1ab1 23b5 4f3c 3428 b63c a2c5 753d
000003e0: acee 0ebc ddad 92bd fad1 723b 1449 ccbb
000003f0: 11c4 67bd 1b29 343c fa93 b7bc 6d03 153d

bias f4 [84]
0.003308951 0.002874225 0.015528948 9.468943e-05 0.000854763 0.016394408 -0.005902698 0.015779587
0.015293568 0.004955053 0.009964024 0.010517877 0.019427864 0.016562374 0.029404266 0.009273416
2.3154644e-06 0.01926767 0.010069507 -7.7471314e-11 -0.0022348634 -0.000686174 0.005225382 0.010321817
0.01205774 0.0037682997 -0.0011116439 0.0069119288 0.02689012 -1.2746359e-06 -7.891705e-09 0.012899467
0.0035114367 9.558909e-06 0.024429386 0.0064782756 0.013568815 0.019994192 0.004457647 0.014423723
-1.1806002e-11 -0.009998503 0.006173018 0.0062280498 1.6261528e-12 0.015412796 0.0018875044 0.0004634327
-6.403934e-08 0.001985391 0.011696247 9.554416e-10 0.0055888826 0.0057660015 0.0024614355 -0.003498406
-8.901319e-05 0.022855705 2.0393495e-08 -0.0015014352 0.017851548 0.00663082 0.00984209 -0.003939664
0.0066633294 0.012586613 0.009316674 0.00073722575 9.139016e-05 0.012624037 0.00055588136 0.0041070464
0.015949171 0.0061178226 0.014440889 0.023301763 0.0040801084 0.015206109 0.009876131 0.0047300886
0.014216998 0.009534712 0.012656043 0.028387697
00000000: fcda 583b 7e5d 3c3b 216d 7e3c 0094 c638
00000010: 2d12 603a 914d 863c 6b6b c1bb 3144 813c
00000020: e091 7a3c ff5d a23b 2540 233c 2c53 2c3c
00000030: 2f27 9f3c d1ad 873c 37e1 f03c 87ef 173c
00000040: 6063 1b36 3cd7 9d3c 93fa 243c 795c aaae
00000050: c976 12bb 5ce0 33ba ae39 ab3b d71c 293c
00000060: d48d 453c 94f5 763b 94b4 91ba 767d e23b
00000070: ab48 dc3c 2814 abb5 1694 07b2 4958 533c
00000080: 2220 663b 345f 2037 2320 c83c b747 d43b
00000090: bc4f 5e3c dcca a33c 7411 923b 7b51 6c3c
000000a0: 82b1 4fad c3d0 23bc 0747 ca3b ab14 cc3b
000000b0: 54dc e42b f485 7c3c 2366 f73a e2f8 f239
000000c0: 0086 89b3 551d 023b 9ea1 3f3c 9d50 8330
000000d0: f222 b73b baf0 bc3b 0950 213b 8345 65bb
000000e0: 98ac bab8 e33b bb3c c52d af32 cecb c4ba
000000f0: 693d 923c 5a47 d93b b840 213c 4c18 81bb
00000100: 0f58 da3b 1538 4e3c f7a4 183c 6242 413a
00000110: b8a8 bf38 0dd5 4e3c 91b8 113a 6794 863b
00000120: d6a7 823c 0478 c83b 7a99 6c3c 57e3 be3c
00000130: 6eb2 853b 0b23 793c 7fcf 213c dcfe 9a3b
00000140: 69ee 683c 7b37 1c3c 4b5b 4f3c 518d e83c

weight f4 [26, 84]
-0.15215255 0.111656606 -0.102549665 -0.005106665 0.007682315 0.0648677 -0.011311201 -0.19563648
0.10267224 -0.005910591 -0.037669186 0.0431485 -0.15528895 -0.077489875 -0.09706242 -0.109701894
1.2558151e-05 -0.21879071 0.103792176 -9.041258e-11 0.10058341 0.15342613 0.11512874 0.016403802
-0.21924214 0.0035960344 -0.16438885 0.100838825 -0.06970184 0.0036537715 -1.3058128e-07 0.030098975
0.13877633 -5.72973e-06 0.107204966 0.0110904435 0.10384523 0.19574857 -0.02816882 0.027417615
-4.5835594e-07 -0.14668599 -0.057392117 0.14947565 -5.7872383e-12 0.19714087 0.19114958 0.0023231944
-1.9046166e-08 0.012139862 -0.042895366 2.9857472e-09 -0.044077832 -0.08442474 0.059945494 -0.10082698
-0.00032542905 -0.1857986 -0.000935583 0.067396976 0.05495458 -0.027494906 -0.040987134 0.073363565
0.016514348 0.18066959 -0.11061587 0.017115392 7.790471e-05 -0.14848581 0.00014606101 -0.096381776
-0.12315936 -0.07396389 -0.13984154 0.08412225 0.03204651 0.016331172 -0.08598646 0.013803665
0.15917537 -0.08481821 0.19218746 -0.05498251 -0.081114665 -0.06691319 -0.15356502 0.0032057357
-0.100094624 -0.13920793 -0.12899849 0.059513785 0.158091 -0.114655845 0.017762022 0.043551825
0.15379001 -0.2175651 0.08605868 -0.11795307 2.594547e-06 -0.018060764 -0.18362837 -6.3760273e-12
-0.08547388 0.0055210735 0.15376244 0.14137177 0.15817745 0.007642245 0.05734004 -0.11816371
0.09255016 -5.1213712e-05 4.695714e-08 0.045734912 -0.04298331 -4.614142e-06 0.08415204 -0.12639277
-0.08410656 -0.060403235 -0.09764012 0.22322208 -1.8623875e-11 -0.17188531 -0.023514919 0.116737835
-2.2176397e-12 0.10341464 -0.094077066 0.0003706679 -1.2300893e-07 -0.0025081562 -0.1676273 1.0167055e-09
0.030540323 -0.087283745 -0.13402517 -0.15272187 0.00022972158 0.081607416 -0.00049546565 -0.016199213
0.15308641 0.10486292 -0.20151483 -0.09175941 0.06895195 -0.1814568 0.19422925 -0.0023594897
-3.018648e-05 0.26954582 -0.0001903787 -0.1259381 0.027755385 -0.029750148 0.09823599 0.009386905
0.1347456 0.09069737 -0.13453102 0.0016152641 -0.055668846 0.1455464 -0.053353235 0.11184878
0.031250697 0.1758403 0.04542605 0.00017036869 -0.047579654 -0.0294858 -0.023128131 -0.06735429
0.14577577 -0.07404897 -0.033886775 0.0734297 -0.121093884 0.08919463 -0.09871093 0.042429857
-2.7686995e-06 -0.15549798 0.048638668 -1.983255e-11 -0.031203898 -0.04094631 -0.037397068 -0.06252967
-0.12904143 0.009346609 0.0126698995 0.039367594 -0.100327365 -5.678825e-06 1.2925834e-07 0.13485122
0.019775625 -1.5527974e-08 -0.13468646 -0.09986 -0.0660276 -0.10976288 0.10323179 0.11151253
7.02397e-11 0.12680508 0.1524977 -0.07156343 7.5729993e-13 0.11894937 0.15289822 -0.00036375248
-3.4619125e-09 -0.006522606 -0.009945353 -3.57356e-09 -0.05486443 -0.016142711 0.11225063 0.0545668
-0.00035779132 -0.15897478 -0.0014267615 0.03308338 -0.120605074 0.064096935 0.008358221 0.14091073
0.23020644 -0.008963525 0.04068374 -0.027149357 -0.00019338343 -0.17526382 -0.0012108797 -0.001981425
-0.19066824 -0.10278994 -0.0313817 0.013460269 -0.16439272 -0.09152091 -0.107613504 0.13261122
-0.110575624 -0.13269596 -0.036557592 -0.08093902 -0.024395041 0.05519536 -0.008820006 -0.012951224
00000000: e1cd 1bbe 38ac e43d 8f05 d2bd d055 a7bb
00000010: eebb fb3b 5bd9 843d 9e52 39bc ee54 48be
00000020: d345 d23d a2ad c1bb 014b 1abd 7bbc 303d
00000030: 1104 1fbe 03b3 9ebd a9c8 c6bd 63ab e0bd
00000040: d9b0 5237 ac0a 60be fe90 d43d c2d1 c6ae
00000050: adfe cd3d bd1b 1d3e 9ec8 eb3d 4461 863c
00000060: 0381 60be 72ab 6b3b 8d55 28be 9684 ce3d
00000070: d7bf 8ebd 1d74 6f3b e935 0cb4 2092 f63c
00000080: 621b 0e3e 0242 c0b6 478e db3d b1b4 353c
00000090: cfac d43d 5072 483e 4cc2 e6bc e89a e03c
000000a0: f613 f6b4 da34 16be ff13 6bbd 2510 193e
000000b0: cf9e cbac 4cdf 493e b7bc 433e bc40 183b
000000c0: f69a a3b2 46e6 463c 0db3 2fbd d22d 4d31
000000d0: f58a 34bd e1e6 acbd 6889 753d 607e cebd
000000e0: 599e aab9 fd41 3ebe ea41 75ba 6d07 8a3d
000000f0: 0e18 613d ff3c e1bc 20e2 27bd a33f 963d
00000100: 1949 873c 7301 393e 938a e2bd 9435 8c3c
00000110: c660 a338 aa0c 18be f427 1939 cf63 c5bd
00000120: f93a fcbd 617a 97bd 9f32 0fbe 4948 ac3d
00000130: 3443 033d f3c8 853c ab19 b0bd c428 623c
00000140: defe 223e 2bb5 adbd cacc 443e 5735 61bd
00000150: 721f a6bd c809 89bd 2640 1dbe 5217 523b
00000160: 69fe ccbd 868c 0ebe 2e18 04be bac4 733d
00000170: 9be2 213e afd0 eabd a981 913c 6663 323d
00000180: 217b 1d3e 63c9 5ebe 893f b03d 6191 f1bd
00000190: fa1d 2e36 2bf4 93bc 1309 3cbe 2656 e0ac
000001a0: ee0c afbd 1fea b43b e773 1d3e c3c3 103e
000001b0: 45f9 213e cc6b fa3b 64dd 6a3d d1ff f1bd
000001c0: f08a bd3d 4ece 56b8 ecad 4933 8854 3b3d
000001d0: 440f 30bd 2ed3 9ab6 e857 ac3d 1b6d 01be
000001e0: 0f40 acbd 6269 77bd 8bf7 c7bd 5494 643e
000001f0: 3dd1 a3ad b402 30be 5ca2 c0bc 3f14 ef3d
00000200: 720d 1cac 0ecb d33d 7aab c0bd 3456 c239
00000210: 7014 04b4 e15f 24bb 7ea6 2bbe 25bc 8b30
00000220: b32f fa3c d2c1 b2bd e53d 09be 1f63 1cbe
00000230: 6be1 7039 ca21 a73d 23e2 01ba 36b4 84bc
00000240: afc2 1c3e 5fc2 d63d e759 4ebe 5cec bbbd
00000250: ae36 8d3d d0cf 39be 08e4 463e aba1 1abb
00000260: f938 fdb7 e901 8a3e 65a0 47b9 ebf5 00be
00000270: 435f e33c 95b6 f3bc f32f c93d 88cb 193c
00000280: c0fa 093e 8bbf b93d 80c2 09be 45b7 d33a
00000290: 0405 64bd 1e0a 153e ec88 5abd f910 e53d
000002a0: bb00 003d 7b0f 343e aa10 3a3d ffa4 3239
000002b0: e2e2 42bd 348c f1bc 3577 bdbc 0cf1 89bd
000002c0: 3e46 153e fda6 97bd dccc 0abd 5062 963d
000002d0: 1200 f8bd adab b63d f528 cabd eeca 2d3d
000002e0: e5cd 39b6 dd3a 1fbe 5739 473d ef72 aead
000002f0: 519f ffbc 51b7 27bd ab2d 19bd 8e0f 80bd
00000300: 7023 04be 8522 193c 6995 4f3c ea3f 213d
00000310: 6f78 cdbd bc8c beb6 43ca 0a34 7016 0a3e
00000320: 7e00 a23c 6062 85b2 3feb 09be 6683 ccbd
00000330: 7a39 87bd 5ccb e0bd 306b d33d ae60 e43d
00000340: 7075 9a2e 31d9 013e 5b28 1c3e d98f 92bd
00000350: 3629 552b ba9b f33d 5a91 1c3e 08b6 beb9
00000360: 9ce6 6db1 96bb d5bb d5f1 22bc bb92 75b1
00000370: 86b9 60bd b83d 84bc a9e3 e53d 7081 5f3d
00000380: f095 bbb9 49ca 22be 2c02 bbba 7082 073d
00000390: cbff f6bd 4145 833d ebf0 083c e74a 103e
000003a0: 3dbb 6b3e c0db 12bc fea3 263d 5468 debc
000003b0: f8c6 4ab9 5c78 33be 61b6 9eba ccda 01bb
000003c0: 893e 43be 8883 d2bd 198a 00bd 7688 5c3c
000003d0: 9156 28be 516f bbbd 7864 dcbd 3ccb 073e
000003e0: 7975 e2bd 73e1 07be 6abd 15bd 5bc3 a5bd
000003f0: 1cd8 c7bc 8814 623d c981 10bc 5f31 54bc

bias f4 [26]
0.009602382 0.024610981 -0.01556264 -0.025405407 0.004373447 -0.011543438 0.008588157 0.009097871
-0.007007795 -0.005949258 -0.0060045 -0.0016013887 0.014628893 -0.027301861 -0.003203211 -0.0081798015
-0.00837956 -0.0007382183 0.02396971 -0.0043319156 0.01878271 0.007747568 0.018134154 0.009615109
-0.014132885 -0.005924235
00000000: 4f53 1d3c f89c c93c 71fa 7ebc 001f d0bc
00000010: 224f 8f3b b020 3dbc 57b5 0c3c 3d0f 153c
00000020: a5a1 e5bb fef1 c2bb 66c1 c4bb b0e5 d1ba
00000030: 06ae 6f3c 27a8 dfbc f6ec 51bb 9304 06bc
00000040: 6c4a 09bc fe84 41ba 205c c43c bef2 8dbb
00000050: 33de 993c 50df fd3b 148e 943c b188 1d3c
00000060: 9e8d 67bc 1620 c2bb
