properModelV1.pth (torch, 261805 bytes, 18 tensors)

weight f4 [6, 1, 5, 5]
000000 8b 00 15 3c e1 fa c8 bd f1 a8 19 be 4b a0 a1 bd
       0.009094368 -0.09813476 -0.15005852 -0.078919016
000010 cc 97 18 3d 9e e4 9d 3d 7b ce 34 3e a4 92 b0 bd
       0.03725414 0.07709621 0.17656891 -0.086217195
000020 0a ce 98 be e0 5c 28 3e ae 58 08 3e 5e b7 54 3e
       -0.29844695 0.16441679 0.13315079 0.20773074
000030 03 bd 81 be aa 4e 37 be f8 e1 11 3e 7c d1 86 3b
       -0.25339517 -0.17901102 0.14246356 0.004114328
000040 7c 44 ad 3d 1e 11 a5 3c 0e 0a 5e bd 01 86 ef 3d
       0.08460328 0.020149764 -0.054208808 0.11695481
000050 7d 67 b5 bd c6 54 0b 3d 7f a8 6c 3d 33 72 44 3d
       -0.088576294 0.034016393 0.057777878 0.04796047
000060 d4 e2 45 3d b7 ad 02 3e 79 6c f5 3d 24 af 85 3d
       0.048312023 0.1276158 0.1198358 0.06527546
000070 8f 26 52 3c 10 f5 49 39 3f 64 c2 3d 5d 83 f9 3c
       0.012826576 0.00019260147 0.09491777 0.030458147
000080 f6 90 40 bd b4 4a 88 bd 85 35 a0 3b e8 39 65 3e
       -0.047013246 -0.066548735 0.0048891925 0.2238537
000090 5c 05 cf bd 0f e7 10 be ac d7 cc bc 2c a3 e3 bc
       -0.10108444 -0.14150642 -0.025005184 -0.027787767
0000a0 51 1c 04 3e 47 bc 90 be 03 57 59 be a8 29 93 bb
       0.12901427 -0.28268644 -0.21224599 -0.00449105
0000b0 a1 e4 90 bb e8 b2 28 bd c4 11 19 be 36 77 54 3d
       -0.004421786 -0.041186243 -0.14948183 0.0518715
0000c0 38 b1 4a 3e ac d0 f2 3c 06 f1 2e 3e 37 3a fa 3d
       0.19794166 0.029640518 0.1708413 0.12218135
0000d0 61 f8 ca 3c 85 9b 42 bd 41 2e 72 be 4e f0 4c 3e
       0.02477664 -0.047511596 -0.23650457 0.20013544
0000e0 38 a7 23 3e c4 1a b5 3d 27 13 60 3c 38 04 d7 bd
       0.15981758 0.08842996 0.013676441 -0.104988515
0000f0 45 a2 df 3d 38 3b 0f 3d b8 4b 4a 3d 9e e4 5b 3d
       0.10919622 0.034968585 0.049388617 0.053684823
000100 76 5b 80 bd f1 ff a5 3d 92 ee c6 3c fa a8 8b bd
       -0.06267445 0.081054576 0.024283681 -0.06819339
000110 c6 9c 79 bd a9 db da bc cc 14 5a 3b 22 18 67 3d
       -0.060940526 -0.02671607 0.0033276556 0.0564195
000120 58 1f 80 bc 2a c6 f1 bd dd 8c ea bd fc 65 b0 3d
       -0.015639946 -0.11805375 -0.11452649 0.08613202
000130 04 cc 02 3e 3a 45 f5 3c c0 d8 67 bc b0 f6 d0 bc
       0.12773138 0.029940236 -0.014150798 -0.025508255
000140 25 ee 44 bd dd c6 d7 3d 23 75 4e 3e 83 1b 37 3e
       -0.048078675 0.10535977 0.20161872 0.17881589
000150 ac 3f 33 bd f5 7e 93 bd 77 90 ae bc 39 e0 a2 3d
       -0.043761894 -0.072019495 -0.02130912 0.07952923
000160 71 f3 9c 3d e3 02 71 bc f3 67 23 bd 40 da 9f be
       0.0766362 -0.014710161 -0.039894056 -0.312212
000170 68 60 0f bd 64 a1 da 3d 1e 88 89 3d e3 3d a4 3d
       -0.03500405 0.10675314 0.067154154 0.080196165
000180 a3 39 b7 bd fa 65 82 be 22 74 6f bb 39 c9 08 bd
       -0.0894654 -0.25468427 -0.0036537726 -0.033395026
000190 61 31 a0 bd 66 02 84 bd 02 08 1b bd 9b cc a3 3c
       -0.07821918 -0.0644577 -0.037849434 0.019995024
0001a0 5a 5c 45 3d 44 37 3d be 81 f5 b7 bc 29 dd 00 3d
       0.048183776 -0.18478113 -0.022455933 0.031460915
0001b0 d3 8e 02 3e 4a d8 0e 3e 07 e4 2d be 0c 14 de bd
       0.12749796 0.13949695 -0.16981517 -0.108436674
0001c0 fa 59 9c 3b 64 16 32 3e 3e 85 ea 3d 95 8a a8 bd
       0.004771468 0.17391354 0.11451195 -0.082295574
0001d0 45 86 40 be 0a 3c 06 3d c2 ed 43 3d e1 e9 3e 3e
       -0.1880122 0.0327721 0.047834165 0.18643905
0001e0 bf 54 01 3e 2d 9f c3 bd 95 c2 a6 bd 22 48 97 3c
       0.12629984 -0.09551845 -0.08142582 0.018467013
0001f0 fb 5f 2d 3e 2e b2 c0 3d d8 53 9c bc da 9b ed bd
       0.16931145 0.09408985 -0.019082949 -0.11601992
000200 44 10 8f 3c e4 34 08 3e 59 0c 3d 3d 76 e8 89 3c
       0.01746381 0.13301426 0.046154354 0.016834479
000210 e0 49 d8 bd c6 5f fc bd 36 91 43 3d 35 a6 a1 bc
       -0.105609655 -0.12322955 0.047745906 -0.019732574
000220 35 4a 83 3b ba 9a 23 bc 41 25 d3 bd 5e b5 85 bc
       0.004006649 -0.00998562 -0.1030984 -0.016321834
000230 6e 11 06 bd a2 05 a6 bd 5e a7 5b bc fa a9 af bc
       -0.032731466 -0.08106543 -0.013406603 -0.021443356
000240 e2 e2 01 3d e8 28 b5 3d 82 8d 9c bd 78 e9 8c bd
       0.031710513 0.08845693 -0.07644178 -0.06880468
000250 0d 80 54 bd 0e 48 8c bd
       -0.05187993 -0.06849681

bias f4 [6]
000000 ac 09 bc b6 82 46 25 b8 79 38 21 b5 e7 97 4d 35
       -5.6039626e-06 -3.940473e-05 -6.005935e-07 7.65895e-07
000010 e9 9f 0a b6 99 d0 81 b6
       -2.0656682e-06 -3.8687836e-06

weight f4 [6]
000000 3b 64 e9 3e 66 0e cc 3e 0d 2f c7 3e 20 cb cc 3e
       0.45584282 0.39854735 0.38903084 0.39998722
000010 0e 0e fc 3e 9c 30 87 3e
       0.49229473 0.26404274

bias f4 [6]
000000 9a 26 9a bd a2 a9 3f bd 5c bc b5 3d d2 a3 57 3d
       -0.07526894 -0.046792634 0.08873817 0.052646466
000010 8d 97 17 bd c6 3e f1 bd
       -0.037009764 -0.11779551

running_mean f4 [6]
000000 b6 57 e3 3d 89 ba a4 bc 03 d5 09 3f 4e d8 68 3e
       0.11100714 -0.020108478 0.53840655 0.22738764
000010 b6 61 58 3e c7 24 37 bf
       0.21131024 -0.7154049

running_var f4 [6]
000000 f3 c2 40 3d f8 f0 5f 3d 9b 42 41 3e 85 04 44 3d
       0.047060918 0.054673165 0.18873064 0.047855873
000010 7c ae 42 3e 26 6a a4 3d
       0.19011873 0.08028059

weight f4 [16, 6, 5, 5]
000000 eb d5 f9 bd bd ce a8 bc ff 80 e0 3d bd cd 87 3d
       -0.12199005 -0.020606393 0.10962104 0.06631038
000010 f1 b2 1f bd 50 00 e4 bd ff e9 97 bc 4f 38 0d 3e
       -0.03898901 -0.11132872 -0.018544195 0.13791011
000020 e2 09 a2 3d 88 50 e5 bd 5b f3 c0 bc 9a 93 6d bd
       0.07912041 -0.11197001 -0.02355354 -0.058002092
000030 c2 27 c9 3d dd 21 3d 3d da dd b2 bd b7 82 92 bb
       0.09822036 0.046174873 -0.08733721 -0.004471149
000040 3a 6e d4 39 30 67 c7 3c 04 97 f2 bc 1a 86 49 bc
       0.00040517916 0.024341196 -0.029613025 -0.012300039
000050 e3 0e 97 bc 8c 49 a2 bb 8f fd 40 bd 5b 3f 8d bd
       -0.018439716 -0.004952615 -0.047116812 -0.0689685
000060 f5 a8 62 ba bf df 0d bd 5e 7b 85 bd 66 42 00 3d
       -0.00086463924 -0.03463721 -0.06517671 0.031313322
000070 a7 72 1e 3e a7 a2 13 3d 08 e4 95 bd 68 c3 bc bd
       0.15473424 0.03604379 -0.07318884 -0.09216958
000080 e8 9c 82 3d 45 28 00 3e 61 e4 c2 3b 6a 88 89 bd
       0.06377584 0.12515362 0.005947635 -0.06715472
000090 8d ec b0 bd 75 0d 33 3d c1 a8 62 3d de 5d 30 bd
       -0.086388685 0.043714006 0.055336718 -0.04305827
0000a0 e4 2d 25 bd 1d d6 28 bd 10 4b ee 3c 14 f9 5a bc
       -0.040326968 -0.04121982 0.029088527 -0.013365049
0000b0 2c 3e 55 bd a1 97 a7 3c 98 91 ac 3c 38 47 17 3c
       -0.052061245 0.020458044 0.021065518 0.0092332885
0000c0 54 73 21 bb 50 f7 2d bd 37 ff 3b 3c ba d9 1f bc
       -0.0024635391 -0.042472184 0.011474422 -0.0097565
0000d0 e9 71 81 3d a4 69 00 3d 0c 61 3e bc c9 fb 5f bc
       0.06320555 0.031350747 -0.011619817 -0.01367087
0000e0 6d ec 52 3d 3b 0f 90 3d 06 e4 13 bb 76 03 ad 3c
       0.051495004 0.07034155 -0.0022566332 0.021119814
0000f0 20 8d 85 bd df 99 a6 3c 8a b7 69 3d bf 4a 98 bc
       -0.06521058 0.020337043 0.057059802 -0.01859033
000100 c4 a4 5d 3c ef ae 5c bd 1c ba e0 bc 41 3d 36 3c
       0.013528053 -0.053877767 -0.027432494 0.0111230025
000110 ce 3b c8 3b 17 35 0e 3d 6e e4 d3 bc 68 f8 3c bd
       0.006110645 0.0347186 -0.02586576 -0.046135336
000120 15 5b 77 bb d1 12 03 3d 9a a1 75 3c 13 87 b2 bd
       -0.0037743498 0.032000367 0.014992142 -0.087171696
000130 11 79 7f bd 10 11 0b 3c c7 f7 c6 3c 9f 1f 75 bb
       -0.062371317 0.008487955 0.024288071 -0.003740288
000140 fd 60 f9 bc 65 d9 1f 3d b8 b7 6d 3b 29 c7 fa bc
       -0.030441755 0.039025683 0.0036272835 -0.030612545
000150 19 44 3b bd 5a 39 fa bb 79 93 e6 3c d0 97 ee 3c
       -0.04571924 -0.0076362314 0.028146492 0.029125124
000160 93 03 1e bd ed 7b 03 bd 0d d7 1b 3c 72 0c f4 bb
       -0.038577627 -0.032100607 0.009511721 -0.0074477727
000170 d8 a9 64 bd 49 8c d9 bc 40 69 de bc 94 cd 24 3c
       -0.055826038 -0.026556151 -0.027149796 0.010058779
000180 8a 9a 8f 3d 95 5e a4 bb ef f1 09 bd 33 7f 25 bc
       0.07011898 -0.005016158 -0.03367799 -0.010101127
000190 a4 f5 bf bd 8d 55 67 3d a2 c3 d9 3d eb 5d 53 3d
       -0.09373024 0.056478072 0.10633017 0.05160324
0001a0 98 35 22 3d a4 85 54 bc 3a ff e9 3d 64 81 26 3d
       0.039601892 -0.0129713155 0.11425634 0.04065074
0001b0 ba 47 80 ba 93 33 98 3d 3b d7 34 3c 5a 85 8c 3d
       -0.0009787001 0.07431712 0.011037643 0.06861372
0001c0 58 7e 77 bd 01 80 3c 3b 5c 24 74 3d 5a 73 ff bc
       -0.060423225 0.002876282 0.059604988 -0.031182934
0001d0 a2 bc 3c bd a0 8e d3 bc be c1 9a 3d 42 75 0c 3d
       -0.04607833 -0.025824845 0.07556485 0.034291513
0001e0 94 36 82 bd 30 32 a3 bc fa 97 97 bc 35 3e 6f 3d
       -0.06358066 -0.019921392 -0.018505085 0.058408935
0001f0 56 45 b0 bc be 3f a6 bc 06 c8 be bb 4c b2 5b bc
       -0.021517437 -0.020294067 -0.0058221845 -0.0134092085
000200 d6 6e 64 bd d9 c1 cc bc 51 1a 3b 3c ce 68 24 bc
       -0.055769764 -0.024994778 0.011419849 -0.010034753
000210 a0 38 b6 bb f2 02 c8 bc 74 e0 86 bc 55 97 1f 3d
       -0.0055609494 -0.024415467 -0.01646445 0.03896268
000220 4d 46 48 3a 22 58 8c 3c 2a bf 7b bc ba 89 c7 bb
       0.000763987 0.017131869 -0.015365401 -0.0060894163
000230 13 61 6d 3c 56 00 9c 3b 97 51 cf 3c 11 6c 1e 3d
       0.014488476 0.0047607822 0.02530746 0.03867728
000240 1d 0a 80 3c 24 d9 f5 ba 38 8c 6a b9 ed 52 9f 3c
       0.015629822 -0.001875673 -0.00022368215 0.019448722
000250 f9 cf 01 3d 53 9e 0d 3c fd a5 99 3d 91 16 eb 3c
       0.03169248 0.0086437045 0.07502363 0.028697284
000260 cd eb 49 bd 92 16 8d bd ef 64 35 bd ea ee a3 3b
       -0.049297143 -0.068890706 -0.04428571 0.005002846
000270 c7 a2 8b bd 98 95 1b be 48 f2 67 bd 74 81 21 bd
       -0.06818157 -0.15193784 -0.05662754 -0.039430097
000280 39 85 d0 bc 86 47 26 bd eb 2a 71 bc 8a 3f bf bc
       -0.02545415 -0.040595554 -0.014719705 -0.023345727
000290 f2 c0 69 3c fe 45 71 3c 8a 82 3b 3d dc 37 01 bd
       0.014267193 0.01472616 0.04577879 -0.031547412
0002a0 8c b4 3f bd 99 88 5c 3d 9a 01 40 bb 79 41 9c bc
       -0.046803042 0.053841207 -0.002929783 -0.019074189
0002b0 fd f5 4d 3c cb fb af 3c 37 99 04 ba a0 87 47 3d
       0.012570855 0.021482369 -0.0005058231 0.048713326
0002c0 88 ab 72 3d 77 86 89 bc ac 2b 65 bd fc e4 35 bd
       0.059245616 -0.01678775 -0.055949852 -0.04440783
0002d0 e0 b2 77 bd fa 6a 2a bd 91 76 2f bd 7a 11 f8 bb
       -0.060473323 -0.041605927 -0.042837683 -0.0075704427
0002e0 57 69 6b 3d 02 c9 04 3d ef 4d 6f bc a6 61 98 bd
       0.057473507 0.03241826 -0.014605983 -0.074405
0002f0 79 f9 97 3c 3c 30 5b 3e da 91 88 3c 68 f9 1e bd
       0.018551575 0.21405119 0.01667111 -0.03881207
000300 4b 85 08 3d b8 d7 c9 3d 5f 1b 49 3e 7d 91 34 3d
       0.033330243 0.09855598 0.19639347 0.04408406
000310 32 f2 5f 3c 87 66 49 3d 66 f3 d4 3d 39 2c 0c 3d
       0.013668584 0.049170043 0.10397987 0.03422186
000320 25 a0 62 bd 31 a2 d9 3b 59 94 44 3d 11 4a c1 3c
       -0.055328507 0.006641649 0.047993038 0.023594888
000330 db e2 1e 3d 05 46 23 bd 82 c4 0d 3d b6 a5 15 3d
       0.038790565 -0.039861698 0.034611233 0.036534987
000340 f0 5a 99 3d bf e6 d8 3d 6c ec 0f 3c 6f 95 de 3c
       0.07488048 0.10590886 0.008784395 0.027170865
000350 df 28 55 3d 23 b5 98 3d 20 a9 a7 3d de ea 04 3c
       0.05204093 0.07456424 0.08186555 0.008112637
000360 f2 6f d9 bc d9 23 d9 bc da f2 70 3d a9 6f 38 bc
       -0.026542637 -0.026506351 0.05882535 -0.011257091
000370 30 7c 28 bd 9b 84 9e bd 67 d2 96 bd a9 b4 b9 bd
       -0.04113406 -0.07740136 -0.0736435 -0.09067661
000380 32 72 47 3b b2 20 7c 3d b6 ad d6 bc 3d bf 8a bd
       0.0030433056 0.06155462 -0.026205879 -0.06774757
000390 62 12 b9 bd a0 49 2f bd a2 fa bb 3a 04 71 0f 3c
       -0.09036709 -0.042794824 0.0014341662 0.008754972
0003a0 90 05 60 bd 21 7f 15 bd 65 eb 42 3b 50 d1 56 3d
       -0.054692805 -0.036498193 0.0029742357 0.05244571
0003b0 90 df a7 3c 0f 58 51 bc a2 58 35 ba 13 c0 98 bd
       0.020492345 -0.012777342 -0.00069178094 -0.0745851
0003c0 bd 8a 17 3d 3c 62 60 ba 9f 9f f9 ba 7e 4e 33 bd
       0.036997546 -0.000855956 -0.0019044763 -0.043776028
0003d0 91 d4 f2 bd d9 b1 42 3c 2e 1d 02 3d 57 ea 5e 3c
       -0.1185695 0.0118832225 0.03176611 0.013605676
0003e0 0b 84 20 b9 0c 45 8c bd 4d 0c ea 3c 72 6b 37 3c
       -0.00015307979 -0.06849107 0.028570319 0.011195051
0003f0 97 ca d5 3c f3 01 07 3d 1f fa 8a bc f8 42 2d 3d
       0.026097579 0.032960843 -0.01696497 0.042300195

bias f4 [16]
000000 0c fd 62 b7 c8 13 fb b5 8d 29 f7 35 b0 e4 a8 b6
       -1.3529567e-05 -1.8706714e-06 1.8415027e-06 -5.033413e-06
000010 6c fd d1 b8 b2 65 99 b6 10 01 c5 b8 ec 5d eb b5
       -0.000100131 -4.571594e-06 -9.39389e-05 -1.7536199e-06
000020 6b 46 98 36 4c a2 62 34 50 bd ce b3 14 cc 9c 36
       4.5381507e-06 2.1106933e-07 -9.627058e-08 4.67292e-06
000030 5a 98 85 33 cf 8b b8 35 93 18 26 b5 99 97 16 37
       6.221008e-08 1.3749758e-06 -6.187558e-07 8.975993e-06

weight f4 [16]
000000 52 01 8a 3f 22 73 a5 3f c5 94 96 3f 79 0d 9a 3f
       1.0781653 1.2925761 1.1764151 1.2035362
000010 79 e3 8c 3f cc 01 a1 3f 3b 59 82 3f ab 29 9e 3f
       1.1006919 1.2578673 1.0183481 1.2356466
000020 74 54 a3 3f 36 12 94 3f 69 31 86 3f 7d 31 a1 3f
       1.2760148 1.1568058 1.0483829 1.2593228
000030 18 2f a2 3f 19 db 42 3f b2 fc 95 3f f8 fe 87 3f
       1.2670622 0.76115566 1.1717741 1.0624685

bias f4 [16]
000000 09 6c 47 be cb d2 d9 bd 35 78 bf 3c e4 50 9f bd
       -0.19474806 -0.10635909 0.023372749 -0.077791005
000010 f6 2c 61 be fb 71 53 bd a9 53 d0 bc cd 26 0e be
       -0.21989807 -0.051622372 -0.025430517 -0.13881989
000020 50 74 e3 bc 92 40 ad bd 00 e7 39 be 88 b5 b5 3c
       -0.027765423 -0.084595814 -0.18154526 0.022181287
000030 ce f1 97 bc ec d9 ad bd 91 ef 93 bd de f2 ba bb
       -0.018547919 -0.08488831 -0.07223428 -0.0057052216

running_mean f4 [16]
000000 00 a2 e9 3c 85 33 2e 3d e8 1d 27 be 6b c5 ef 3d
       0.02851963 0.0425296 -0.16320002 0.11707576
000010 34 0e d5 3d 69 f6 38 3d f4 ec e3 be 2a 6e 0d 3d
       0.104031 0.04515687 -0.44516718 0.03452889
000020 21 7e 5b 3d 6c c9 fd 3d 6a ce 35 3d f2 48 6d 3e
       0.053587083 0.12391934 0.044386305 0.23172358
000030 a8 cd a8 bd f9 64 0c bf 98 d6 da bd 4f 08 80 be
       -0.08242351 -0.5484157 -0.10685462 -0.2500634

running_var f4 [16]
000000 20 e8 be 3d 59 37 a4 3d 76 0b 53 3d a0 2c 90 3d
       0.09321618 0.08018369 0.051524602 0.070397615
000010 8b 19 83 3d 22 1f b3 3d b0 e7 b4 3d 7d a0 ca 3d
       0.06401356 0.087461725 0.088332534 0.09893892
000020 8b a9 a3 3d 91 01 96 3d 49 52 94 3d cb 23 8c 3d
       0.07991322 0.073245175 0.07242257 0.068427645
000030 14 79 9e 3d 1c b3 98 3d 63 3c 71 3d 60 7f 72 3d
       0.077379376 0.074560374 0.05889548 0.059203506

weight f4 [120, 400]
000000 d9 4e af bc 9d b2 48 bd 22 3e 52 bd ee b7 89 bc
       -0.021399902 -0.048998464 -0.051328786 -0.016811337
000010 4e f3 95 3a 63 79 06 bd 1d 1a c3 bc bd 33 26 bd
       0.0011440308 -0.032830607 -0.023816163 -0.040576685
000020 e8 8d 75 bc d4 70 1f bd 42 2d 48 3b 33 b9 96 3b
       -0.014987446 -0.03892596 0.0030544554 0.004599714
000030 f8 d4 73 bc 20 6f 48 bb cd c1 56 bd ed 8c e9 3a
       -0.014882319 -0.0030583814 -0.052430917 0.0017818488
000040 37 2c c4 bc 9c de c7 bb 64 4c 80 ba b7 98 77 3c
       -0.023946865 -0.006099535 -0.0009788391 0.015112094
000050 9b b4 ab 3c 1f 3b f0 ba 66 c9 42 3b 44 02 bd 3b
       0.020960143 -0.0018328166 0.0029722094 0.0057680923
000060 41 a1 e8 3c df e6 af bc 3e e9 dd bc c0 83 c5 b7
       0.028397204 -0.021472393 -0.027088758 -2.3545581e-05
000070 5a 2b a2 3b 3a 50 88 bc 57 66 94 3c 13 3b 1f 3d
       0.0049490156 -0.016639818 0.018115206 0.038874697
000080 df ab 0c 3c f9 3f e0 bc ac c9 72 3c ab 31 49 bc
       0.008585899 -0.027374255 0.01481859 -0.012279908
000090 cc a1 30 3d 14 f4 7a 3c 74 af 19 bd 99 e0 1d 3c
       0.04312305 0.015316982 -0.03752084 0.009636068
0000a0 88 84 1a bd e2 2c 24 3d ad 90 71 3c 19 c8 41 bd
       -0.037724048 0.040081866 0.014743966 -0.04730997
0000b0 eb bf d0 3c 34 13 69 bc e7 db fd bb 42 09 19 3a
       0.025482139 -0.01422577 -0.0077471617 0.00058378663
0000c0 d9 8a ac 3c ca 59 b0 3b df c9 c5 bc fa 11 fc bc
       0.021062301 0.0053817974 -0.024144111 -0.03077029
0000d0 c7 83 f1 3b 22 47 42 3d e2 dc 2f 3b 9f 5b 24 bd
       0.0073704454 0.04743112 0.0026834537 -0.04012644
0000e0 cb a4 1c bd bf c7 89 3c e2 bc 22 3d 1c 3f e8 bb
       -0.038243096 0.01681888 0.039730914 -0.0070876013
0000f0 d1 1c 7e 3c d9 8c a5 3d e5 09 03 3d e1 28 fe 3c
       0.0155098 0.08083505 0.031991858 0.031025352
000100 93 da 1e bd 6f 89 12 3b f7 5c cd bb 5e d0 08 3b
       -0.038782667 0.002235975 -0.006267186 0.002087615
000110 5f d7 ad 3c 39 45 06 bd 46 0f ec ba 0f 16 7c 3c
       0.021220861 -0.03278086 -0.0018009923 0.015386119
000120 eb ec 92 3c e9 b6 ac 3c 57 e4 c9 3b d3 71 55 bd
       0.017935237 0.021083312 0.0061612534 -0.052110504
000130 3f d4 94 3c 1c 1d 12 3d 31 48 8c 3c d3 a6 58 bc
       0.018167613 0.035672292 0.017124267 -0.013223368
000140 ff 1b 37 bd e3 c3 84 3c bf 00 16 bd 26 bd 87 bc
       -0.044704434 0.016206687 -0.036621805 -0.016569685
000150 27 f1 af ba e6 a6 a2 bc e7 d6 0c 3d 25 9b 1c bd
       -0.001342331 -0.019854974 0.034384634 -0.038233895
000160 76 5c 21 bd 90 56 be bc 40 c4 0b bd 94 79 2f bb
       -0.03939482 -0.023234636 -0.034122705 -0.0026775347
000170 c3 43 89 bd ae bd a1 bc 20 09 e5 3c a7 be e3 bb
       -0.06702378 -0.019743767 0.027958453 -0.0069502178
000180 9d 71 98 bb 18 83 2d 3c ff 28 c0 3c a2 f2 d0 3c
       -0.0046522156 0.010590337 0.023457048 0.025506321
000190 7c 22 6c bd be cb a0 3b 4a 47 04 3c d2 06 04 3c
       -0.057650074 0.0049071005 0.008073637 0.008058267
0001a0 d2 6b 07 3d 7d 86 ea bc f9 e4 84 bc 62 2a c4 bc
       0.03306181 -0.028628582 -0.016222464 -0.023945991
0001b0 c9 cf 34 3c 57 e3 42 3d b9 e6 b1 3c 42 07 ea 3c
       0.011035868 0.04758009 0.021716462 0.028567914
0001c0 9c 2c c2 bc 56 e8 01 bd 5a 6a b5 3d c5 a7 ca 3c
       -0.023702912 -0.031715713 0.088581756 0.024738202
0001d0 74 34 96 ba be 8f 5e bd 10 75 0e bd bb fa cc 3c
       -0.0011459724 -0.054336302 -0.03477961 0.025021901
0001e0 43 70 e4 bc 97 37 96 bb 02 63 99 bc 8d 2a 1f bc
       -0.027885562 -0.0045842635 -0.018723968 -0.009714735
0001f0 8d 2c fa 3b 22 8e 18 bc 27 65 59 3c b9 b6 94 bb
       0.0076347054 -0.009311231 0.0132687455 -0.004538384
000200 2e 0f 3b 3c 9f 6f 27 3d fa d3 9f 3c e2 d4 2f 3d
       0.011417193 0.040877935 0.019510258 0.04292763
000210 b7 7e 91 3c 31 3e 8d 3c 9d e1 08 3d 30 06 e8 3c
       0.017760618 0.01724157 0.033418287 0.028323263
000220 67 4c 9f 3d 52 d4 42 3d 3e 6f b9 3c 8a 10 77 3c
       0.077782445 0.047565766 0.022636052 0.015079627
000230 8c b6 f7 bb a1 fd 06 3d d6 e1 08 3d 48 c3 a4 3c
       -0.007559603 0.032956723 0.0334185 0.020112649
000240 05 44 8f 3c 1c 43 a9 bb c9 05 39 3d 13 d9 25 3d
       0.017488489 -0.0051654708 0.045171533 0.04049022
000250 2c 7e f4 3c 49 b0 30 bb e2 7e 57 3d 0d da 0a 3d
       0.02984532 -0.0026960543 0.05261124 0.033899356
000260 09 a6 b0 bb 14 f6 8c bc 92 83 70 3b 56 e1 d7 3b
       -0.0053908867 -0.017207183 0.0036699516 0.0065881414
000270 b3 fc af 3c 8c db 0c 3b e0 3f ae 3c 86 be c1 3c
       0.021482801 0.0021493165 0.021270692 0.023650419
000280 69 8a 75 bc 37 f1 b5 bc b1 6c b5 bc 74 44 81 3d
       -0.014986613 -0.022209747 -0.022146555 0.063118845
000290 58 74 49 3d e7 ac 94 bb 88 9b ef bb 45 56 ee bb
       0.04918322 -0.004537213 -0.007312242 -0.0072734677
0002a0 85 02 97 3c 60 37 eb 3c 1e a2 0d bc 19 3b d8 bc
       0.018433819 0.028712928 -0.008644609 -0.026395367
0002b0 12 d4 da bc e1 15 d0 bb d0 6b 21 bc 48 39 3b bd
       -0.026712451 -0.0063502644 -0.009852365 -0.045708925
0002c0 a1 c9 e1 bc b8 8e 21 bd 4c 0c da bc 00 92 91 bc
       -0.027561964 -0.039442748 -0.026617192 -0.017769814
0002d0 c8 7e 04 bd f0 e5 2f bc c9 3a 99 bb a9 9c c8 bc
       -0.03234747 -0.010735974 -0.004676197 -0.024488764
0002e0 f1 13 e0 bc 83 e1 26 3d a0 0e b1 3c 6f 87 dc 3c
       -0.027353259 0.04074241 0.021613419 0.026920049
0002f0 e4 44 1d bd 34 41 b7 3b 38 65 36 3d 6b 0f 4e bc
       -0.038395777 0.0055924896 0.044530123 -0.012576918
000300 8f cf 3f bc f2 23 3a bc 25 c7 0d bc df 08 09 3d
       -0.011707201 -0.011361109 -0.008653437 0.033455726
000310 0c 44 15 3d c9 a8 1d bc 50 5f 57 bc 1e 6c 10 3d
       0.036441848 -0.009622761 -0.013145283 0.03525936
000320 8f ab a5 3c 01 fb 82 3c 10 05 9b 3d 6a 9d 9a 3d
       0.020223407 0.015988829 0.07569325 0.075495556
000330 bf 89 b5 3d 3a a3 59 3b cc 74 4e 39 7e a4 75 3c
       0.088641636 0.0033208863 0.00019689201 0.014992831
000340 74 31 0f 3d 58 a0 ad 3d ef d6 6c bc 5e 43 0d bc
       0.03495927 0.08477849 -0.014455541 -0.008622019
000350 06 3f d6 3d e5 ca a0 3d 83 d5 64 3d 58 b4 1e 3b
       0.104612395 0.07851199 0.055867683 0.002421638
000360 ce fb 73 bd 48 e8 71 3c cb 03 f3 3a 34 99 e0 bb
       -0.05956631 0.014764853 0.0018540559 -0.0068542007
000370 7e d4 5b bc 9a c5 0f bd ea d4 f2 bc 9b 99 05 bd
       -0.013417361 -0.035100557 -0.029642541 -0.032617193
000380 77 ad 87 3a 93 9b 77 bb dc 67 0c bd d8 87 8b bd
       0.0010351379 -0.0037781938 -0.034278736 -0.068130195
000390 53 0c 77 bd a2 a5 fd bc 65 57 98 3d 5e da 4d 3d
       -0.060314488 -0.030962769 0.07438544 0.05025708
0003a0 8d d6 6b 3c 8c 84 e8 bc 77 1a 93 bc 1f 8a 48 3d
       0.014394415 -0.028383516 -0.017956955 0.048959848
0003b0 2c 76 01 3d 16 f9 78 bc 6a ce e6 bc 60 14 c7 bc
       0.031606838 -0.015196105 -0.028174598 -0.024301708
0003c0 08 c8 cd 3b 95 d9 ea 3c 05 38 c0 bb 9b cb fe bc
       0.006279949 0.028668204 -0.005866053 -0.031102946
0003d0 f8 b3 ca bb db 61 da 3c 0c e2 1b 3c 87 68 45 bc
       -0.0061860047 0.02665799 0.009514343 -0.012048847
0003e0 e3 72 af bc 61 31 02 3d 56 23 88 bc 51 b0 85 bc
       -0.021417087 0.031785373 -0.016618412 -0.016319426
0003f0 2a a2 32 bc 92 1f a4 bc 7b e0 ac 3c 7a d8 aa bc
       -0.010902921 -0.020034585 0.021103134 -0.020855177

bias f4 [120]
000000 a6 79 fc 3b 07 e4 22 ba 6c 7b f2 3b 1a 02 36 b6
       0.0077049313 -0.00062137883 0.007399967 -2.7121337e-06
000010 48 d0 03 3a f4 e2 f7 3b d2 f8 f1 3c 96 3d 57 3c
       0.000502829 0.0075648967 0.029537592 0.013137242
000020 d9 9c f6 3a 69 d4 63 bc ce 49 84 bc 3d 1e bb b8
       0.0018815055 -0.013905623 -0.016148474 -8.922487e-05
000030 e8 fe 32 3c a4 b9 e0 3a b6 c9 b0 b9 6f 58 1a 3d
       0.010925032 0.0017145169 -0.00033719622 0.037681993
000040 72 ac 1b 3d 5e fe fd 3c 8f b0 cc bb 18 94 ff 3b
       0.038006254 0.03100508 -0.0062466334 0.0077996366
000050 0d 8a bb bb f4 25 84 3c 8f f8 7c bb a1 2a a7 b7
       -0.005723244 0.016131379 -0.00386003 -1.9927802e-05
000060 98 a1 49 3c 08 ba 20 3b a6 72 c0 b1 ba 14 0e 3c
       0.012306593 0.0024524946 -5.6009695e-09 0.008671934
000070 da 7b ae ba 48 45 69 b9 30 36 9c 3c 9b 25 90 ba
       -0.0013312057 -0.00022246421 0.019068807 -0.0010997535
000080 dc 5f 96 b9 cb 7c 8a b7 d9 7f 9e 3c 48 5b 09 3a
       -0.0002868165 -1.6508993e-05 0.019348072 0.0005239737
000090 fc ea 6e bc 17 1e 17 bc b6 f1 7f 36 5f eb a9 b8
       -0.014582392 -0.009223483 3.8138655e-06 -8.102389e-05
0000a0 c0 ef 02 b5 14 25 a9 ba b6 07 c9 39 86 7e 89 3c
       -4.8777656e-07 -0.0012904727 0.00038343453 0.016783964
0000b0 9b 36 8f aa cb f0 ab 3c 8a 2f c1 b8 c5 87 0a 3b
       -2.5439793e-13 0.020988842 -9.211812e-05 0.0021138054
0000c0 0b 63 90 3c 17 fb df 3a 4a 88 65 b8 c6 70 c2 3c
       0.017625352 0.001708838 -5.4724784e-05 0.023735415
0000d0 18 dd 4d b5 aa d0 ab 3b 07 a9 a0 b9 c1 ed e5 3b
       -7.6690185e-07 0.0052433806 -0.00030643513 0.007016868
0000e0 6c 8e 3f 3c 08 db 07 bb 05 15 94 3b 24 b5 ed b4
       0.011691671 -0.0020729918 0.0045191073 -4.4276487e-07
0000f0 67 09 5d 3c 0e 93 4e b5 70 f8 60 3c ee 64 07 3c
       0.013491011 -7.6954973e-07 0.013731107 0.00826381
000100 6d 38 3e af d6 a0 9f 39 99 dc 69 3a 98 40 04 b5
       -1.7300446e-10 0.00030446675 0.0008921116 -4.926783e-07
000110 24 d3 b6 3c 14 d7 06 3d c0 1e c5 ba c8 a2 13 23
       0.022317477 0.03291996 -0.0015039071 8.003356e-18
000120 5d 5a c3 27 1a 09 ba 3a 34 f7 18 bb db 87 b6 ba
       5.4221345e-15 0.0014193386 -0.0023340704 -0.0013925986
000130 70 e7 34 b9 40 75 39 3d 9f 12 4a b8 22 e7 15 ba
       -0.00017252355 0.045277834 -4.8177895e-05 -0.00057183404
000140 34 ad 57 39 0e d9 16 bd 02 49 ed bb c4 2e ca 3b
       0.00020568521 -0.036828093 -0.007241369 0.0061701257
000150 c8 14 37 b5 a2 69 30 3a 3a 6e 82 3a c1 94 94 a5
       -6.8203053e-07 0.00067296077 0.0009951063 -2.5774707e-16
000160 65 73 97 3c d8 45 b7 3b cf 1e 89 ba 2c ee b1 ba
       0.018487642 0.005593043 -0.0010461452 -0.0013575009
000170 d7 2c 49 bb 42 f3 dd b2 06 d0 26 3b 66 05 c1 b5
       -0.0030696893 -2.5838407e-08 0.0025453581 -1.4381192e-06
000180 61 ad 4b ba 49 fd 62 3b 88 9b 0c 3b 24 6a 92 bb
       -0.0007769671 0.0034635833 0.0021455009 -0.0044682194
000190 64 2b c4 3c 85 4a 18 3c 90 8b f2 3c 13 dc 95 bc
       0.023946472 0.009295111 0.029607564 -0.018293416
0001a0 96 3e b2 b5 7c 7a c0 2c 6f 7a 4c 3a 18 81 1d b2
       -1.3280248e-06 5.4705667e-12 0.00078002264 -9.167955e-09
0001b0 91 7e 56 b7 a2 b9 a0 3c b6 ab aa bc b1 73 10 ba
       -1.27848625e-05 0.019619767 -0.020833831 -0.00055104034
0001c0 3f 38 98 b7 b8 6c 0b ab e4 4b 98 b7 14 a7 ce ba
       -1.8146004e-05 -4.95336e-13 -1.8155151e-05 -0.0015766346
0001d0 b5 a6 fa b9 93 0d 40 b7 4c b3 11 b6 5e 6c cc bb
       -0.00047807922 -1.1447252e-05 -2.1711048e-06 -0.0062385043

weight f4 [84, 120]
000000 d8 87 9b 3b 25 b0 71 b5 89 d0 8c 3b a9 d5 91 b0
       0.0047464184 -9.003582e-07 0.0042973203 -1.0610864e-09
000010 2e cc d9 3b c7 e5 6f 3c 92 56 7a ba 7e a9 f9 ba
       0.0066466546 0.0146421855 -0.0009549643 -0.0019047705
000020 99 51 be 37 97 0e 5a 3c d0 4a 56 3a 5a 80 63 2f
       2.2687762e-05 0.013309143 0.00081746 2.069113e-10
000030 57 36 b8 3a f1 88 83 3b a7 62 55 3b 16 8b 6a 3c
       0.001405428 0.0040141274 0.0032560022 0.014315387
000040 ca 21 bd 39 92 e9 3b 3b 7e 77 24 34 41 c2 82 3c
       0.00036074064 0.0028673154 1.5317161e-07 0.015961768
000050 a0 e3 e2 ae 9e cd 1e 3b e6 bd 0f 3b a5 5b 93 38
       -1.03177245e-10 0.0024231444 0.0021933257 7.026576e-05
000060 e7 fe c3 3b 1f 3c 99 3c b2 55 da ae 2a 85 18 3b
       0.0059813145 0.018705426 -9.928715e-11 0.0023272731
000070 d0 7c cc 34 80 a6 b3 29 8d 73 d9 3b b4 93 9d b7
       3.8088774e-07 7.97808e-14 0.006636089 -1.8784638e-05
000080 8b b1 0a 38 4e 54 05 ae 5d 03 d9 3b e0 74 cd b6
       3.3067114e-05 -3.0315576e-11 0.0066227154 -6.123082e-06
000090 38 4f c8 3c b8 94 e8 3b fc 9b c0 32 5e a5 03 20
       0.024451837 0.007097807 2.2422675e-08 1.1150847e-19
0000a0 38 88 2c a3 3a 08 41 31 99 b1 e4 3b 1a c5 aa 3c
       -9.352984e-18 2.8089873e-09 0.006979179 0.020845938
0000b0 5c 2f 3e 99 08 85 f7 3b 1a 86 a9 32 e7 ab ec 3b
       -9.832334e-24 0.0075537004 1.9735172e-08 0.007222641
0000c0 a0 1a 7b 3b 56 bc 87 bb 48 48 84 35 b3 0b 36 3c
       0.003831543 -0.0041423244 9.855803e-07 0.011111188
0000d0 98 c0 c1 2a 6d dd 84 3c ce 64 2b 2e d2 d1 cb 3b
       3.4417326e-13 0.016218865 3.897043e-11 0.006220081
0000e0 b6 9d 8a 3b dd 3c 2e 3c ee fe 19 3c 2a 4a 74 ac
       0.0042302264 0.010634628 0.009399159 -3.4715655e-12
0000f0 39 bc 45 3b 6d 0d 9a 35 49 b2 9e 3b 6e 45 75 3c
       0.0030172004 1.1477802e-06 0.0048430306 0.014970167
000100 b7 d0 14 22 e8 80 0d b9 b8 10 06 3a a4 83 66 b4
       2.0168233e-18 -0.00013494829 0.00051141856 -2.146831e-07
000110 7e 80 50 3a d4 28 0b 3b bd db 64 3c 7e 4c c6 a1
       0.0007953717 0.0021234052 0.013968405 -1.3437249e-18
000120 4f 70 41 a2 72 1f 04 3c 42 bd 33 b6 ba d4 94 3a
       -2.6215833e-18 0.008064138 -2.678324e-06 0.0011354901
000130 36 27 05 b0 72 6c 3c 3c 9c 5e 49 2c 0b cf ea bb
       -4.844084e-10 0.011500465 2.8616337e-12 -0.0071657947
000140 b6 d6 8a 3a e1 98 23 b6 83 44 08 3c ec a3 0f ba
       0.0010592553 -2.437788e-06 0.008317116 -0.00054794434
000150 da 14 87 31 b6 d7 32 3c 7f 79 14 b8 88 1a 98 a0
       3.9313877e-09 0.010915687 -3.53991e-05 -2.5767359e-19
000160 03 2c 95 3c 6d ca fe 3b c0 bb 1c b9 c7 71 60 36
       0.018209463 0.007775596 -0.00014947262 3.3444828e-06
000170 ed a2 c1 37 50 00 82 ad 94 17 c2 3c 2d 9e 03 00
       2.3083261e-05 -1.4779428e-11 0.023692884 3.32249e-40
000180 cf a1 38 36 7f dc 39 3c f8 6e 64 3a 88 d1 14 39
       2.7512322e-06 0.011344074 0.00087140454 0.00014192436
000190 61 01 3b 3b 8d 41 63 3c 2c fc a8 3a 9f 3e e3 3c
       0.0028534757 0.013870609 0.0012892536 0.027739821
0001a0 6e 2e 04 a8 0e 0a 56 9e 58 e9 c2 3a 84 83 46 a9
       -7.33754e-15 -1.1331145e-20 0.0014870567 -4.4078903e-14
0001b0 c8 9b 57 34 71 cb a1 3c 5b e1 c3 3c fe d9 a3 35
       2.0080108e-07 0.019750329 0.023911169 1.220789e-06
0001c0 3e d2 0c b5 ce b5 5a a8 5e 9c 12 3c aa fb 9e ba
       -5.2460007e-07 -1.21408536e-14 0.008948414 -0.0012129445
0001d0 c8 42 c4 31 f5 2b a8 37 5f 33 e9 33 ba da 8b 3c
       5.711943e-09 2.004763e-05 1.0859252e-07 0.01707207
0001e0 ef 09 52 3a ad ca 30 b3 61 f7 b1 38 00 39 77 90
       0.00080123445 -4.1162526e-08 8.4860956e-05 -4.8756072e-29
0001f0 c0 cc 03 ba bd 59 2a 39 d0 03 e0 39 10 6d 1f 38
       -0.00050277635 0.00016245893 0.0004272745 3.8010126e-05
000200 80 94 78 3a 81 ca 11 39 f6 ed 77 39 84 8e 56 ae
       0.00094825774 0.00013903716 0.00023644403 -4.8784546e-11
000210 b9 c1 76 3a f9 d6 2c bc 5e ee 6b b9 34 d7 b9 ba
       0.0009413022 -0.0105493 -0.00022500145 -0.0014178515
000220 78 d9 3b ba f4 7d 73 bb 38 33 af 38 fb 3b 5c ba
       -0.0007165889 -0.0037153931 8.3541905e-05 -0.0008401272
000230 cc 20 2e 3a 2d cc 83 ba 27 cd 0f b9 aa ac a0 ad
       0.00066424604 -0.0010055356 -0.00013713968 -1.8266572e-11
000240 23 69 94 b9 ae 5f bd ba fa f8 d1 32 fe 53 2b bb
       -0.00028307093 -0.001444807 2.4444024e-08 -0.0026142593
000250 1b 21 42 b5 f1 10 43 3a 84 80 92 ba 2c 9c 09 ba
       -7.2318807e-07 0.0007441184 -0.0011177217 -0.00052494067
000260 4d 90 26 39 73 1a dd b2 ab bf 2e bb 47 50 80 36
       0.0001588475 -2.5739814e-08 -0.0026664536 3.824043e-06
000270 05 dc 08 b9 9e 34 35 b9 6f ac de 31 5a ae 7a a1
       -0.00013051934 -0.00017281107 6.480654e-09 -8.4934047e-19
000280 72 24 0d a9 4c 13 8f 2c ae 50 4e 3a 39 b4 ed ba
       -3.13399e-14 4.066447e-12 0.00078702986 -0.0018135376
000290 80 e8 c7 a7 d0 cb ef b9 9d 7f 7f b7 d2 c5 f0 37
       -5.5485672e-15 -0.00045737484 -1.5228897e-05 2.8702347e-05
0002a0 0c 76 9a ba 3b fb e3 37 cc 3b 26 2e b2 12 18 bb
       -0.0011784448 2.7177497e-05 3.779714e-11 -0.0023204503
0002b0 72 15 a2 2d 79 ad 25 bb 59 b6 9f b6 fc f8 75 ba
       1.8426791e-11 -0.00252804 -4.7597973e-06 -0.000938311
0002c0 52 d2 03 bb 3c 64 1c ba aa b4 0f 3a c0 b8 59 30
       -0.0020114374 -0.0005965864 0.0005481938 7.9206686e-10
0002d0 df e4 84 ba 1a 25 60 35 1e 04 6d 3a 0d 04 e3 ba
       -0.001013901 8.350049e-07 0.0009041446 -0.0017319933
0002e0 6f e8 fa a8 b9 94 f2 35 2c fc cd 39 1e 00 1f b1
       -2.7856378e-14 1.8073689e-06 0.0003928853 -2.3137612e-09
0002f0 d5 15 72 3a dd fc 86 bb c4 67 e0 b9 4a 25 80 1d
       0.00092348206 -0.004119499 -0.0004280192 3.3919874e-21
000300 f2 5c c7 a5 1c 4b 20 3a 38 bc 4c b2 5c 91 16 b7
       -3.458398e-16 0.0006114708 -1.1917159e-08 -8.974541e-06
000310 c7 5c 8d b1 6b ba e1 b9 98 a4 63 36 df e2 2b ba
       -4.1141877e-09 -0.00043054236 3.3921442e-06 -0.0006556939
000320 5f 57 95 ba 62 15 8e 31 c8 17 ea b9 29 1f 58 b9
       -0.0011393836 4.135175e-09 -0.00044649676 -0.00020610973
000330 f6 be 7b b0 70 3d 5e 37 1b c8 bd 38 84 7c 8c 94
       -9.158464e-10 1.3246536e-05 9.049495e-05 -1.41855e-26
000340 e7 68 0b b9 9f 61 97 ba 68 cd 63 b3 9a 9b 1e b8
       -0.00013295152 -0.0011549479 -5.3039372e-08 -3.781505e-05
000350 e7 64 06 38 30 9c ea a9 7b 1d f6 ba 1a 03 00 80
       3.2042062e-05 -1.0418782e-13 -0.0018777096 -1.113e-42
000360 d2 d8 f2 37 c6 76 bf ba fa 94 40 ba f4 b9 db ab
       2.8949613e-05 -0.0014607541 -0.0007346418 -1.5612498e-12
000370 40 83 14 ba 4e e5 df 39 75 72 11 ba e3 cc 17 3a
       -0.000566531 0.0004270472 -0.00055483665 0.00057907234
000380 ce d4 91 a7 7c 28 7b a8 ae 5e 1b 2d 7d 35 3b a8
       -4.047631e-15 -1.3942078e-14 8.831753e-12 -1.0392184e-14
000390 94 d7 57 36 30 fd b7 bb b7 c4 4f ba e6 31 51 39
       3.216298e-06 -0.005614899 -0.0007925736 0.00019950382
0003a0 b7 71 45 b4 d0 17 72 25 ac 32 4e b9 f2 46 ca b7
       -1.8388424e-07 2.0998222e-16 -0.00019664568 -2.4113313e-05
0003b0 14 dc 54 b8 34 39 12 1d 99 65 a4 2d 54 5a 71 39
       -5.0749702e-05 1.9352512e-21 1.868976e-11 0.00023017201
0003c0 0b 57 61 3c 34 ee 0a 3b 2c 68 2f 3d 82 81 13 ba
       0.013753663 0.002119911 0.042823955 -0.0005626903
0003d0 61 6d e0 bc fa f8 87 bd 05 f4 9e 3d 2d 54 00 3d
       -0.027395906 -0.066392854 0.07761387 0.031330276
0003e0 5d c4 0b 3c 84 3b c7 3d e2 65 9e 3e 7a 6b c5 38
       0.008530703 0.097281486 0.30937105 9.413711e-05
0003f0 3e bf cc 3c ff 0f 1b 3e f0 dd d7 bb 77 8f a5 bd
       0.024993535 0.15142821 -0.0065877363 -0.08084004

bias f4 [84]
000000 87 09 06 3c dc 55 c3 ba 5c 47 56 3c 93 8e 8f 3c
       0.008180982 -0.0014902907 0.013078537 0.01752404
000010 b4 d4 3a bb e4 79 1c 3d 74 6e b8 3c 9f 59 65 3b
       -0.0028508129 0.03820218 0.022513606 0.0034996045
000020 bc 01 be 3c a7 38 20 3c a8 02 b2 3c fb 94 f6 bb
       0.023194186 0.009779132 0.021729782 -0.007525084
000030 63 1f 02 3a e9 d3 4d b2 17 2c 31 3c a5 93 9b b9
       0.00049637834 -1.1980753e-08 0.0108137345 -0.00029673908
000040 f6 3f c6 3b 87 37 ff 3c 3b a3 11 3c fe b1 8e 36
       0.006050105 0.031154407 0.008889015 4.252651e-06
000050 7f 11 bc 3b 76 da 86 3c 01 94 ec 38 dc 02 27 3c
       0.0057393904 0.016461592 0.00011280925 0.010193553
000060 5e 3d c3 b3 fb 33 6f 3c ea a2 b6 a8 f3 cd 20 3d
       -9.091558e-08 0.014599795 -2.0276712e-14 0.03925891
000070 2b 39 02 3d 56 a1 2f b3 53 04 a9 3b c6 45 42 bb
       0.0317928 -4.0892097e-08 0.005157986 -0.002964364
000080 6c 8d 58 bb 17 f7 de 3c d1 7f b0 3c 2d 38 ce 35
       -0.0033043278 0.027217431 0.021545323 1.5364545e-06
000090 62 be 64 3c 08 90 39 3b 5b a5 d0 3c 65 fb 9a 3c
       0.013961406 0.002831461 0.025469473 0.018918702
0000a0 9c e3 29 3c 81 79 b2 3c 57 ae 31 3c 77 9c 56 30
       0.010369208 0.021786453 0.0108447885 7.8075096e-10
0000b0 04 86 9b 3c 5f c2 44 3c 19 f8 0f 3d 60 aa 59 b8
       0.018984802 0.012009232 0.035148714 -5.1895506e-05
0000c0 50 f7 1f 35 11 60 a2 3c 45 d1 2e bb 50 c2 b2 3c
       5.9592e-07 0.019821199 -0.0026675027 0.021821171
0000d0 66 3a 1d bc 0e cb 14 89 40 cb 6b 3c 67 38 8d 3c
       -0.009596443 -1.7910328e-33 0.01439172 0.017238809
0000e0 9c 94 fa 3c f8 c8 25 bb 7d f4 19 38 e4 fa 83 34
       0.03058844 -0.0025296789 3.670574e-05 2.4583198e-07
0000f0 3b f2 ed 3b 12 2b 3e 3c 48 19 c8 35 9c 33 2d 3b
       0.007261542 0.011606948 1.4908519e-06 0.0026428467
000100 49 c8 90 ba a9 16 c4 bb 19 1b 9f 3c 99 98 c3 3a
       -0.0011046018 -0.0059841466 0.0194221 0.0014922797
000110 da 24 8d b8 a7 eb 59 bb 9f e8 36 3d 25 28 79 b6
       -6.730268e-05 -0.0033252032 0.04465544 -3.7127259e-06
000120 f1 d4 10 3c 84 ee 32 3d 4a 2b e1 b7 dc e5 d2 3c
       0.008839832 0.043684497 -2.6842248e-05 0.025744371
000130 9a 5f c2 39 aa fa c6 bb 0d 57 6b bb 86 32 aa b8
       0.00037073792 -0.006072362 -0.003591004 -8.1156424e-05
000140 da fd af 3c 41 5c 72 3b 9b 75 e1 3b 6c 69 98 3b
       0.02148335 0.0036981257 0.0068804747 0.004651239

weight f4 [26, 84]
000000 d7 53 39 bc 78 14 29 bc 47 e3 c1 bd ca 1c 57 3e
       -0.011311493 -0.010319822 -0.09467178 0.21007076
000010 4b ab c8 bd 80 a7 b0 3e 6f 0d d7 bc 03 61 ff bd
       -0.097982965 0.34502792 -0.026251523 -0.124696754
000020 eb f6 d0 bd d5 4f a1 bd 6d c6 a4 bd 54 f3 01 be
       -0.10203346 -0.07876555 -0.08045659 -0.12690479
000030 04 41 42 3e a2 b3 ce 32 6e 29 de bd 25 9e 25 ba
       0.18970114 2.4063244e-08 -0.10847746 -0.0006317816
000040 62 37 17 bc a9 a8 48 be d5 3c 37 be b8 a2 43 36
       -0.009229513 -0.19595589 -0.178943 2.915198e-06
000050 1f 58 df bd 55 7c d2 bd dc 1c 9a b8 a7 0f c8 bd
       -0.1090548 -0.10277621 -7.348668e-05 -0.097686104
000060 2b 40 42 b5 b9 50 84 bd 8f 0b fa 3a 75 74 9c 3d
       -7.236401e-07 -0.06460709 0.0019076931 0.076394
000070 1a de 9f bd 11 b2 d0 b2 9e 5b d3 bd f4 72 6a bd
       -0.078060344 -2.4295362e-08 -0.10320209 -0.057238534
000080 8e 79 d4 bd 78 8c 26 3d b4 e3 0c 3e 6c 54 22 b5
       -0.10374747 0.040661305 0.13758737 -6.047255e-07
000090 1b 9b 91 bd bc 55 80 bd a4 38 45 be e2 95 e6 bd
       -0.07109662 -0.062663525 -0.19259888 -0.11259057
0000a0 44 30 37 be 46 fc 4e bd 12 e7 8f bd ce 81 9c af
       -0.17889506 -0.050533555 -0.07026495 -2.8468466e-10
0000b0 21 c8 b3 3d eb 59 09 bd e3 70 3d 3e c6 27 6d b9
       0.08778406 -0.033533018 0.18500094 -0.00022616898
0000c0 9d 86 92 b5 8f 37 4f 3e 3d f7 2a 3e bf 17 d6 3d
       -1.0917025e-06 0.20236038 0.16695876 0.10453748
0000d0 25 01 93 bd 16 d4 c3 36 2e d9 5b bd 58 b2 13 be
       -0.07177953 5.836143e-06 -0.053673916 -0.14423501
0000e0 5d b5 70 bd 95 17 26 3e 8c 43 b1 3a ad 4e 3d 36
       -0.05876671 0.16219933 0.0013524159 2.820899e-06
0000f0 27 b6 6c bd 35 46 49 3c 60 20 15 b7 c9 76 1e 3e
       -0.0577909 0.012284805 -8.88863e-06 0.15475
000100 9c c5 88 3a a0 fc 2e 3e 04 d3 86 be 87 a4 8f bd
       0.0010434869 0.17088556 -0.26332867 -0.07013803
000110 a1 40 fb 37 77 0d 40 bb d0 c5 c2 3d 63 54 7e 36
       2.9951627e-05 -0.00293049 0.09510386 3.789807e-06
000120 a6 5a e8 3d 7f 01 5a bc 0f 53 b7 b8 96 a3 b2 bd
       0.11345415 -0.013306021 -8.741591e-05 -0.08722608
000130 9d 85 89 bb 62 12 3e bb a9 70 8f bd be 80 c3 b6
       -0.004196836 -0.0029002656 -0.0700391 -5.8264404e-06
000140 ec 00 02 3e 1f af cf bd e3 45 62 bd b7 e7 1c 3d
       0.12695664 -0.101408236 -0.05524243 0.038306918
000150 41 eb 0d bc c5 da 29 bc b9 79 59 bd 6d c0 58 3c
       -0.008662046 -0.0103671 -0.0530946 0.013229472
000160 1c 1c 97 bd 1b ec 9c bd b3 e6 20 be 43 de dc bd
       -0.07378408 -0.07662221 -0.15713005 -0.107845806
000170 69 fb a8 bd e7 ba 8e 3d e0 d9 18 3e 60 c4 cd bd
       -0.08251078 0.069692425 0.14926863 -0.10047221
000180 c8 fc ac bd 1c e8 8e 2b a2 13 9d 3d 54 5d 00 38
       -0.08446652 1.015413e-12 0.0766976 3.0604497e-05
000190 c0 06 cd bc 59 3f 3e 3d ad 05 3f 3e 3e 23 90 b5
       -0.025027633 0.04644713 0.18654509 -1.0739093e-06
0001a0 4f a4 ca bd 3a 53 7a 3e c1 23 89 b8 04 bb 27 be
       -0.098946206 0.24445811 -6.539329e-05 -0.16379935
0001b0 f6 b1 14 b4 b2 e5 94 3d 85 95 f2 37 34 3b e3 3c
       -1.3848316e-07 0.072703734 2.8918274e-05 0.027738191
0001c0 26 bd 23 3e f7 46 43 32 15 01 00 be 02 09 c5 bd
       0.15990123 1.1366629e-08 -0.12500413 -0.09620859
0001d0 36 d4 5c b9 5d 93 23 3e aa 28 b7 bd 1c 62 e2 b5
       -0.0002105989 0.15974183 -0.08943303 -1.6866866e-06
0001e0 d5 2f 8f bd 30 60 80 3d bb 54 ba 3d f3 d1 d9 3d
       -0.06991545 0.06268346 0.09098192 0.10635748
0001f0 70 0a a2 3e c8 37 49 be 39 85 64 3d a2 9d 72 31
       0.31648588 -0.19650185 0.055791114 3.5305239e-09
000200 d4 04 09 be d0 7f 6e 3d 90 9f ce 3d 4c e9 d2 b8
       -0.13380748 0.05822736 0.10089028 -0.00010057035
000210 18 79 a7 b3 ab 2f 4c bd 5e 36 d4 bd 3c 0f 19 bc
       -7.79857e-08 -0.049850147 -0.10361932 -0.009342011
000220 f5 55 13 be 43 ea 6f 2e ce d8 f4 bc 02 b4 12 3c
       -0.14388259 5.4550375e-11 -0.029888537 0.00895405
000230 d2 34 01 3e d3 7a aa bd 25 1f 5f 35 94 10 42 b6
       0.12617806 -0.08324208 8.3119295e-07 -2.8917902e-06
000240 7b 55 a3 3d af 7f 3e be 28 9c de b7 bd a4 02 be
       0.079752885 -0.18603395 -2.6537178e-05 -0.12758155
000250 73 01 81 39 cc 2b 08 be 60 b1 19 3e f6 c9 3f be
       0.00024605877 -0.13297957 0.1500907 -0.18729386
000260 21 4b db 37 bf d5 7b 3b d8 10 5f be 36 97 b7 35
       2.6141819e-05 0.0038426963 -0.21783769 1.3678571e-06
000270 4c ec 34 be bb 7b 4c 3e 4e 3d 55 38 73 fc 7d 3e
       -0.17668265 0.19969074 5.084025e-05 0.24803333
000280 05 ba 3a 3c 42 e1 e6 b9 2e 5f 90 bd a2 99 d7 38
       0.01139689 -0.0004403685 -0.07049404 0.00010280615
000290 60 f2 3b 3d 81 59 b5 3d c5 ab c2 3c 5b 33 ef 3d
       0.045885444 0.08854962 0.023763547 0.11679717
0002a0 53 18 2d 3d 2c ca 66 bc 66 11 20 be f8 62 72 bd
       0.042259526 -0.0140862875 -0.15631637 -0.059176415
0002b0 03 41 c2 3c 82 a0 02 be 16 c8 40 3e fc 27 58 3e
       0.02371264 -0.12756541 0.18826327 0.21109003
0002c0 91 3e 16 bd cb 92 06 3e 68 55 03 3c 4b 0d c0 bd
       -0.03668076 0.13141935 0.008015968 -0.093775354
0002d0 f6 1b 1b 3e ec df 3b 31 8c 19 89 3d 6b 37 aa 3a
       0.15147385 2.7339366e-09 0.06694326 0.0012986487
0002e0 34 9e 8f 3d 65 53 27 be 99 33 1b be ae 7f 98 36
       0.07012597 -0.16340406 -0.15156402 4.544817e-06
0002f0 00 a4 54 3e c7 3d 43 3c 82 74 ad b8 11 38 36 be
       0.20765686 0.011916584 -8.270984e-05 -0.17794825
000300 fb 8e 1b 34 41 1d cf bc 86 94 1a bb df 1f ec bd
       1.4487516e-07 -0.025282504 -0.0023587062 -0.115295164
000310 ef 6a 80 bd b9 17 7d b4 4a f1 76 3b f9 b5 a8 bc
       -0.06270396 -2.3571091e-07 0.003768044 -0.020594584
000320 e8 c0 fa bb 80 86 e7 bd 48 0f 71 3e e1 56 f8 36
       -0.0076523907 -0.11304951 0.23540986 7.40109e-06
000330 55 4f e9 bc 46 61 17 3e 25 44 a4 bd 35 2d 98 3c
       -0.028480211 0.147832 -0.0802081 0.018576244
000340 ed 0a 59 be 65 83 da bd c3 aa 25 bb a4 6c 61 31
       -0.21195574 -0.10669593 -0.0025278784 3.2803564e-09
000350 df 91 37 3e 2f c1 68 bd 61 f8 f1 3d c3 8e 43 39
       0.17926739 -0.05682486 0.11814953 0.00018649832
000360 06 95 19 37 10 b3 54 bd 91 a3 c8 bd 51 3d 65 bd
       9.154208e-06 -0.05192858 -0.09796823 -0.05596668
000370 50 66 b5 3d a7 85 a0 9d 47 5f 5a bd 1f 81 0f be
       0.08857405 -4.248984e-21 -0.05331352 -0.140141
000380 46 c9 de bd 0d 31 f7 3d a4 e7 46 38 15 4a 09 b6
       -0.108782336 0.120699026 4.742261e-05 -2.0457712e-06
000390 8e 91 d4 3d 75 7f 08 3e 88 b9 96 b5 08 ad 85 3d
       0.10379325 0.13329871 -1.1229868e-06 0.06527144
0003a0 67 36 f1 ba 72 23 e1 3c 6e c7 2f be 4c 3c e0 3d
       -0.0018403054 0.027482722 -0.1716592 0.10949001
0003b0 7a 86 5c b7 72 7b 0a bc ce fc 3e 3e 9a 08 33 38
       -1.3144332e-05 -0.008452283 0.18651125 4.2684936e-05
0003c0 91 3d 81 3d 0f 6e 48 bd 1b 43 84 b7 21 48 a9 3c
       0.06310571 -0.048933085 -1.5766875e-05 0.020664277
0003d0 da c8 cf 3c a2 e3 5e 3c 84 66 21 bd b3 2e 00 b9
       0.025364328 0.013604077 -0.039404407 -0.00012224428
0003e0 72 c4 13 be 85 1c 2d 3c 38 04 bb bd ca 98 d7 bd
       -0.14430407 0.010565882 -0.09131664 -0.10527189
0003f0 ab bc b4 bb 61 11 5e bc e3 46 06 3e c9 97 3d be
       -0.005515655 -0.013553948 0.13112979 -0.18514933

bias f4 [26]
000000 60 23 4e 3c 59 13 04 3d 2c 87 71 bb 00 61 56 bc
       0.012581676 0.032245014 -0.003685425 -0.01308465
000010 a4 e0 64 3c 8e c3 df bc 85 ed a3 bb 55 5d d4 3c
       0.013969574 -0.027314927 -0.00500268 0.02592341
000020 aa 52 d9 bb 03 24 31 bc 13 f3 a1 bb 3f 17 8e 3b
       -0.006632169 -0.0108118085 -0.004942307 0.0043362672
000030 c0 a3 b1 3c d9 9e 48 bd 18 3e 82 bc ea 08 3e bc
       0.021684527 -0.048979614 -0.01589875 -0.011598805
000040 ea e8 a0 bc aa 14 3b bc c0 2b 60 3d 24 4e 02 bc
       -0.019642312 -0.011418501 0.054729223 -0.0079532005
000050 a2 76 dc 3c ac c9 0a 3b 0f 96 eb 3b 92 3f 40 3c
       0.026912037 0.0021177335 0.0071895192 0.011733906
000060 74 65 67 bc 59 8c 31 bc
       -0.014123309 -0.010836684
